lite/examples/reinforcement_learning/android/app/src/main/assets/planestrike_tf.tflite (tflite, 85004 bytes, 6 tensors)

sequential/dense/BiasAdd/ReadVariableOp/resource f4 [128]
-0.24416164 0.22246313 -0.12048997 -0.13475126 -0.09506084 0.06933535 0.031000448 0.24934374
-0.052707072 0.4956173 -0.1807799 0.42909557 -0.22639945 -0.28793955 0.08195109 0.20603764
0.14567868 0.16116555 -0.22627981 0.46904564 0.0979956 -0.11006864 -0.15532936 -0.21962652
-0.42493793 0.4314348 -0.3064678 0.14168967 0.053565335 -0.20857282 0.6205577 0.18144457
0.4053428 0.106891334 -0.2705757 -0.36552274 -0.16495399 -0.13258785 0.015429073 0.0042751627
-0.021826042 0.028650045 -0.28299394 -0.28537548 -0.0013229485 0.14012346 -0.6057496 -0.048238665
0.03833604 -0.08355699 -0.0316903 0.3414283 -0.1809593 -0.20231096 -0.23269683 -0.35561827
0.17557931 -0.17105792 -0.049116135 -0.03285058 -0.1828211 0.47973788 0.07306873 -0.15396954
-0.26554146 -0.3412287 -0.2336963 0.19633321 -0.082594424 0.13024044 0.06364589 -0.4613497
-0.27873492 0.36571303 0.25716555 0.29676607 -0.023232704 0.117544934 -0.12241267 -0.14778015
-0.01701482 0.0021856334 -0.30302402 -0.36589393 -0.026164562 0.20860405 -0.19097935 0.40150222
0.32100204 0.23042417 -0.25136814 -0.12921625 -0.25888494 -0.011029223 0.2363352 -0.38655856
0.42346624 -0.04106748 0.1769117 -0.1079856 -0.16024941 -0.038268138 -0.25076076 0.07250189
-0.2660717 -0.25656912 -0.17693639 0.0005941249 0.25698802 -0.17349304 0.06465923 0.28354004
-0.060218528 -0.2532576 0.010050616 -0.035875116 -0.016371764 -0.29304272 0.2481563 -0.019285446
0.14360511 -0.14067115 -0.041951507 -0.21537763 0.084911875 -0.22203572 -0.004125451 0.16775812
00000000: 8205 7abe 60cd 633e 72c3 f6bd 3cfc 09be
00000010: 42af c2bd b1ff 8d3d a7f4 fd3c f753 7f3e
00000020: 5fe3 57bd 8dc1 fd3e 5e1e 39be 6ab2 db3e
00000030: 42d5 67be d06c 93be f9d5 a73d 88fb 523e
00000040: cb2c 153e 9508 253e e5b5 67be c026 f03e
00000050: ebb1 c83d ab6b e1bd a90e 1fbe c6e5 60be
00000060: 7791 d9be 06e5 dc3e 59e9 9cbe 1917 113e
00000070: 5367 5b3d 1d94 55be dfdc 1e3f 9bcc 393e
00000080: 1789 cf3e d8e9 da3d e688 8abe cc25 bbbe
00000090: b3e9 28be 1cc5 07be 39ca 7c3c aa16 8c3b
000000a0: 87cc b2bc 80b3 ea3c 95e4 90be bc1c 92be
000000b0: c966 adba 867c 0f3e 6812 1bbf e895 45bd
000000c0: 4006 1d3d ed1f abbd b0cd 01bd b1cf ae3e
000000d0: 654d 39be 9b2a 4fbe 1448 6ebe 9913 b6be
000000e0: 10cb 333e cf29 2fbe 002e 49bd 548e 06bd
000000f0: 7435 3bbe 34a0 f53e 0fa5 953d 31aa 1dbe
00000100: 0df5 87be 87b5 aebe 154e 6fbe 930b 493e
00000110: 4427 a9bd c05d 053e c758 823d 0736 ecbe
00000120: 58b6 8ebe bd3e bb3e 34ab 833e b9f1 973e
00000130: 8352 bebc 66bb f03d 7eb3 fabd ae53 17be
00000140: aa62 8bbc d83c 0f3b f725 9bbe 7356 bbbe
00000150: 1057 d6bc 4d9c 553e 1790 43be b391 cd3e
00000160: 615a a43e 50f4 6b3e 53b3 80be 4451 04be
00000170: 918c 84be eab3 34bc db01 723e 01eb c5be
00000180: 91d0 d83e 6036 28bd 5728 353e 8e27 ddbd
00000190: 6c18 24be 0dbf 1cbd b763 80be df7b 943d
000001a0: 8d3a 88be 075d 83be d02e 35be 0cbf 1b3a
000001b0: ef93 833e 29a8 31be 0f6c 843d 292c 913e
000001c0: b4a7 76bd fbaa 81be 57ab 243c c9f1 12bd
000001d0: 141e 86bc b209 96be af1c 7e3e 83fc 9dbc
000001e0: 380d 133e 190c 10be 58d5 2bbd f48b 5cbe
000001f0: 47e6 ad3d 555d 63be cb2e 87bb c9c8 2b3e

sequential/dense_1/BiasAdd/ReadVariableOp/resource f4 [64]
0.5727605 0.39064422 0.65077007 0.25772074 -0.117533356 0.30267298 0.0009855144 0.0535602
0.0854072 0.011788117 0.5184669 0.26216096 -0.04974063 0.3392676 0.68666553 -0.16762683
0.19204675 -0.257249 0.1826285 0.39894235 0.2614928 0.27920398 -0.13555847 0.7483341
-0.1709046 0.082975425 1.6201365 0.12956299 0.05467844 -0.09027263 0.43731692 0.80361205
0.379572 0.34975868 -0.042903434 0.68083537 0.35943684 0.19314896 0.6719462 0.22181444
0.072226085 0.24690995 0.7517636 -0.030759685 -0.026436891 0.4717259 0.824394 -0.10483053
0.40950334 -0.03448141 0.44762284 0.19765937 0.095056616 -0.12705965 -0.09641215 0.9112048
-0.014601971 -0.11798493 -0.039372437 0.27115378 0.62872475 -0.08954327 0.12967664 -0.1877748
00000000: 6fa0 123f 8502 c83e de98 263f f9f3 833e
00000010: 54b5 f0bd f4f7 9a3e 602c 813a f161 5b3d
00000020: f8e9 ae3d f222 413c 3fba 043f f639 863e
00000030: d5bc 4bbd 7cb4 ad3e 50c9 2f3f 5ea6 2bbe
00000040: e7a7 443e 24b6 83be f702 3b3e 2c42 cc3e
00000050: 62e2 853e d3f3 8e3e d7cf 0abe d392 3f3f
00000060: 9e01 2fbe 05ef a93d a260 cf3f 29ac 043e
00000070: 80f6 5f3d dbe0 b8bd 01e8 df3e 85b9 4d3f
00000080: 4357 c23e 9213 b33e 83bb 2fbd 3a4b 2e3f
00000090: 1b08 b83e d7c8 453e ab04 2c3f 5323 633e
000000a0: 45eb 933d f6d5 7c3e 9473 403f bcfb fbbc
000000b0: 2e92 d8bc 0f86 f13e 7c0b 533f 64b1 d6bd
000000c0: 6caa d13e 613c 0dbd d22e e53e 3867 4a3e
000000d0: 0bad c23d ed1b 02be bc73 c5bd b844 693f
000000e0: 1b3d 6fbc 15a2 f1bd fe44 21bd abd4 8a3e
000000f0: 1bf4 203f 7662 b7bd f4c9 043e 0a48 40be

sequential/dense_2/BiasAdd/ReadVariableOp/resource f4 [64]
-0.19420968 -0.2078244 -0.14467035 -0.18445157 -0.09876065 -0.06996288 -0.25441614 -0.23702158
-0.22536042 0.060993683 0.13334614 0.351284 0.18423127 0.0857801 0.18284306 -0.2709112
-0.09519952 0.15904942 0.11222528 0.3636454 0.35255563 0.5603143 0.13131176 -0.12723236
-0.1503057 0.11320133 0.3470467 0.25019392 0.1407149 0.072760634 0.12486997 -0.39550263
-0.20646082 0.0062064044 0.039026286 -0.06487046 0.12693088 0.30561757 0.076796696 -0.1921334
-0.07444066 0.21133949 0.23531912 0.31568217 0.1371615 0.07849302 -0.10423104 -0.2926836
-0.18891285 -0.044550844 0.036027756 0.16562715 -0.10615504 0.30527115 -0.17216982 -0.23791903
-0.17809492 -0.15967864 -0.1591643 -0.14169592 -0.098105475 -0.1535407 -0.23295462 -0.28445843
00000000: e7de 46be ebcf 54be 7724 14be dfe0 3cbe
00000010: 0643 cabd b348 8fbd d542 82be c9b5 72be
00000020: e2c4 66be 83d4 793d e48b 083e 7fdb b33e
00000030: 1fa7 3c3e 7aad af3d 363b 3b3e dfb4 8abe
00000040: f7f7 c2bd dadd 223e 5ed6 e53d bb2f ba3e
00000050: 2c82 b43e c270 0f3f 9776 063e 3349 02be
00000060: bde9 19be 19d6 e73d 1bb0 b13e 6b19 803e
00000070: 9117 103e 8703 953d d4bb ff3d 527f cabe
00000080: 776a 53be 185f cb3b 07da 1f3d ceda 84bd
00000090: 2bfa 013e e879 9c3e 9647 9d3d 9ebe 44be
000000a0: 5874 98bd 6169 583e 7ff7 703e 18a1 a13e
000000b0: 1074 0c3e f3c0 a03d 1577 d5bd a0da 95be
000000c0: 5f72 41be f27a 36bd d791 133d 2a9a 293e
000000d0: d067 d9bd 804c 9c3e 494d 30be 0ca1 73be
000000e0: 845e 36be cc82 23be f7fb 22be bc18 11be
000000f0: 86eb c8bd c639 1dbe a88b 6ebe 89a4 91be

sequential/dense/MatMul f4 [128, 64]
-0.035256803 0.07496746 -0.0073086866 0.18724138 -0.085192874 -0.2440864 -0.036251087 0.10388847
0.053995848 -0.10898944 -0.12002947 0.036829345 0.37735778 0.13332307 0.25914332 0.041373428
-0.21348377 0.071297854 -2.0484638 0.054080915 -0.13054565 -0.007625267 -0.06419968 0.025432013
-0.20449878 0.03570429 0.014561863 0.42013353 0.16277434 0.08199885 0.031391155 -0.17379801
0.025394617 -0.22799751 -0.057732187 0.086455345 -0.14053732 0.17432983 0.11844429 -0.13583064
0.12399214 -0.030971648 -0.15955149 0.09337208 -0.23598054 0.051091682 2.0651793 0.014204736
-0.08704916 0.061949905 -0.14736523 -0.14532425 0.23786187 0.2812832 -0.090045005 -0.04133737
-0.19365476 -0.055823077 0.010281904 -0.12147516 -0.1452751 0.2247925 0.106604844 0.08890736
0.1567788 0.01816125 -0.10932251 0.032184783 0.6967526 -0.09265141 0.1045096 0.020952355
-0.0257119 -0.013647584 -0.1890381 0.11172447 0.058258902 -0.03195466 -0.017704707 0.07634641
0.24540628 -0.14676398 -0.078453876 -0.3152099 -0.024128905 -0.2390327 -0.11353501 -0.07618777
0.027524905 0.097522266 0.4679225 0.039799232 -0.19463228 -0.34559414 0.022111097 0.0025259338
0.23340094 -0.0043655992 0.09101563 0.33722878 -0.07935186 -0.06269672 0.15138398 0.36498198
-0.35357115 0.79267645 0.36612108 0.2560091 -0.0513231 -0.121486284 -0.104342766 0.08204785
0.21943843 0.17773362 -0.24169223 0.038882293 0.007684898 0.500661 0.4356108 -0.2382743
0.051411394 0.00033744943 -0.08404461 0.012770982 0.18868755 -0.066360414 -0.10976215 0.050088894
0.07344894 0.09522918 -0.074757524 0.14264743 0.02467296 -0.12074013 0.07109666 0.09541816
0.044171635 -0.10551186 -0.1867306 0.21694848 0.12165897 0.95240027 0.18774259 0.09853862
-0.20342904 -0.11488616 0.102840684 0.21352038 0.10737191 -0.25166598 0.37530673 -0.18905427
0.24679087 0.8552332 0.17859775 -0.08335421 0.2786103 0.097524926 -0.026486248 -0.09240788
-0.32881266 -0.14655237 0.4813487 -0.03351927 0.0359756 -0.15894218 0.00895813 0.065306336
0.14130673 0.18978786 -0.32981506 0.096888155 0.09879463 -0.048792347 -0.030957194 -0.07439934
-0.04414039 -0.20700577 0.049567185 -0.21395183 -0.013569638 0.10308544 -0.07277947 0.09172376
-0.16148628 0.17909548 -0.038933847 -0.059492197 -0.066390574 -0.008071996 0.038187932 -0.06361248
-0.03552001 0.3238941 0.25828344 -0.028882151 0.01886285 0.06973872 0.1063055 0.030207822
-0.2557424 -0.16664946 0.056730825 -0.13649769 0.06794608 -0.022098359 -0.11147576 0.1937309
-0.18570627 -0.06492632 0.03779482 0.103373125 0.08666137 -0.013857483 -0.044045642 -0.16842648
-0.11640978 0.10669106 -0.09465176 1.6940161 -0.10959918 -0.10314412 -0.27276424 -0.034709804
-0.13335624 -0.33041218 0.032172237 0.120088354 -0.11211574 0.005354519 0.13964948 0.07484458
0.11141323 0.069386885 -0.14667287 0.10279049 -0.05982753 -0.17590627 0.092907116 -0.0045271134
0.22411732 0.093851484 0.13305885 0.5465895 -0.13609824 0.32014996 0.05499866 -0.025097126
0.07430575 0.005841009 0.27172834 0.05493611 0.12250968 -0.14347105 -0.10637887 0.0051289266
00000000: 7069 10bd 8a88 993d b57d efbb 34bc 3f3e
00000010: 9a79 aebd c9f1 79be 057c 14bd 7ac3 d43d
00000020: c02a 5d3d db35 dfbd 03d2 f5bd 5eda 163d
00000030: 0a35 c13e d885 083e 6fae 843e 2f77 293d
00000040: 7d9b 5abe 9c04 923d 081a 03c0 f383 5d3d
00000050: c2ad 05be 60dd f9bb 1f7b 83bd cc56 d03c
00000060: 2168 51be a93e 123d e194 6e3c be1b d73e
00000070: 51ae 263e 03ef a73d 0394 003d 1bf8 31be
00000080: 5f08 d03c 2e78 69be 9678 6cbd 800f b13d
00000090: 04e9 0fbe 8583 323e eb92 f23d 3017 0bbe
000000a0: 97ef fd3d 41b8 fdbc 7761 23be dc39 bf3d
000000b0: e2a4 71be 8345 513d e62b 0440 fbba 683c
000000c0: d446 b2bd 2fbf 7d3d e9e6 16be e1cf 14be
000000d0: 1092 733e 5a04 903e 8469 b8bd 6051 29bd
000000e0: 6f4d 46be bda6 64bd 6e75 283c f8c7 f8bd
000000f0: ffc2 14be 0130 663e a453 da3d 1015 b63d
00000100: 9f8a 203e e7c6 943c 7be4 dfbd 31d4 033d
00000110: 615e 323f 06c0 bdbd 2109 d63d 46a4 ab3c
00000120: c3a1 d2bc 1e9a 5fbc 3493 41be cdcf e43d
00000130: e3a0 6e3d e4e2 02bd 7609 91bc 825b 9c3d
00000140: c94b 7b3e 4c49 16be 6dac a0bd 3163 a1be
00000150: fba9 c5bc fdc4 74be 0b85 e8bd 5508 9cbd
00000160: e97b e13c c1b9 c73d 8a93 ef3e 8504 233d
00000170: af4d 47be b7f1 b0be 5522 b53c 238a 253b
00000180: a800 6f3e 4d0d 8fbb 6766 ba3d 40a9 ac3e
00000190: 3a83 a2bd 2367 80bd 6704 1b3e ebde ba3e
000001a0: 4707 b5be d8ec 4a3f 3974 bb3e a013 833e
000001b0: 2c38 52bd cdcd f8bd a9b1 d5bd b408 a83d
000001c0: 78b4 603e cdff 353e 2b7e 77be 0a43 1f3d
000001d0: 99d1 fb3b 522b 003f 6108 df3e 2efe 73be
000001e0: c194 523d b2eb b039 951f acbd 623d 513c
000001f0: 4f37 413e f8e7 87bd faca e0bd 032a 4d3d
00000200: 666c 963d 8407 c33d 791a 99bd 2b12 123e
00000210: f31e ca3c 9a46 f7bd 209b 913d 996a c33d
00000220: 51ed 343d 9a16 d8bd 4e36 3fbe be27 5e3e
00000230: 5728 f93d 81d0 733f 983f 403e 9ece c93d
00000240: b44f 50be 6f49 ebbd 239e d23d 16a5 5a3e
00000250: cee5 db3d 5dda 80be 3428 c03e 7197 41be
00000260: bfb6 7c3e 90f0 5a3f 54e2 363e 9db5 aabd
00000270: 02a6 8e3e 26bb c73d b0f9 d8bc 5840 bdbd
00000280: 225a a8be d311 16be 5673 f63e 814b 09bd
00000290: 275b 133d bdc1 22be 1fc5 123c 54bf 853d
000002a0: b6b2 103e c057 423e 85dd a8be 4c6d c63d
000002b0: d754 ca3d 7cda 47bd f199 fdbc ae5e 98bd
000002c0: 8ecc 34bd 52f9 53be f606 4b3d 3016 5bbe
000002d0: 3053 5ebc 761e d33d 670d 95bd abd9 bb3d
000002e0: a95c 25be ce64 373e 1979 1fbd 17ae 73bd
000002f0: c8f7 87bd 6840 04bc f36a 1c3d 4347 82bd
00000300: 6e7d 11bd 73d5 a53e ba3d 843e 439a ecbc
00000310: 4386 9a3c 2dd3 8e3d b3b6 d93d 6576 f73c
00000320: abf0 82be 28a6 2abe 955e 683d 0dc6 0bbe
00000330: 5027 8b3d 9e07 b5bc 674d e4bd 6561 463e
00000340: c929 3ebe 17f8 84bd bece 1a3d 4ab5 d33d
00000350: 847b b13d 7f0a 63bc 3469 34bd fe77 2cbe
00000360: 4068 eebd d880 da3d c8d8 c1bd 85d5 d83f
00000370: 8975 e0bd 393d d3bd c1a7 8bbe de2b 0ebd
00000380: 8a8e 08be c92b a9be 09c7 033d e2f0 f53d
00000390: f09c e5bd f674 af3b 4600 0f3e 1d48 993d
000003a0: 9f2c e43d b61a 8e3d 6a31 16be d283 d23d
000003b0: b60d 75bd c620 34be 1646 be3d 2e58 94bb
000003c0: 037f 653e 3535 c03d 9440 083e 4aed 0b3f
000003d0: 565d 0bbe b2ea a33e 4646 613d 7d98 cdbc
000003e0: 9d2d 983d ef65 bf3b fa1f 8b3e b004 613d
000003f0: 5be6 fa3d 13ea 12be 2add d9bd 8e10 a83b

sequential/dense_1/MatMul f4 [64, 128]
-0.2835686 0.33073536 -0.124684 -0.4875064 0.084460236 1.1675285 0.6664603 -0.1702196
0.078935295 0.41481474 -0.08104095 0.009050047 -0.3969994 0.33364525 -0.08415662 0.14549087
-0.4228048 0.023533022 -0.45188835 0.36707044 0.12674135 0.03278934 0.41210833 -0.12990241
-0.35889938 0.0225906 0.05570292 0.31290945 -0.06601593 -0.38804364 0.065711476 -0.24057381
0.4201292 -0.15817824 -0.44126284 -0.38644022 0.0767382 0.1603512 0.18594918 -0.28555527
-0.12351135 0.28781205 -0.028720416 -0.16604136 0.2525054 0.2678399 -0.21684575 -0.10480687
-0.44951084 -0.26946345 -0.22972184 -0.08959599 -0.31037098 -0.4649727 -0.03023408 0.21378744
-0.5722624 -0.013541352 -0.002927309 0.18063189 0.09303215 -0.18137953 0.16869234 -0.0035711885
0.24302928 -0.19150928 -0.24045931 0.032258432 -0.18263687 0.047799792 0.08760595 -0.28771797
0.15529543 -0.2612494 0.028377166 0.09756914 -0.513783 0.25411242 -0.28327802 0.0568213
0.09588706 0.21097685 0.21218665 0.2653846 0.123456135 0.18352613 -0.24338451 0.026508797
0.30677104 0.18972917 -0.04097404 0.30478424 -0.05347358 -0.05997051 -0.22207314 0.029102383
-0.09206595 0.8374484 0.11217593 -0.07978975 -0.16744412 -0.0011603539 0.26379743 0.13283557
0.020044554 -0.56595075 -0.13080746 -0.13355 0.5114909 -0.008569322 -0.31174964 -0.11616269
0.44622082 0.1596931 0.22121814 -0.28539294 -0.06012216 -0.23584878 0.4590993 0.13070649
0.23188874 -0.03147414 -0.29617152 0.41810447 0.06741029 -0.23447444 -0.17976333 -0.0650587
-0.06834279 0.2160883 -0.25062096 -0.024311865 -0.4772167 0.6510881 -0.3406859 -0.25770137
-0.11473534 0.14507605 0.037670515 0.4786446 -0.4637345 0.02641137 0.2806182 -0.19557677
-0.18588799 0.18135269 -0.50779796 0.42330036 0.24655107 0.24075532 -0.19013843 -0.36327037
0.026163142 0.08746493 -0.30621988 0.049863707 -0.23973703 -0.012420436 0.32531387 0.042599577
-0.56393695 -0.41405246 -0.52803224 0.061389085 0.05077734 -0.22233546 0.3801833 0.063419275
0.0016145976 -0.17660624 0.19923046 0.12703119 -0.24938579 -0.11808439 0.06629565 -0.22718194
-0.18304485 -0.8762701 -0.4849283 0.3211292 0.33282262 -0.0096673705 0.40025705 0.29023847
-0.056523968 0.12496632 -0.33950484 -0.24030955 0.09585609 0.24447855 0.21494605 0.35638094
-0.034288578 0.028898617 -0.21830714 0.07019683 -0.12017857 0.63011116 0.42626077 -0.35884184
-0.5012795 -0.30991006 -0.034830593 -0.32115558 0.12772712 -0.25972342 0.46539402 0.1840137
0.010984083 -0.0944875 -0.16152927 0.16628964 -0.05502279 -0.019957768 0.4534036 -0.57144946
0.57405895 0.0152292065 0.29854527 -0.2509489 -0.38179535 -0.054193642 -0.09190339 -0.2578866
-0.6201965 -0.15661657 0.15597756 0.16953215 -0.33969355 -0.043088365 -0.4130221 -0.26012525
0.004131215 -0.06476704 -0.18671557 -0.15145437 -0.33041987 0.28293705 0.35612252 -0.1943409
0.22699712 0.27658078 -0.055245772 0.19563493 -0.61685973 -0.15897715 -0.23432395 -0.009608393
-0.11459501 -0.005656848 -0.35124335 0.32771346 0.16867106 -0.22140713 0.57173586 0.2884112
00000000: e72f 91be 2556 a93e 535a ffbd 709a f9be
00000010: 7df9 ac3d 9371 953f 249d 2a3f 0c4e 2ebe
00000020: d4a8 a13d 9962 d43e ccf8 a5bd a646 143c
00000030: 8143 cbbe 8dd3 aa3e 4e5a acbd 8ffb 143e
00000040: df79 d8be 53c8 c03c e95d e7be a8f0 bb3e
00000050: 7cc8 013e 1d4e 063d ddff d23e 2305 05be
00000060: a9c1 b7be ec0f b93c bf28 643d ab35 a03e
00000070: 5c33 87bd a8ad c6be bd93 863d fb58 76be
00000080: 2d1b d73e 7af9 21be 34ed e1be 7edb c5be
00000090: eb28 9d3d 1b33 243e 7669 3e3e 4d34 92be
000000a0: 85f3 fcbd 1a5c 933e 1447 ebbc bf06 2abe
000000b0: 6348 813e 5022 893e d00c 5ebe fca4 d6bd
000000c0: 4926 e6be 1df7 89be 343c 6bbe 1a7e b7bd
000000d0: f2e8 9ebe e710 eebe 76ad f7bc 18eb 5a3e
000000e0: ca7f 12bf 8cdc 5dbc 18d8 3fbb 91f7 383e
000000f0: a487 be3d 8ebb 39be afbd 2c3e 9a0a 6abb
00000100: abdc 783e 021b 44be f73a 76be 6b21 043d
00000110: 2905 3bbe b7c9 433d c06a b33d c54f 93be
00000120: c405 1f3e 7bc2 85be 3b77 e83c 54d2 c73d
00000130: 4887 03bf 061b 823e d109 91be 74bd 683d
00000140: 6f60 c43d 510a 583e 7547 593e 7ee0 873e
00000150: 92d6 fc3d 46ee 3b3e ca39 79be fa28 d93c
00000160: 1811 9d3e 5d48 423e 65d4 27bd ae0c 9c3e
00000170: 1d07 5bbd a3a3 75bd 2467 63be 1f68 ee3c
00000180: 138d bcbd 0563 563f 7ebc e53d cf68 a3bd
00000190: 7976 2bbe 0417 98ba 7510 873e 0c06 083e
000001a0: 7a34 a43c 26e2 10bf 64f2 05be 55c1 08be
000001b0: 11f1 023f 5766 0cbc a69d 9fbe b4e6 edbd
000001c0: 0e77 e43e 9786 233e 0287 623e 061f 92be
000001d0: a742 76bd 5882 71be 100f eb3e ecd7 053e
000001e0: 3e74 6d3e 07eb 00bd cba3 97be ca11 d63e
000001f0: 680e 8a3d 111a 70be e113 38be 7f3d 85bd
00000200: 4ef7 8bbd 4046 5d3e 6451 80be ad29 c7bc
00000210: bf55 f4be b6ad 263f 626e aebe 6ff1 83be
00000220: 5dfa eabd d18e 143e 664c 1a3d e810 f53e
00000230: 9c6e edbe a85c d83c 30ad 8f3e 4745 48be
00000240: 6c59 3ebe 85b4 393e 0cff 01bf d3ba d83e
00000250: e277 7c3e 9088 763e a6b3 42be 93fe b9be
00000260: 1654 d63c d020 b33d dac8 9cbe e33d 4c3d
00000270: a07d 75be 167f 4bbc 8a8f a63e e57c 2e3d
00000280: 2c5e 10bf affe d3be 1f2d 07bf 1f73 7b3d
00000290: e6fb 4f3d e8ab 63be 63a7 c23e f7e1 813d
000002a0: e8a0 d33a 44d8 34be 1203 4c3e 7714 023e
000002b0: fd5e 7fbe 3bd6 f1bd 04c6 873d 62a2 68be
000002c0: 1c70 3bbe 3d53 60bf 8648 f8be 0c6b a43e
000002d0: ba67 aa3e e463 1ebc 7eee cc3e 239a 943e
000002e0: ad85 67bd 58ee ff3d 94d3 adbe b513 76be
000002f0: 3350 c43d 9658 7a3e d11a 5c3e 9077 b63e
00000300: 2e72 0cbd cbbc ec3c e88b 5fbe 5bc3 8f3d
00000310: 2f20 f6bd f74e 213f da3e da3e 1eba b7be
00000320: da53 00bf 88ac 9ebe 86aa 0ebd 816e a4be
00000330: e6ca 023e 78fa 84be 2048 ee3e 166e 3c3e
00000340: 95f6 333c aa82 c1bd ee67 25be d547 2a3e
00000350: 945f 61bd 797e a3bc 8424 e83e 834a 12bf
00000360: 87f5 123f ec83 793c edda 983e 607c 80be
00000370: ae7a c3be 27fa 5dbd d837 bcbd b609 84be
00000380: 33c5 1ebf 1860 20be 95b8 1f3e d699 2d3e
00000390: 50ec adbe 6d7d 30bd a277 d3be 232f 85be
000003a0: 255f 873b 95a4 84bd 5e32 3fbe db16 1bbe
000003b0: cb2c a9be 20dd 903e b155 b63e 4d01 47be
000003c0: ef71 683e ff9b 8d3e 6449 62bd 8654 483e
000003d0: 85ea 1dbf e8ca 22be 9ef2 6fbe 856c 1dbc
000003e0: cab0 eabd 155d b9bb 2bd6 b3be 0fca a73e
000003f0: 1bb8 2c3e 8db8 62be 485d 123f a2aa 933e

sequential/dense_2/MatMul f4 [64, 64]
-0.42911506 -0.1537738 0.45400658 0.1027809 0.25614974 -0.029550858 0.030086685 -0.13170293
0.3052551 -0.07573076 -0.08603545 -0.29835433 0.002422626 -0.21311419 0.08613096 0.060197216
-0.23907974 -0.04673224 0.055207346 0.35802105 -0.40157977 -0.06188549 0.048907746 -0.34297216
-0.20670503 0.09768512 -0.27399173 0.36466214 -0.2928094 0.016495207 -0.32097253 -0.27868018
0.06438733 -0.29842928 -0.058199763 0.0093877055 -0.011273546 -0.18106788 -0.22933756 -0.09432794
0.071497254 0.053375613 -0.24748649 -0.30861652 -0.16340448 0.22142029 -0.32087958 0.0052255453
0.74241847 -0.056109954 -0.20334849 -0.01801334 0.42192808 0.015139556 -0.025402367 -0.10227303
0.22136818 0.05596532 -0.08778512 0.15779425 0.32664582 -0.09669096 -0.07173132 0.10902576
-0.20658763 -0.119402535 0.6096287 0.44432038 0.77336586 -0.120720334 0.26792473 0.13922878
0.12808515 -0.17124742 -0.11185194 -0.09710564 -0.112060115 -0.008880685 0.07442734 -0.1876041
0.106943816 0.30766153 0.047471847 0.2273351 -0.1897439 -0.09535831 -0.10968837 -0.5080898
-0.0385306 0.54482436 -0.38706762 -0.07641139 -0.36269677 -0.03728389 -0.0420776 -0.37699562
0.25505063 -0.27858955 -0.03776582 -0.029531786 0.18831909 -0.08941609 -0.12722665 -0.27426162
0.058379203 0.06841944 -0.20697019 0.04239007 -0.15545839 -0.088597395 0.0067679416 0.08435458
0.3431919 -0.21496756 -0.22085126 0.07907056 0.31753016 0.1445172 -0.027832566 -0.013120212
-0.011832642 0.1699379 0.083736725 0.042624734 0.45762983 0.124586195 -0.26265752 -0.40050045
-0.4189188 -0.055112608 0.2945455 -0.2684225 0.15821369 -0.09441762 0.3121492 0.23017614
0.16319185 -0.06309688 -0.3443684 0.08517911 0.036690727 -0.07581651 -0.381426 0.11036693
0.07121807 0.09906695 -0.037474316 0.2143907 -0.48250976 0.2614371 -0.02041982 -0.18430519
-0.18601619 -0.059319247 0.14102353 0.5263447 -0.11243528 -0.15798454 -0.23881854 -0.3769523
0.13736087 -0.17399824 -0.009619862 0.1857861 -0.11268628 0.3146488 -0.54453033 0.057289302
-0.084755205 -0.22499818 -0.20338115 -0.41262946 -0.21340737 0.2897499 0.022017082 0.14503862
0.44897938 -0.093535595 0.03426633 0.089630656 0.13901484 -0.4647372 -0.09234565 0.27016196
0.28155845 -0.09053377 -0.01702334 -0.17499729 0.7190784 0.493675 0.0048142234 0.094090916
-0.64180344 -0.24233304 0.20681351 0.47159413 0.1291903 0.12241249 0.019325357 -0.061295528
0.11738144 -0.19415675 -0.047938462 0.23026644 0.0584935 -0.020500835 -0.013847366 -0.3357427
-0.24193652 0.53173256 -0.17182176 0.35159993 -0.10910284 -0.2819227 -0.057766363 -0.33284736
-0.04939493 0.5622374 -0.37035143 0.24701644 -0.04350794 0.24913962 -0.38538453 -0.075132236
0.06128922 0.03999141 0.73042023 0.30572796 -0.25525242 0.12605436 0.19963482 0.08555835
-0.36330152 -0.42117128 -0.18716182 -0.07191096 0.23007473 0.15474047 0.08581342 -0.02951277
0.44796678 -0.40056193 0.5162017 -0.0315817 -0.46374586 0.06817668 0.1450336 0.34941146
0.5668317 -0.27689114 0.14835149 -0.31827796 0.34809104 -0.15147446 -0.13562931 -0.020317638
00000000: f8b4 dbbe e176 1dbe 8d73 e83e cb7e d23d
00000010: 0f26 833e a414 f2bc 5a78 f63c 22dd 06be
00000020: 654a 9c3e bb18 9bbd 5b33 b0bd e6c1 98be
00000030: ebc4 1e3b 9b3a 5abe 6e65 b03d 5b91 763d
00000040: 52d1 74be 4e6a 3fbd 1921 623d 894e b73e
00000050: dd9b cdbe a47b 7dbd 7d53 483d 0c9a afbe
00000060: 7caa 53be 230f c83d a548 8cbe ffb4 ba3e
00000070: 1deb 95be f520 873c 8356 a4be 2baf 8ebe
00000080: 81dd 833d b9cb 98be e062 6ebd e4ce 193c
00000090: aeb4 38bc dc69 39be 77d7 6abe 022f c1bd
000000a0: 276d 923d 63a0 5a3d 196d 7dbe fc02 9ebe
000000b0: 8153 27be 00bc 623e 544a a4be 0d3b ab3b
000000c0: 230f 3e3f 8dd3 65bd 963a 50be b690 93bc
000000d0: f506 d83e e60b 783c a018 d0bc 8674 d1bd
000000e0: 57ae 623e e43b 653d afc8 b3bd d194 213e
000000f0: 1f3e a73e e905 c6bd dfe7 92bd e648 df3d
00000100: b58b 53be 5189 f4bd a010 1c3f f67d e33e
00000110: 4efb 453f 393c f7bd 6e2d 893e fd91 0e3e
00000120: c128 033e 7c5b 2fbe a112 e5bd 52df c6bd
00000130: c67f e5bd 4b80 11bc 5c6d 983d 4a1b 40be
00000140: 5c05 db3d d085 9d3e d771 423d 88ca 683e
00000150: 3a4c 42be 384b c3bd 4ca4 e0bd 2c12 02bf
00000160: 43d2 1dbd 9c79 0b3f ba2d c6be 937d 9cbd
00000170: 64b3 b9be feb6 18bd 9059 2cbd 9205 c1be
00000180: ff95 823e 4aa3 8ebe 55b0 1abd a5ec f1bc
00000190: b8d6 403e c81f b7bd b447 02be 056c 8cbe
000001a0: 081f 6f3d 7e1f 8c3d feef 53be 36a1 2d3d
000001b0: 7c30 1fbe 8d72 b5bd 9cc5 dd3b 18c2 ac3d
000001c0: d9b6 af3e 7520 5cbe d526 62be bfef a13d
000001d0: 5093 a23e 51fc 133e 1f01 e4bc 28f6 56bc
000001e0: b3dd 41bc 3304 2e3e 297e ab3d 4697 2e3d
000001f0: 754e ea3e 0c27 ff3d 0c7b 86be 650e cdbe
00000200: 867c d6be c2bd 61bd abce 963e ad6e 89be
00000210: c502 223e 065e c1bd 05d2 9f3e 4bb3 6b3e
00000220: c41b 273e f038 81bd 0e51 b0be 6372 ae3d
00000230: 0449 163d b045 9bbd 454a c3be 0f08 e23d
00000240: c8da 913d 9de3 ca3d ab7e 19bd 3c89 5b3e
00000250: 850b f7be 15db 853e 7747 a7bc 80ba 3cbe
00000260: 077b 3ebe bdf8 72bd 7968 103e 87be 063f
00000270: 7844 e6bd b3c6 21be d98c 74be e4ff c0be
00000280: 54a8 0c3e 982c 32be a09c 1dbc b63e 3e3e
00000290: 10c8 e6bd a619 a13e 5766 0bbf 30a8 6a3d
000002a0: 2394 adbd ec65 66be 2643 50be 2b44 d3be
000002b0: 7687 5abe 195a 943e 2b5d b43c 0185 143e
000002c0: a0e0 e53e 978f bfbd da5a 0c3d 4790 b73d
000002d0: e859 0e3e 09f2 edbe b71f bdbd ab52 8a3e
000002e0: 6e28 903e c569 b9bd 8874 8bbc 7d32 33be
000002f0: 8615 383f f8c2 fc3e a2c0 9d3b bdb2 c03d
00000300: 3b4d 24bf 2726 78be ecc6 533e c974 f13e
00000310: 764a 043e 66b3 fa3d 3650 9e3c 0511 7bbd
00000320: ae65 f03d 07d1 46be 1f5b 44bd f7ca 6b3e
00000330: e196 6f3d 5ef1 a7bc 10e0 62bc 78e6 abbe
00000340: 35be 77be a01f 083f 0bf2 2fbe e804 b43e
00000350: 4f71 dfbd 2c58 90be 6c9c 6cbd f86a aabe
00000360: 5752 4abd caee 0f3f b49e bdbe e1f1 7c3e
00000370: 6235 32bd 751e 7f3e 1f51 c5be eede 99bd
00000380: 680a 7b3d 08ce 233d d2fc 3a3f 6088 9c3e
00000390: 72b0 82be 6514 013e 126d 4c3e 3739 af3d
000003a0: a802 babe c3a3 d7be 59a7 3fbe 0e46 93bd
000003b0: b698 6b3e 4974 1e3e f2be af3d c4c4 f1bc
000003c0: e75b e53e 7416 cdbe cb25 043f d05b 01bd
000003d0: 1970 edbe 37a0 8b3d b083 143e 0fe6 b23e
000003e0: e21b 113f adc4 8dbe 74e9 173e 54f5 a2be
000003f0: fd38 b23e 1f1c 1bbe 69e2 0abe 2d71 a6bc
