lite/examples/reinforcement_learning/android/app/src/main/assets/planestrike_tf_agents.tflite (tflite, 39960 bytes, 4 tensors)

ActorDistributionNetwork/EncodingNetwork/dense/bias f4 [64]
0	0x3f965cef	1.1747111
1	0xbf68dc4c	-0.90961146
2	0xbeee19db	-0.465041
3	0xbefc689e	-0.49298567
4	0x3fafe888	1.3742838
5	0xbe5e8a84	-0.21732527
6	0xbf53bf43	-0.8271372
7	0xbe2674f4	-0.16255552
8	0x3d332396	0.04373511
9	0xbf491d96	-0.7856077
10	0xbf287fc7	-0.6581997
11	0xbebeef0c	-0.37291753
12	0x3f9b99b7	1.2156285
13	0xbe39bf5b	-0.18139403
14	0xbe88fa31	-0.2675338
15	0xbf432410	-0.762269
16	0x3f06c60b	0.5264594
17	0xbf5e8f35	-0.86937267
18	0x3f58c37a	0.84673274
19	0xbed6b186	-0.41932315
20	0xbec7435c	-0.3891858
21	0x3f9087e9	1.1291476
22	0xbeecb3ad	-0.46230832
23	0xbd8b2004	-0.06793216
24	0xbf53324d	-0.8249863
25	0xbf2849ef	-0.65737814
26	0x3facf5bb	1.3512491
27	0xbf4c3cfe	-0.79780567
28	0xbf347bf0	-0.70501614
29	0xbf354075	-0.7080148
30	0x3df64554	0.12024942
31	0x3f8204e8	1.0157747
32	0xbf29c2c7	-0.6631283
33	0xbd42e245	-0.04757907
34	0xbf0b7b65	-0.5448516
35	0xbe8204e5	-0.2539436
36	0xbe7bc29b	-0.24585955
37	0x3e4a3822	0.19747975
38	0xbf065831	-0.5247832
39	0xbb56297a	-0.003267853
40	0x3f146050	0.5795946
41	0x3eb4c052	0.3530298
42	0x3facde5c	1.3505359
43	0x3f7a5259	0.977819
44	0x3f3c1281	0.73465735
45	0xbecd3f01	-0.4008713
46	0x3e325418	0.17414892
47	0x3f284312	0.6572734
48	0x3eda384b	0.42621073
49	0x3f1c07be	0.60949314
50	0x3f97aff3	1.185057
51	0xbf8c947a	-1.0982811
52	0xbf0618fc	-0.52381873
53	0xbf4221c0	-0.7583275
54	0xbf0669f5	-0.5250543
55	0x3ea9655c	0.33085144
56	0xbf004c69	-0.5011659
57	0x3ee1c6e1	0.44097045
58	0x3f4849b9	0.7823749
59	0xbf26d7fe	-0.6517333
60	0xbf32638e	-0.6968316
61	0x3ecd6b60	0.40120983
62	0xbee590ce	-0.4483704
63	0xbdc7de5f	-0.09759211

ActorDistributionNetwork/CategoricalProjectionNetwork/logits/bias f4 [64]
0	0xbf178a20	-0.5919514
1	0xbdbf7ca5	-0.09349946
2	0xbc9b0d6f	-0.018927304
3	0xbe21eda0	-0.15813303
4	0x3e338eb1	0.17534901
5	0x3dfeabff	0.124351494
6	0x3e0c6ebc	0.13714117
7	0xbf3ff696	-0.74985635
8	0xbcc1b3de	-0.023645338
9	0x3f353a05	0.70791656
10	0x3f3cdd64	0.73775315
11	0x3f0fe777	0.5621256
12	0x3f8f96b5	1.1217867
13	0x3f472c83	0.77802294
14	0x3ee17cfa	0.44040662
15	0xbef4717b	-0.4774283
16	0x3e47e2eb	0.19520156
17	0x3f79a257	0.97513336
18	0x3f476f83	0.7790453
19	0x3f2b0e1c	0.66818404
20	0x3f53aad8	0.8268256
21	0x3f84005e	1.0312612
22	0x3f799650	0.97494984
23	0x3d912bd8	0.07088441
24	0x3d9e46de	0.077283606
25	0x3fa9e7ea	1.32739
26	0x3f20361f	0.6258258
27	0x3ea190b1	0.31555703
28	0x3f3e52ce	0.743451
29	0x3f3550d8	0.7082648
30	0x3f8128d1	1.0090581
31	0xbeaf4621	-0.34233192
32	0xbe3cda1f	-0.18442582
33	0x3f545df1	0.82955843
34	0x3f1efae6	0.6210159
35	0xbd3dade0	-0.0463084
36	0x3ece5097	0.4029586
37	0x3fa476c7	1.2848748
38	0x3f6673e9	0.90020615
39	0xbec266d9	-0.37969092
40	0x3e2a3c24	0.16624504
41	0x3f4a39d2	0.78994477
42	0x3eca5e2c	0.39524972
43	0x3e8f3b90	0.2797513
44	0x3f62af38	0.8854861
45	0x3fbc48d8	1.470973
46	0x3e856134	0.26050723
47	0xbee95626	-0.4557354
48	0xbd85a998	-0.06526488
49	0x3ddddca8	0.108331025
50	0x3f07e4f5	0.53083736
51	0x3f703d5e	0.9384364
52	0x3f2da8ed	0.67835885
53	0x3fbe34b0	1.4859829
54	0x3f0e03c3	0.5547449
55	0xbebd059b	-0.3691834
56	0xbf19f613	-0.60141104
57	0xbed39004	-0.41320813
58	0xbe579ac4	-0.21055132
59	0xbef6fa55	-0.48237863
60	0xbe7eb62c	-0.2487418
61	0xbe110fd2	-0.14166191
62	0xbf1549dc	-0.58315825
63	0xc01d3591	-2.4563944

ActorDistributionNetwork/EncodingNetwork/dense/MatMul f4 [64, 64]
0	0x3fa066bc	1.2531352
1	0x3b97e6d3	0.0046356707
2	0xbf1d8717	-0.61534256
3	0xbd10de97	-0.03536853
4	0x3d227efc	0.039671883
5	0x3a0ba9d8	0.0005327738
6	0x3e580642	0.21096137
7	0xbd5ccd0f	-0.053906497
8	0xbf3bcb19	-0.7335678
9	0x3e114da1	0.1418977
10	0xbd2f276d	-0.04276221
11	0xbf3a8350	-0.72856617
12	0x3f2fefde	0.68725383
13	0xbf1d8d13	-0.6154339
14	0x401fc8a5	2.4966214
15	0x3f0b2754	0.54356885
16	0xbe379c6b	-0.17930762
17	0xbd92f143	-0.07174923
18	0x3eab2995	0.33430162
19	0x3db26fdd	0.087127425
20	0x3f068ddd	0.52560216
21	0x3f84ad9b	1.036548
22	0xbe59f164	-0.2128349
23	0x3f434c16	0.7628797
24	0xbf7008f1	-0.93763644
25	0x3d9adca4	0.07561615
26	0x3e0ce00c	0.13757342
27	0xbee86d42	-0.45395857
28	0x3f820f47	1.0160912
29	0x3f22eb89	0.6364065
30	0x3f0ae6e0	0.5425854
31	0x4083702d	4.1074433
32	0xbf5f7a8b	-0.8729636
33	0x3e46ab05	0.19401176
34	0x3dc4d407	0.096107535
35	0x3d161a47	0.036646154
36	0x3e095d55	0.1341451
37	0x3cdc2fad	0.026878202
38	0xbcea3000	-0.028587341
39	0xbdf1f41d	-0.11814139
40	0xbe8058f5	-0.2506787
41	0xbed4fd8e	-0.41599697
42	0x3e7de3fd	0.24794002
43	0xbeb999e7	-0.3625023
44	0xbe82561e	-0.25456327
45	0xbea6727c	-0.3250922
46	0x3e5b3d18	0.21410024
47	0xbef942ed	-0.48683873
48	0xbe9e9c44	-0.30978596
49	0xbba9090a	-0.0051585482
50	0xbe3027ce	-0.17202684
51	0xbddaa672	-0.10676278
52	0xbeb7ed0f	-0.3592305
53	0xbf3e1c74	-0.74262166
54	0xbe2ac6e4	-0.16677433
55	0x3ebbd370	0.36684752
56	0xbe2f746d	-0.17134257
57	0x400f4e09	2.239138
58	0xbec220bb	-0.37915596
59	0xbe5b753a	-0.21431437
60	0xbe149225	-0.14508875
61	0xc02a5ab2	-2.6617856
62	0xbf059c1e	-0.5219134
63	0xbf29d2bd	-0.66337186
64	0x3edd2fe2	0.43200594
65	0x3ea4add9	0.32163885
66	0xbe70dd70	-0.23521972
67	0xbe13674d	-0.14394875
68	0x3f015a36	0.50528276
69	0x3e745880	0.23861885
70	0x3e78f9b6	0.24314007
71	0xbdcd9288	-0.10037714
72	0x3f215946	0.63026845
73	0x3f1c2934	0.6100037
74	0x3d35e274	0.044405416
75	0xbe272a4e	-0.16324732
76	0xbf05db0a	-0.5228735
77	0x3ecfe7c0	0.406065
78	0xbfb03b8c	-1.3768172
79	0xbe455a79	-0.19272794
80	0xbf2e012e	-0.6797055
81	0x3e05ea42	0.13077644
82	0x3ca15cda	0.019697595
83	0x3f101d9d	0.56295186
84	0x3e763c34	0.24046403
85	0x3f86bc92	1.0526297
86	0x3d82fa55	0.06395403
87	0xbf20f8f5	-0.6287988
88	0xbf0fd59b	-0.5618531
89	0x3eb97216	0.36219853
90	0x3d86423a	0.065556005
91	0x40592221	3.392708
92	0xbead41be	-0.3383922
93	0x3f2415bb	0.6409566
94	0xbe93ae95	-0.28844133
95	0xbf87faad	-1.0623375
96	0x3c4200b1	0.011840985
97	0x3f6c58cd	0.92323
98	0xbf0faaaf	-0.5611982
99	0x3f049f6f	0.51805776
100	0x3cd974e1	0.02654499
101	0x3e9a757e	0.30167764
102	0x3eeba0e0	0.46021175
103	0xbf77d23e	-0.9680518
104	0xbe71b5e3	-0.2360454
105	0x3e7d2503	0.2472115
106	0x3f15ae9f	0.58469576
107	0x3f4f380b	0.8094489
108	0x3f18aaba	0.5963551
109	0x3e96b4c4	0.29434788
110	0xbf194080	-0.59864044
111	0xbf1b4f4c	-0.6066787
112	0x3dea0a82	0.114277855
113	0x3eda18a5	0.42596927
114	0xbd89fd9d	-0.06737826
115	0xbe0baf58	-0.13641107
116	0xbea61d22	-0.32444102
117	0x3e177297	0.14789806
118	0x3eace229	0.33766297
119	0xbea0cfc5	-0.31408516
120	0xbf97d975	-1.1863238
121	0xbf8b189f	-1.0866889
122	0xbf8fa0b5	-1.1220919
123	0xbf29efbe	-0.6638144
124	0xbe915237	-0.28383037
125	0xbf22e82b	-0.6363551
126	0xbe5c1152	-0.21490982
127	0xbe9adde8	-0.30247426
128	0xbe1ee45c	-0.155168
129	0xbeb3ef0e	-0.35143322
130	0xbd5bbd33	-0.05364723
131	0x401a9b47	2.4157274
132	0xbca32c40	-0.019918561
133	0xbec2b8fa	-0.3803175
134	0xbecf1b95	-0.4045073
135	0xbf0d751d	-0.55256826
136	0x3d5819fa	0.05275915
137	0xbe39a58b	-0.18129556
138	0xbe398e5b	-0.1812071
139	0xbcda390b	-0.026638528
140	0xbdb7ae87	-0.08968835
141	0x3dc5b08a	0.09652813
142	0x3dc85b71	0.09783066
143	0x3da17699	0.07883949
144	0x3d0bc415	0.034122545
145	0xbe7a0c46	-0.24418744
146	0xbd9babc8	-0.07601124
147	0x3eb20d2b	0.3477567
148	0xbe92cb61	-0.2867079
149	0xbd8db1c3	-0.06918671
150	0xbd3bc063	-0.04583777
151	0x3db863ec	0.090034336
152	0x3e3d9cf9	0.18516912
153	0xbcffb748	-0.031215325
154	0x3e0756a2	0.13216642
155	0x3e6672fc	0.225048
156	0x3d9bf7bf	0.07615613
157	0x3e56ce2e	0.20977089
158	0xbd333e68	-0.043760687
159	0x3ffe54eb	1.9869665
160	0xbd035351	-0.03206188
161	0xbe2b9d94	-0.1675933
162	0x3daca622	0.08430125
163	0x3d955b5f	0.07292818
164	0xbd9300df	-0.071779005
165	0xbbf3151f	-0.0074182893
166	0x3e0c0d3b	0.13676922
167	0xbdc53089	-0.09628398
168	0xbd8fa47c	-0.07013795
169	0x40c044a9	6.0083814
170	0xbc051997	-0.008123777
171	0x3ced4016	0.028961223
172	0xbcc1f576	-0.023676615
173	0x3dbb926b	0.091587864
174	0xbe460988	-0.19339573
175	0x3f22a152	0.63527405
176	0xbe0a615a	-0.13513699
177	0x3da2aee5	0.07943515
178	0x3d4b6f6e	0.049666815
179	0xbe0b4b45	-0.13602932
180	0xbc22f0a9	-0.009945073
181	0x3ced86ae	0.028994884
182	0xbd900135	-0.0703148
183	0x3f48523d	0.78250486
184	0x3e4fc39a	0.2028946
185	0xbed8b1ba	-0.42323095
186	0x3e030d14	0.12797958
187	0xbe8c9ac4	-0.27461827
188	0x3c3c7673	0.01150285
189	0x3e404483	0.18776135
190	0xbe4c0baf	-0.19926332
191	0x3cbc3431	0.022974106
192	0x3f4e9f37	0.8071169
193	0x3dfbb014	0.122894436
194	0x3d53b4a6	0.05168595
195	0xbf1a5e87	-0.6030049
196	0x3e285bd3	0.16441278
197	0x3ea21b22	0.31661326
198	0x3d9234c2	0.07138969
199	0xbd0135e5	-0.03154554
200	0x3eaa4e33	0.33262786
201	0x3e3365d8	0.17519319
202	0x3dfd387c	0.12364289
203	0x3d62d2dc	0.055376872
204	0x3ecbe725	0.39824787
205	0x3e89fd68	0.26951146
206	0xbd787b71	-0.060664598
207	0xbe9f5ce4	-0.31125557
208	0x3f044645	0.5166972
209	0xbeb67dde	-0.35642904
210	0x3d60ad1f	0.0548526
211	0x40bfcd13	5.9937835
212	0x3e837421	0.25674537
213	0x3ccc19c2	0.024914626
214	0xbe683639	-0.22676934
215	0xbe947b7a	-0.29000455
216	0x3e13a312	0.14417675
217	0x3da42904	0.080156356
218	0x3dfad518	0.12247676
219	0x3dd36468	0.10321885
220	0x3e31870f	0.17336677
221	0x3eb6d619	0.3571022
222	0xbe4ba2ac	-0.19886273
223	0xbf464c46	-0.77460134
224	0x3f33ee2e	0.7028531
225	0x3e8e7358	0.27822375
226	0x3b7b12bd	0.003831073
227	0xbcea197b	-0.028576603
228	0x3e4ea05e	0.20178363
229	0x3d849110	0.06472981
230	0x3da5d8e8	0.08098012
231	0xbe262d74	-0.16228276
232	0x3e040a27	0.12894498
233	0x3ef4a945	0.47785392
234	0x3e302afc	0.17203897
235	0xbe3b37b0	-0.18282962
236	0x3cc12b33	0.02358017
237	0xbe2f351d	-0.17110105
238	0xbe0f9260	-0.14020681
239	0xbe5e8966	-0.21732101
240	0xbf954788	-1.1662455
241	0x3ee02cae	0.43784088
242	0x3e84bffd	0.25927725
243	0xbd719565	-0.058980364
244	0x3e996327	0.2995846
245	0x3cd52d91	0.026022704
246	0x3ec66def	0.38755748
247	0x3db1a1b6	0.08673422
248	0xbc648b08	-0.013949163
249	0x3fb00044	1.3750081
250	0x3e1110d7	0.1416658
251	0xbecc7572	-0.39933354
252	0x3f856d75	1.0424029
253	0x3f98ac7b	1.1927637
254	0xbecdbd74	-0.40183604
255	0x3e402240	0.18763065

ActorDistributionNetwork/CategoricalProjectionNetwork/logits/MatMul f4 [64, 64]
0	0xbf91d481	-1.1392976
1	0xbdb05585	-0.086100616
2	0x3f5db2e6	0.866011
3	0xbfea6517	-1.83121
4	0x3e0b5752	0.13607529
5	0x3f386bf4	0.72039723
6	0x3da59bf4	0.08086386
7	0x3f7cfb12	0.988206
8	0x3f3b99f0	0.73281765
9	0x3fcc1b81	1.5945894
10	0x3f915c9a	1.1356385
11	0xbfc13513	-1.5094322
12	0x3f8967b8	1.0734777
13	0x3f667ba4	0.9003241
14	0xbf655c7e	-0.89594257
15	0x3f79d1d4	0.975858
16	0x3f6607a2	0.89855397
17	0xbf3b3227	-0.731234
18	0xbef5a4f8	-0.47977424
19	0x3e8b12e4	0.2716285
20	0x3f272a53	0.65298957
21	0xbf7952ca	-0.9739195
22	0x3f1eef73	0.6208412
23	0x3f3611b9	0.7112079
24	0x4047d36f	3.12228
25	0x3e948142	0.29004866
26	0xbf495ed6	-0.78660333
27	0x3f3563df	0.70855516
28	0xbf26e23a	-0.65188944
29	0x3f98a409	1.192506
30	0x3cd93160	0.026512802
31	0xbf2155e1	-0.63021666
32	0xbf859db8	-1.0438757
33	0x3f761723	0.96129054
34	0x3f48ff83	0.7851488
35	0x3f6df9f5	0.9295953
36	0x3fa6ee90	1.3041553
37	0x3f5285f0	0.8223562
38	0x3f61d229	0.88211304
39	0x3f03afe0	0.5144024
40	0x3eb1d0bb	0.3472956
41	0x3f1a7805	0.60339385
42	0x3ebd21be	0.36939806
43	0x3efdbac3	0.4955655
44	0xbf832b24	-1.024754
45	0xbe9e0348	-0.30861878
46	0xbf35ee02	-0.71066296
47	0x3fa5ed3f	1.2963027
48	0x3f72bc95	0.94819003
49	0xbf671197	-0.90261215
50	0x3f9b141c	1.2115512
51	0x3f950675	1.1642596
52	0xbfc382f4	-1.5274339
53	0xbfb2dc6e	-1.397352
54	0xbf073dfd	-0.5282896
55	0x3e89fec6	0.2695219
56	0xbf7fee01	-0.9997254
57	0x3efd4503	0.49466714
58	0xbe74bd36	-0.23900303
59	0x3ef444f5	0.4770886
60	0x3fa155b7	1.2604283
61	0xbe42374c	-0.18966407
62	0xbf95c954	-1.1702065
63	0xbf6497b6	-0.8929399
64	0x3e8fb217	0.2806556
65	0xbf1dc6cc	-0.61631465
66	0x3f41f416	0.7576307
67	0x3f284f78	0.6574626
68	0xbe19223c	-0.14954466
69	0x3f1ae023	0.60498255
70	0xbea1ed82	-0.31626517
71	0x3f01699a	0.5055176
72	0x3f86269a	1.048053
73	0x3f270a7f	0.6525039
74	0xbfede09c	-1.858417
75	0x3f108c3c	0.5646398
76	0x3f53e288	0.82767534
77	0x3f905682	1.12764
78	0xbffca5d7	-1.973811
79	0x3f1fc0fd	0.6240385
80	0x3f3e94fb	0.74446076
81	0xc0610c69	-3.5163825
82	0xbe334a2b	-0.17508762
83	0xbf321064	-0.6955626
84	0xc06b6fb4	-3.6786928
85	0x3e7a441b	0.24440043
86	0x3f1258e9	0.57166916
87	0x3f336471	0.70075136
88	0xbf87fb70	-1.0623608
89	0xbfa62670	-1.298048
90	0xbe84ac23	-0.2591258
91	0x3fc252d1	1.5181524
92	0xbe7e637d	-0.2484264
93	0x3ea0bb0f	0.31392714
94	0x3e14d424	0.1453405
95	0xbf751cda	-0.9574715
96	0x3f18c9d7	0.59682983
97	0x3eed3eb5	0.46336904
98	0xbff041f4	-1.8770127
99	0x3e99df7a	0.30053312
100	0xbfd50ac6	-1.6643913
101	0x3e9cea89	0.30647686
102	0x3f73e71f	0.9527454
103	0x3db52d27	0.08846503
104	0x3f5b771c	0.8572862
105	0x3f2ec7c3	0.6827356
106	0xbf820674	-1.0158219
107	0x3ddbd137	0.10733264
108	0xbf3dd873	-0.741584
109	0x3d7b12e7	0.061297324
110	0x3f4ad433	0.7923004
111	0x3f599471	0.8499213
112	0x3e8ef943	0.27924547
113	0x3e8ae18c	0.27125204
114	0x3f86f094	1.0542169
115	0x3e90a083	0.2824746
116	0x3e93b0c6	0.28845805
117	0x3f5b5004	0.8566897
118	0xbfcde965	-1.6086851
119	0xbf74ea69	-0.9567018
120	0x3f27f881	0.6561356
121	0x3ea9cf34	0.33165896
122	0x3f57da32	0.84317315
123	0x3fb2ce14	1.396914
124	0x3dfa0b15	0.12209145
125	0xc00a683c	-2.162612
126	0x3f05b2ad	0.5222576
127	0xbf53fd6c	-0.82808566
128	0x3e9aecf4	0.30258906
129	0x3f58b773	0.8465492
130	0x3f76f687	0.9646992
131	0x3dd462b1	0.103703864
132	0xbeeb9c86	-0.46017855
133	0x3f09e3e2	0.53863347
134	0x3ed65a3c	0.41865718
135	0x3f7069e1	0.9391156
136	0x3eba4630	0.36381674
137	0x3e260b6f	0.16215299
138	0xbfa3e22a	-1.2803395
139	0x3ed8d704	0.42351544
140	0x3fabf280	1.343338
141	0x3f8476fa	1.0348809
142	0x3ea04f04	0.31310284
143	0x3fd961e4	1.6982999
144	0xbef6b22e	-0.48182815
145	0xbfb8d345	-1.4439474
146	0x3f3144be	0.6924552
147	0xbe41565d	-0.18880601
148	0x3f5beeea	0.8591143
149	0x3df74f8a	0.12075718
150	0x3f41331d	0.7546862
151	0x3f726006	0.9467777
152	0xbfaa038c	-1.3282332
153	0xbfc409b1	-1.5315458
154	0xbcc4e174	-0.024033286
155	0x3f1ea893	0.61975974
156	0xc0254509	-2.5823386
157	0xbf74f063	-0.956793
158	0x3ebd8da4	0.37022126
159	0xbeb7bd56	-0.3588664
160	0xbe4328d0	-0.19058537
161	0x3f18d29d	0.5969637
162	0xbf3c1766	-0.73473203
163	0xbdd4b7cd	-0.1038662
164	0x3e2c7cf5	0.16844542
165	0xbe319e1d	-0.17345472
166	0xc0c57f17	-6.171764
167	0x3cd024fe	0.025408264
168	0x3f2c7a7c	0.67374396
169	0x3e077721	0.13229038
170	0x3f3ec257	0.7451529
171	0x3f00ab64	0.5026152
172	0x3e97ebe2	0.29672152
173	0x3e8ab907	0.2709429
174	0x3f6fd6d1	0.9368716
175	0xbee84aa6	-0.45369452
176	0xbe09654b	-0.13417546
177	0xbebd4b70	-0.36971617
178	0x3d6e9fdc	0.058257923
179	0x3e6f4bcc	0.23368758
180	0x3f722772	0.9459144
181	0xbfdd0302	-1.7266543
182	0x3f82dadf	1.0223044
183	0x3e2be407	0.16786204
184	0x3f799aac	0.97501636
185	0xbd9ad99a	-0.075610355
186	0x3e8ec438	0.27884078
187	0x3ec7bd6f	0.39011714
188	0xbf7ff139	-0.9997745
189	0x3e9f10c7	0.31067488
190	0x3ece569c	0.40300453
191	0xc018f4f6	-2.3899512
192	0xbdd4528d	-0.10367308
193	0xbe933c33	-0.28756866
194	0xc0b21c99	-5.565991
195	0x3fea213f	1.8291396
196	0xbf11e4e8	-0.5698991
197	0x3f552e1a	0.8327347
198	0x3f4bfb3f	0.79680246
199	0x3f82c4bd	1.021629
200	0x3d40d2ce	0.04707604
201	0x3f89f94a	1.0779202
202	0xbf7ab5f8	-0.9793391
203	0x3f2e1d96	0.68013895
204	0x3d3f1aaf	0.046656307
205	0x3f3d231a	0.73881686
206	0x3f8ca0ad	1.0986534
207	0x3f1410fe	0.5783843
208	0x3f480462	0.7813169
209	0xbef57698	-0.47942042
210	0x3d073d66	0.03301754
211	0xbf29b53f	-0.66292185
212	0x3fb6b395	1.4273554
213	0x3e5ea92f	0.21744226
214	0x3f1a9b22	0.60392964
215	0x3f403ca9	0.7509256
216	0x3ebd27f8	0.36944556
217	0x3f07dcdd	0.53071386
218	0x3f64ae54	0.89328504
219	0xbebd6775	-0.36992994
220	0x3d9e1e05	0.077205695
221	0x3ed8bcc0	0.42331505
222	0x3ed38f3c	0.41320217
223	0xbf4fcedc	-0.8117502
224	0xc0150337	-2.3283212
225	0x3f0ba756	0.5455221
226	0xc00b5b1a	-2.1774354
227	0xbf4fdb4b	-0.8119399
228	0xc06bc1fb	-3.6837146
229	0x3f155731	0.5833617
230	0x3ef19ecc	0.47191465
231	0x3f2f22d9	0.6841255
232	0x3f6564fb	0.8960721
233	0x3eaf5797	0.34246513
234	0x3f3f082d	0.7462185
235	0x3d7606d5	0.06006511
236	0x3f79e27a	0.976112
237	0xbef8f729	-0.48626068
238	0xbe578780	-0.21047783
239	0x3f8374e5	1.0270048
240	0xbf69d465	-0.91339713
241	0x3ebf382f	0.37347552
242	0x3ea781d6	0.32716244
243	0x3f79cfab	0.975825
244	0x3f36f307	0.7146458
245	0x3f5edd25	0.8705619
246	0x3ebc47f1	0.36773637
247	0xbd8b29de	-0.06795095
248	0x3eb70e6c	0.3575319
249	0x3e8f0979	0.27936915
250	0x3f10a473	0.5650093
251	0x3ec81c8d	0.39084283
252	0x3fa47b1d	1.2850071
253	0xbee53e65	-0.44774166
254	0xc024fb4d	-2.5778382
255	0xbf8f99c0	-1.1218796
