lite/examples/reinforcement_learning/android/app/src/main/assets/planestrike_tf_agents.tflite (tflite, 57764 bytes, 4 tensors)

sequential/dense_1/bias f4 [64]
000000 5a e4 10 bf df 2e 89 bd 39 84 e3 be d3 27 60 be
       -0.56598437 -0.06698393 -0.44436815 -0.21890192
000010 9e ad 84 3e 27 4e 29 3e e6 ff 38 be 7c 60 a8 be
       0.2591371 0.16533719 -0.18066368 -0.32886112
000020 d3 e4 9a be 99 cd f5 3e 48 5f 90 3e 11 89 97 3f
       -0.30252704 0.4800842 0.28197694 1.1838704
000030 65 1a 1a 3f bd 01 32 3f ae 1e b0 3e 8c 4d 33 be
       0.60196525 0.695339 0.34398407 -0.1751005
000040 ed 4e 0b be bf 06 30 3f e9 a4 d6 3e c8 7d 19 3f
       -0.13604327 0.68760294 0.4192269 0.5995755
000050 e7 30 62 3f d3 4c 97 3f 59 ca bb 3e 95 e3 0a 3e
       0.8835587 1.182032 0.36677817 0.13563378
000060 f7 a4 f5 bd 38 24 91 3f 6a a8 4f 3f 80 c8 aa 3e
       -0.11994355 1.1339178 0.81116354 0.33356094
000070 e2 b3 fd 3e 1d 2d 94 3f 22 95 15 3f 53 27 2a bd
       0.49551302 1.1576267 0.58430684 -0.04154141
000080 b8 21 56 be 40 dd 68 3f bc 0f 08 3f 7a 37 a4 3e
       -0.209113 0.909626 0.5314901 0.32073575
000090 94 e4 ce 3e 40 d6 47 3f 9e b9 0f 3f 64 6f 75 be
       0.40408766 0.78061295 0.56142604 -0.23968273
0000a0 0f 23 bf 3d 6a 64 5e 3f dd b2 1a 3f 00 62 20 3f
       0.09332859 0.8687197 0.60429174 0.62649536
0000b0 ef 14 6f 3f 1c 83 7b 3f a1 ff cc 3e 36 96 a0 bb
       0.9339132 0.9824693 0.4003878 -0.004900719
0000c0 8e 7a d1 3d 55 af aa 3e 50 8f e7 3e 13 55 66 3e
       0.102284536 0.33336893 0.45226526 0.2249339
0000d0 1d 28 8f 3f dd a5 85 3f 7d b6 4c 3e ab a0 f4 be
       1.1184117 1.0441242 0.19991489 -0.4777883
0000e0 ad 3a 30 bf f7 3a cb 3c 77 f4 6a bd 38 ea 88 be
       -0.6883953 0.02480839 -0.057362046 -0.26741195
0000f0 fd 32 44 3d e5 33 cd 3d 73 9e 66 be 3c cc f0 bf
       0.04790019 0.10019664 -0.22521381 -1.8812327

sequential/dense/bias f4 [100]
000000 c5 28 2b bf 34 d5 fa be 3d 83 0f bf d9 68 f7 be
       -0.66859084 -0.48990786 -0.5605963 -0.4832218
000010 16 d5 d3 be ba 39 5c bf 3f af 4d 3e 7a 3b 06 3f
       -0.4137351 -0.86025584 0.20086382 0.52434504
000020 42 0f d2 3e 03 73 da be f7 30 a9 3e 6e ae c3 3e
       0.41027266 -0.42665872 0.3304517 0.38219017
000030 99 90 b2 be 1b a0 c8 3d 01 11 e2 bc 1a 69 d0 bd
       -0.34875944 0.09796163 -0.027595999 -0.101762965
000040 78 67 f2 be 81 56 59 bf 01 ea 55 bf 5f 5e 63 bf
       -0.47344565 -0.8489762 -0.83560187 -0.88815874
000050 ed 02 18 bf 25 f4 87 be 16 df 43 bf cd 22 02 bf
       -0.59379464 -0.26553455 -0.7651228 -0.5083435
000060 31 6c 8e be ad ef ce be 31 cf 16 3f a8 31 17 bf
       -0.27816918 -0.40417233 0.589099 -0.59060144
000070 ec 5a bd be 2f f1 17 bf 72 26 69 bf da 31 47 bf
       -0.3698343 -0.5935239 -0.9107429 -0.7781044
000080 5e 70 9b bf 8d 2f 48 bf 71 b7 e4 3e cf 56 0c bf
       -1.2143667 -0.78197557 0.44671205 -0.5481996
000090 0a 2f 54 bf 1b 93 19 bf de 51 46 be 51 c3 89 bf
       -0.82884276 -0.5999009 -0.19367167 -1.0762731
0000a0 6f 44 71 3f a5 02 0e bf 95 29 38 3e 50 31 a3 3f
       0.94245046 -0.55472785 0.17984612 1.2749424
0000b0 47 4a 0f bc 14 2c 31 3e 91 e7 18 bf 65 b5 05 3f
       -0.008745736 0.1730197 -0.5972834 0.5222991
0000c0 aa f2 a4 3e 45 ec 80 3f da 9e 13 bf 2c d2 64 bf
       0.32216388 1.0072104 -0.57664263 -0.89383197
0000d0 38 3a d6 3e bd 41 25 bf 67 ab 23 bd 4c a3 4f bf
       0.41841292 -0.64553434 -0.039958384 -0.81108546
0000e0 1a f6 c3 3d 70 ec 05 bf c5 80 90 be d2 de b7 bf
       0.095684245 -0.523139 -0.28223243 -1.4364874
0000f0 42 e9 ea be c2 c4 0b 39 db 8b 33 be 45 9f 2c bf
       -0.45881087 0.00013329371 -0.1753382 -0.67430526
000100 1c 81 2c bf d1 03 3c 3d ac 93 44 3f f8 ac 33 bf
       -0.67384505 0.045902077 0.7678783 -0.70185804
000110 ec 5f 9c 3e cd cc 3f be a4 1f 36 bf 08 52 7e bf
       0.30541933 -0.18730469 -0.7114203 -0.9934392
000120 84 5d 24 bf a0 39 a0 3f db 31 d7 bd 61 6e f0 3f
       -0.64205194 1.2517586 -0.10507556 1.8783685
000130 be 7a 4e bf c8 64 43 3f 56 18 de be c5 b1 9d be
       -0.8065604 0.76325655 -0.43377942 -0.3079969
000140 44 64 7b 3f d5 da 7f bd 46 fe c7 be 8a 64 0b bf
       0.9819987 -0.062464554 -0.39061183 -0.54450285
000150 8e 1e c4 bd a0 0c 50 bf fa 20 77 3e aa 8a e4 be
       -0.0957614 -0.81269264 0.24133673 -0.44637042
000160 ca 6b 8c bf 72 0b 31 be 7c aa 69 3f 43 ea 03 bf
       -1.0970395 -0.17289522 0.91275764 -0.5152933
000170 7f f7 81 bf 3b c5 00 bf a8 7d d7 be e0 70 2a bf
       -1.0153655 -0.5030095 -0.42088056 -0.66578484
000180 a8 b8 6a be 28 b2 0f be 1f 3a 3d bf 56 4b db be
       -0.22922003 -0.14032805 -0.7391681 -0.42830914

sequential/dense/MatMul f4 [100, 64]
000000 11 f2 9e be fd fa d3 be 43 63 17 be ff a7 ac bc
       -0.31044057 -0.41402426 -0.14783959 -0.0210762
000010 50 98 cc 3d 30 58 44 40 23 be 57 3f 85 a8 c0 be
       0.09989989 3.0678825 0.842745 -0.3762857
000020 07 46 e4 bd bf e1 cb bf 68 20 da bd 57 f4 d4 3d
       -0.11146169 -1.5928267 -0.10650712 0.103981666
000030 22 81 27 3f 50 66 42 3e f4 35 23 3e 2d 02 e0 bd
       0.65431416 0.18984342 0.1593855 -0.10937915
000040 37 64 d1 3e 4d d1 c0 3e d9 23 90 bd 8a 95 96 bd
       0.4089677 0.37659684 -0.070380874 -0.07352741
000050 d4 25 ab be 22 90 c9 be 0f 4d 07 3e a6 05 f5 bd
       -0.33427298 -0.39367777 0.1321299 -0.11963968
000060 1f 1b 6e 3f 82 06 b3 3b 48 5d 43 3e 0f e2 86 3e
       0.93010134 0.0054634223 0.19078553 0.26344344
000070 58 34 4e be c1 49 7f bd 56 8b 36 bd ec ed e2 be
       -0.20137155 -0.062326197 -0.044566475 -0.44322145
000080 8c c9 88 3e 35 d2 d0 3d 12 09 93 3c e4 02 d1 bb
       0.26716268 0.10196344 0.017948661 -0.0063785184
000090 66 f8 31 3e d3 23 da 3e d7 0c 1d be 8e b0 07 3e
       0.17379913 0.42605457 -0.1533693 0.13250944
0000a0 71 78 ba be e7 75 a5 3e b9 96 07 3e 2c 0b 05 3e
       -0.36420015 0.32316515 0.1324109 0.12992543
0000b0 1c 52 0f 3f 8e 6d 08 be aa c8 57 3e ae 70 4f bf
       0.55984664 -0.13323042 0.21072641 -0.8103131
0000c0 c1 d7 f3 3d 53 ed b0 bf 31 dd b1 bf 33 42 33 3e
       0.11906386 -1.3822426 -1.3895627 0.17505722
0000d0 43 75 d6 bd 14 a1 aa 3e 2a b4 ef 3f 2e 1e 73 bf
       -0.10471585 0.33326018 1.8726857 -0.94967926
0000e0 c0 b6 5c 3e 91 c1 cd bd e9 ef 16 be 99 22 71 3d
       0.21554089 -0.100466855 -0.14739956 0.058870886
0000f0 b2 2e 54 3f 75 65 6d 3f c0 24 03 3e e9 b3 eb 3e
       0.8288375 0.92732936 0.12806988 0.46035698
000100 66 82 a6 3d 60 cb 19 3d d2 0e 51 be 40 3e 39 40
       0.0813034 0.03754747 -0.2041581 2.8944244
000110 34 42 ef bd ca fb 6d be 59 55 48 40 07 34 5e be
       -0.11682549 -0.23240581 3.1302092 -0.21699534
000120 c8 ce ba 3e a2 55 c2 3d cf 96 6d be 55 15 06 be
       0.36485887 0.094889894 -0.2320206 -0.13094075
000130 c2 bc 81 bd e4 20 0c 3e 48 7f af bd 6c 6c 13 bd
       -0.06334831 0.13684422 -0.08569199 -0.03599207
000140 7f bf 9b be 2e c9 39 3e 97 df e4 bc fc bf c8 bb
       -0.30419537 0.1814315 -0.027938647 -0.006126402
000150 06 66 9f 3d cf b7 5e bd 2d 8d d1 3c 0a 52 b7 3e
       0.07783131 -0.054374512 0.025580013 0.35804778
000160 b4 8b 8e 3c a4 1d 33 3d 42 7b 07 3e 62 4c fc 3d
       0.0174006 0.04372944 0.13230613 0.12319256
000170 08 07 58 3e c6 e0 2d be 5e 04 c1 3d dc 69 3c 3d
       0.21096432 -0.16980276 0.09424661 0.045999393
000180 1d 9b 96 be 01 67 47 3e d7 0b 8f 3e 8a 50 da 3d
       -0.29415217 0.19472887 0.2793872 0.10659893
000190 76 76 92 be d4 af aa be 68 8a 94 3d 6b d3 32 bd
       -0.28606004 -0.3333727 0.072529614 -0.043658655
0001a0 b8 c8 46 3d 56 1a 3d 3e 7a 6c 87 3d 02 b8 2c 3e
       0.048531264 0.18467078 0.06612487 0.16867068
0001b0 8f bd 86 3e fa d4 5d 40 56 6f eb 3e f2 a8 68 3e
       0.26316497 3.466124 0.4598338 0.22720698
0001c0 c1 6b c5 3f 3c f4 b2 bd bb 4a 22 be 99 14 1b be
       1.5423509 -0.0873799 -0.1584882 -0.15144576
0001d0 b4 d4 66 be ce 90 b5 bd 5c 41 8a be db aa c2 3e
       -0.22542077 -0.0886551 -0.2700299 0.38020977
0001e0 39 d3 23 bf 92 c2 96 3e ec f6 6a 3f a6 fb 3b be
       -0.63994175 0.2944532 0.9178302 -0.18357715
0001f0 bd 8d dc 3d 56 8c 28 bd cb c3 81 bc 2b 5d b0 be
       0.10769222 -0.04114946 -0.015840432 -0.34446082
000200 be 08 39 3e 49 f0 30 bd d7 33 9e be dc 5c df 3d
       0.18069741 -0.043197904 -0.30898926 0.109063834
000210 83 ce 5d be 24 9d 8a be c8 e7 82 3e 90 02 91 be
       -0.21660809 -0.27073014 0.2556746 -0.28322268
000220 ed a8 11 bf f9 b2 b8 be a9 a6 4a 3d c0 f0 f7 bd
       -0.56898385 -0.36074045 0.049475346 -0.12106466
000230 8b 58 9d bd 92 95 53 bd 90 16 92 be c7 c3 29 3f
       -0.07682904 -0.051656313 -0.2853284 0.6631436
000240 4b ac af be cc 9a 80 40 ce a6 f7 3d 67 5e 5e 3d
       -0.34311137 4.018896 0.12092362 0.054289248
000250 a1 d4 d3 3d 4e 8e 01 3e 87 1d f6 3f a8 02 85 be
       0.1034329 0.12651941 1.9227761 -0.2597859
000260 57 45 62 bc 5c d0 9e 3d 2f 6f 6c be d5 e9 09 3e
       -0.013810477 0.07754585 -0.23089288 0.13468106
000270 84 f3 ae bd 33 09 71 be a3 41 3f be 76 62 c0 3e
       -0.08542541 -0.23538665 -0.18677382 0.3757512
000280 23 de 62 be 46 48 4c be db 88 3a be 45 ae 80 3e
       -0.22155051 -0.19949445 -0.18216269 0.25132957
000290 19 45 e8 3e 9f 0b b1 3e dc 07 7f 3e 21 11 31 3e
       0.45365217 0.3457918 0.24905342 0.1729169
0002a0 00 99 dc bd 24 4d 9e 3e 88 5b 20 be 37 a8 5d bf
       -0.1077137 0.3091823 -0.15659916 -0.865848
0002b0 21 be 10 3e 22 b8 b4 bd af 26 47 be f2 96 ed 3e
       0.14135028 -0.08824183 -0.1944835 0.46404225
0002c0 57 88 fd 3c 3d 9c 96 3d 6c ee 08 be a4 79 00 3b
       0.030948801 0.07354019 -0.133722 0.0019603753
0002d0 36 42 32 3f f0 c0 ce 3e ef b4 6f 3e 52 a6 da be
       0.6963228 0.40381575 0.23408864 -0.42705017
0002e0 d2 59 03 40 ef 93 46 3e 35 cd ab be df dc 83 bf
       2.0523572 0.1939237 -0.33554998 -1.030178
0002f0 4d ff ea 3c 58 2c 3d be 18 81 77 be 8c 3d bc 3d
       0.02868619 -0.18473947 -0.24170339 0.09191427
000300 20 c5 48 3d f5 c5 33 3f d1 f8 06 3f bc 17 ac bd
       0.049016118 0.70223933 0.52723414 -0.084029645
000310 9f 4a 03 3e 74 b2 2d be 3e de 63 bd ec 9c 52 3e
       0.12821434 -0.16962606 -0.05563187 0.20567673
000320 cd d6 4e be fb 18 5f bd 37 81 22 3c 4b 17 1e be
       -0.20199127 -0.054467183 0.0099185025 -0.15438573
000330 a3 c7 b8 be e4 c0 52 be 1b 95 1a 3e 5a c0 c3 be
       -0.3608981 -0.20581394 0.15095942 -0.3823269
000340 e6 55 90 3e b1 8d 31 be 8a 1b 90 3e 04 2f ad bd
       0.28190535 -0.17339207 0.2814601 -0.08456233
000350 75 e1 b7 bd b8 78 8e 3e 1a 45 0b 40 b4 d5 9e be
       -0.089785494 0.27826476 2.1760926 -0.31022418
000360 60 c4 f8 3a 3b ae 91 be 9e 04 42 3d 7d 59 05 be
       0.0018979423 -0.2845324 0.047367685 -0.13022418
000370 f8 43 47 3d 73 2d 46 be 09 1b 96 3c a1 9e 12 3e
       0.048648804 -0.19353275 0.018323438 0.14318325
000380 0e b5 be 3d 28 8b 42 3d a7 b2 9e 40 56 69 ef 3e
       0.09311877 0.04749599 4.959308 0.46760052
000390 0a 90 64 be 41 68 ea bc aa 32 1c 3e f8 ea 3b be
       -0.22320572 -0.028614165 0.15253702 -0.18351352
0003a0 f0 c9 cd bd a1 83 24 be 83 f1 cf 3d ff bc a5 3e
       -0.10048282 -0.16065837 0.101534866 0.32370755
0003b0 14 6a dd 3d 5e e7 de 3d 78 ff 99 3e 62 08 b3 3f
       0.108112484 0.108839735 0.3007772 1.3986933
0003c0 7a d1 23 3e 74 7f 91 3d 17 c1 69 bd 48 62 6e 3e
       0.15997878 0.07104388 -0.05706891 0.23279679
0003d0 c6 43 5e be 6e f7 11 3e 9a bf 59 be e8 9b 88 be
       -0.21705541 0.14254543 -0.21264496 -0.26681447
0003e0 5c 4d 4e 3d 71 ba 22 3e 50 38 44 3d 23 a3 a1 be
       0.050366744 0.15891434 0.047905266 -0.31569776
0003f0 28 3c 26 bd 5c 9b 73 3f 9d 50 3a be 67 e0 4f be
       -0.040584713 0.95158935 -0.18194814 -0.20300446

sequential/dense_1/MatMul f4 [64, 100]
000000 fe 41 b3 3e 17 5e 73 3f a5 03 71 3f a4 5c 89 3d
       0.35011286 0.95065445 0.94146186 0.06707123
000010 9a 3c 89 3f 37 b3 79 3f 3d 41 5d 3f c5 31 f3 3e
       1.0721619 0.97539085 0.8642767 0.4749891
000020 1d bd fc bf 78 97 09 bf dc 6e 79 bf d5 53 23 bd
       -1.9745213 -0.5374675 -0.97434783 -0.03987487
000030 01 a7 65 3f 0a 6e d4 bc 9b f1 db bc 45 ca 12 bb
       0.8970795 -0.025931377 -0.026848605 -0.0022398394
000040 78 e0 41 3f da 85 fe be 37 94 ba bf 90 cd ea bf
       0.7573314 -0.49711496 -1.4576482 -1.8343983
000050 8e 68 cd bf 3b ae 2e 3f b1 43 ab 3f ec 8a 6d c0
       -1.6047533 0.68234605 1.3380033 -3.711604
000060 ab 5a 38 3f de e4 aa be 8e 7c 18 3f b9 d1 e8 3e
       0.7201335 -0.33377737 0.59565055 0.45472506
000070 33 33 a0 3f 7c 7c 97 bd 1a f5 88 3f fa cd b0 bf
       1.2515625 -0.073967904 1.0699799 -1.3812859
000080 d7 c7 28 bf f2 4e 35 3f 27 47 78 3f 2f 76 41 40
       -0.6592993 0.70823586 0.9698357 3.0228384
000090 d9 e8 5b 40 7b f2 55 3f 0f d0 33 3f ac 3a a3 3e
       3.436087 0.8357312 0.7023935 0.318807
0000a0 17 6d 95 bf 8f 84 1d 3e b2 d3 d5 be 41 92 14 3f
       -1.1673917 0.15382598 -0.41763073 0.58035666
0000b0 cb e6 f3 be 6a fc 5d bf ca a5 8a bf 63 19 d9 be
       -0.4763702 -0.8671328 -1.0831845 -0.4240218
0000c0 f7 54 40 3f b3 b9 c5 be a9 3d d5 be 32 d7 24 40
       0.75129646 -0.3861824 -0.41648605 2.5756345
0000d0 a4 3e 71 bf 5d 76 07 c0 f7 3e f8 3e 21 81 19 c0
       -0.94236207 -2.1165993 0.48485538 -2.3985064
0000e0 b9 25 a0 3e 47 ec 10 3f 52 60 cd 3f 10 6b 1d 3e
       0.3127878 0.5661053 1.604502 0.15372872
0000f0 40 01 da 3e fd 29 95 bf bc 73 90 bf 30 ff 82 3f
       0.4257908 -1.1653439 -1.1285319 1.0234127
000100 e3 ca c3 3d f1 47 a3 bf d8 b4 09 3f 1b 67 45 bf
       0.09560182 -1.275633 0.5379157 -0.7711045
000110 40 26 d3 3e 83 d7 8d 3f 03 01 d2 3e 7e 03 d5 be
       0.4124012 1.1081394 0.41016397 -0.41604227
000120 19 76 96 bf f6 dc ef 3d 1d 8c a7 3d ac 78 72 bf
       -1.175479 0.11712067 0.08181021 -0.9471538
000130 4b e9 40 3f 45 22 a4 3e c8 b0 75 3e dd 31 30 3f
       0.75355977 0.32057396 0.23993218 0.68826085
000140 5e e9 bd 3e 9d 41 04 3f 24 45 38 40 56 9f eb bf
       0.37092108 0.5166262 2.87922 -1.8408
000150 d5 f3 ec 3f 4a a9 a3 3f a2 0b af 3e 0f 8f af 3e
       1.8511912 1.2786038 0.34188563 0.34288833
000160 70 48 3f bc 20 a3 b3 3e 14 65 31 bf 83 fe db 3e
       -0.011674985 0.35085392 -0.6929486 0.42967615
000170 7d 03 a9 3f 26 d2 96 3f b6 62 6a 3e b8 d0 86 3f
       1.320419 1.1782882 0.22889218 1.0532446
000180 36 fb 68 3f 7a 33 27 3f cb 4a bd be 4f 24 24 be
       0.9100832 0.6531292 -0.36971125 -0.16029476
000190 3e 60 eb bf 25 70 cc 3e 95 55 4a 3f 46 7b 2d bf
       -1.8388746 0.3992931 0.7903684 -0.67766225
0001a0 78 73 2c 3f fe e5 7b 3e 37 12 f1 3d 20 ef bf 3e
       0.6736369 0.24599454 0.11771052 0.37487125
0001b0 1e ea 5a 3f db b1 6e c0 ba 05 8e 3f 8d e5 65 be
       0.85513484 -3.7296054 1.1095498 -0.22450848
0001c0 a9 8e 73 3f 84 4f 23 3f 34 16 1c 3f dd 65 cc 3d
       0.9513956 0.63793206 0.6097138 0.099803664
0001d0 9a d4 bf 3f bf fb 23 3f d5 38 67 3d 8a 7b 24 c0
       1.4986756 0.6405601 0.056450684 -2.5700402
0001e0 58 0e 6e bf 1a f6 26 c0 a8 d7 4e 3f 23 10 87 bf
       -0.92990637 -2.6087708 0.80797815 -1.05518
0001f0 99 60 0f 3f ec a8 25 bf 29 1a 1b 3f 48 14 f0 3e
       0.5600677 -0.6471088 0.6058679 0.46890473
000200 51 6c 1e 3f 26 94 ae 3f 72 ae 8c 3e 3f a1 49 3f
       0.6188403 1.3638961 0.2747684 0.78761667
000210 9a 16 43 bf ec a9 59 3f 79 f1 57 3f 93 0b 45 3f
       -0.7620636 0.85024905 0.84352833 0.76970786
000220 48 ab d3 3e 2d 40 93 bf b6 f6 df 3f 5c f6 25 3f
       0.41341615 -1.150396 1.7497165 0.6482904
000230 3c 4a 2a c0 00 84 88 bf c5 41 c7 3e 0e 6f b8 3e
       -2.660781 -1.0665283 0.38917366 0.36022228
000240 0c a2 71 3f a0 da ad 3e 14 76 a3 3e bd c8 b4 bf
       0.9438789 0.3395586 0.31926024 -1.412376
000250 00 f6 ca 3d e6 09 37 3f a8 63 df 3e 1f 15 47 40
       0.09910202 0.7149948 0.4363072 3.1106641
000260 5e fc 55 3f 03 99 37 3f a7 61 45 3f 27 0d ea 3e
       0.83588207 0.7171785 0.7710213 0.4571316
000270 38 bb 1b be d9 04 41 3f 8d fb e2 3e 6e 24 e8 bf
       -0.15208137 0.7539802 0.44332543 -1.8136117
000280 be e7 aa be 40 3d 4c 3f 1c 40 9c 3e f9 81 84 3c
       -0.3337993 0.7978096 0.30517662 0.016175257
000290 86 89 d1 3d b2 70 06 3f d8 07 f4 be 7f 95 58 bf
       0.10231309 0.5251571 -0.47662234 -0.8460311
0002a0 55 f5 72 be 2d 8b b7 be 09 8e 3c 3f 59 5a 7a be
       -0.23726399 -0.3584837 0.7365423 -0.24448527
0002b0 be b8 e9 3e d1 93 25 bf 9e 3e ee 3f c7 40 23 bf
       0.4564876 -0.64678675 1.8612859 -0.6377072
0002c0 44 e8 60 3f 7c da 43 bf e1 b0 35 3e 74 c3 2f 3e
       0.8785441 -0.76505256 0.17743255 0.17164403
0002d0 d4 b0 3f 3f a4 1f f8 3d ca 9c 75 be 8e 68 79 3f
       0.74879193 0.1211541 -0.23985592 0.9742516
0002e0 bf 62 b8 3e 86 88 a1 bf 87 bf 54 3f 2d 0f 97 3e
       0.36012837 -1.2619789 0.8310475 0.29503766
0002f0 1e ba e7 bf d6 9a 4d 3f 59 8f 11 be 01 8a ae bf
       -1.8103673 0.80314386 -0.14214839 -1.3635865
000300 78 fa 0d 3f 0a 7d 12 3f c1 24 3b c0 06 6c f7 3e
       0.5546031 0.57222044 -2.9241183 0.48324603
000310 a5 16 00 3f 68 d5 89 3f b5 9b 41 c0 1b 7e 09 3f
       0.5003455 1.0768251 -3.0251286 0.53708047
000320 a5 39 ba 3e 71 52 e4 3e a6 0a 96 3f 85 30 9b bf
       0.36372104 0.44594148 1.1722 -1.2124182
000330 0a 07 1b 3f 56 7e fa bf 20 df ca 3e 41 ee fe 3e
       0.60557616 -1.9569805 0.39623356 0.49791148
000340 a8 1a 11 c0 52 77 87 bf a0 fe bf bc 41 34 3e 3e
       -2.267252 -1.0583289 -0.023436844 0.18574621
000350 a7 f2 6e 3e 8b 78 5a 3f 7d ee d9 3e b3 e9 87 bc
       0.23334752 0.85340184 0.42564765 -0.016590929
000360 dd ea 94 3e 47 bc 1f bf 72 ab 1a 3f 40 fd 85 3f
       0.29085436 -0.62396663 0.60417855 1.0467911
000370 c4 cb ed bf 4d f2 75 bf 48 b0 83 3f 0f af 68 3e
       -1.8577809 -0.96072847 1.0288172 0.2272303
000380 14 a7 55 3e 24 6a 01 bf 6b 00 fd be 52 ea 56 c0
       0.20864516 -0.5055258 -0.4941438 -3.3580518
000390 8d 0d 7c 3e 85 51 3c 3f 7b f1 f1 3f d2 22 28 3f
       0.24614544 0.7356189 1.8901819 0.6567813
0003a0 42 51 cf 3f d9 84 dc 3e 7d 9f fa 3e f1 4c 33 3f
       1.6196673 0.43070105 0.48949805 0.7003928
0003b0 e8 ef 51 bf d3 fd 21 bd f9 f6 df 3e c3 d8 ce 3e
       -0.8200669 -0.039548706 0.43743113 0.4039975
0003c0 ef 7c bd 3d ff 7b b9 3e ba 4e 08 3f 7f 5b 4b 3f
       0.09252345 0.36227414 0.5324513 0.79436487
0003d0 be 65 b0 3b aa ce 76 3e c5 d4 81 3f d0 b4 64 bf
       0.0053832224 0.24102274 1.0143057 -0.893384
0003e0 10 1e 84 3e 88 16 41 3f 0e 50 53 3f 05 b6 8b bf
       0.25804186 0.75425005 0.8254403 -1.0914923
0003f0 a3 32 6f 3f ae 38 2a 3e a2 1b 45 bf 3f ab 28 be
       0.9343664 0.16623184 -0.7699529 -0.16471575
