lite/examples/reinforcement_learning/android/app/src/main/assets/planestrike_tf_agents.tflite (tflite, 39960 bytes, 4 tensors)

ActorDistributionNetwork/EncodingNetwork/dense/bias f4 [64]
0	0xbe2f9fdb	-0.17150824
1	0xbecd320b	-0.40077242
2	0xbd442032	-0.047882266
3	0xbf4c5884	-0.79822564
4	0xbf72c820	-0.94836617
5	0xbf0961db	-0.5366494
6	0xbe996bc2	-0.29965025
7	0x3f1052f0	0.5637655
8	0xbd8a9d15	-0.06768242
9	0xbf0e78a0	-0.5565281
10	0xbe79818f	-0.24365829
11	0xbf03ea35	-0.51529247
12	0xbecb36da	-0.39690286
13	0xbee280fd	-0.44239035
14	0xbd2a8025	-0.041626114
15	0x3f0b8fc1	0.54516226
16	0xbeb3043a	-0.34964162
17	0xbe5c9207	-0.2154008
18	0xbf15bede	-0.58494365
19	0x3f2bb8d3	0.67078894
20	0xbf04890a	-0.51771605
21	0xbbc13710	-0.0058964565
22	0xbe8a4395	-0.27004686
23	0x3fa359b9	1.2761756
24	0xbedfa4ca	-0.43680412
25	0x3fe48e8f	1.7856005
26	0xbe6d0bd2	-0.2314904
27	0x3e9cbf00	0.3061447
28	0xbf403556	-0.75081384
29	0x3fbd8489	1.4806072
30	0x3f21179c	0.6292665
31	0x3f0f5eda	0.56004107
32	0x3f24919f	0.642847
33	0x3f66aa5e	0.9010371
34	0xbe9155ff	-0.28385922
35	0xbf36246a	-0.71149313
36	0xbec662a8	-0.38747144
37	0xbe717280	-0.23578835
38	0xbedc0be5	-0.42977825
39	0x3f0305e7	0.5118088
40	0xbea86815	-0.32891908
41	0xbf8089e9	-1.0042087
42	0xbecf3f33	-0.40477905
43	0x3f04ba51	0.51846796
44	0x3dc725e3	0.09724023
45	0xbd836cbf	-0.06417226
46	0xbebb1f37	-0.36547253
47	0xbe8f34e9	-0.27970055
48	0x3f326f73	0.6970131
49	0x3ed170f1	0.4090648
50	0x3f40aeb4	0.75266576
51	0xbedf1364	-0.4356948
52	0xbec2a9a7	-0.3802006
53	0x3f187c21	0.59564406
54	0x3ff70525	1.9298445
55	0x3fc30e5c	1.5238757
56	0x3de60e50	0.11233199
57	0xbe95b91f	-0.292428
58	0x3f91805c	1.1367297
59	0x3f5ea28d	0.8696678
60	0x3ee0d9fb	0.43916306
61	0x3f4ef89d	0.80848104
62	0xbf0fd2fb	-0.56181306
63	0xbf1882bb	-0.5957448

ActorDistributionNetwork/CategoricalProjectionNetwork/logits/bias f4 [64]
0	0xbfd27a39	-1.6443549
1	0xbd2cc554	-0.042180374
2	0xbe93686e	-0.2879061
3	0xbe8aa8e3	-0.27081975
4	0xbdf4c6f1	-0.119520076
5	0xbef28aa0	-0.47371387
6	0xbe054db3	-0.13017921
7	0xbf0f549a	-0.55988467
8	0xbf61b17b	-0.8816144
9	0x3f16a65b	0.5884759
10	0x3e8c208f	0.2736859
11	0x3f661e2c	0.8988979
12	0x3eb687aa	0.35650378
13	0x3f06921e	0.5256671
14	0xbd434eb6	-0.047682486
15	0xbf2b455d	-0.66902715
16	0xbeae475b	-0.34038815
17	0x3f2e1653	0.68002814
18	0x3ee406dc	0.44536483
19	0x3f4fe34d	0.8120621
20	0x3f553036	0.8327669
21	0x3f860c37	1.0472478
22	0x3ef0ca76	0.47029465
23	0x3d3936a7	0.045218136
24	0xbd33934a	-0.043841638
25	0x3f1b5afe	0.6068572
26	0x3f2a4810	0.6651621
27	0xbedd480a	-0.43219024
28	0x3f370970	0.71498775
29	0x3f9e843f	1.2384108
30	0x3f12c326	0.5732902
31	0x3cca1042	0.024665955
32	0x3e9ea7ab	0.30987296
33	0x3eff87da	0.49908334
34	0x3f3d38ab	0.73914593
35	0x3cb1da1e	0.021710452
36	0x3f719394	0.9436581
37	0x3f6148ce	0.88001716
38	0x3f244850	0.6417284
39	0xbe241b99	-0.16026153
40	0xbe2673c6	-0.16255102
41	0x3e9d9e0f	0.30784652
42	0x3f9ef24c	1.2417693
43	0x3f70a2a6	0.9399818
44	0x3ec8d857	0.39227554
45	0x3f07adb3	0.5299942
46	0x3ee701c6	0.4511854
47	0xbec4b84d	-0.3842186
48	0xbd2e7d57	-0.042600002
49	0x3ea989f4	0.33113062
50	0x3f662942	0.89906704
51	0x3f1aa5b7	0.6040911
52	0x3e85c960	0.261302
53	0x3f474b68	0.77849436
54	0xbeb24ae6	-0.34822768
55	0xbf081093	-0.5315029
56	0xbe6aeecc	-0.22942656
57	0xbf03fc32	-0.51556695
58	0xbee83ac5	-0.45357338
59	0x3e19b4c1	0.15010358
60	0xbee9e2b1	-0.45680764
61	0xbeb99956	-0.362498
62	0xbea07c3d	-0.31344786
63	0xbf05ba13	-0.5223705

ActorDistributionNetwork/EncodingNetwork/dense/MatMul f4 [64, 64]
0	0x3e85ab22	0.26107126
1	0x3f178bad	0.59197503
2	0xbefe0888	-0.49615884
3	0x3eb1753a	0.3465975
4	0x3d1686c2	0.03674961
5	0xbe33160f	-0.17488883
6	0xbf0f00c8	-0.5586057
7	0x3e113d09	0.1418344
8	0x3f8a8a84	1.0823522
9	0x3f648473	0.892646
10	0xbe1ca25b	-0.15296309
11	0x3f3fe229	0.7495447
12	0xbebaff0b	-0.36522707
13	0xbf3fd5a8	-0.7493539
14	0xbf222b7e	-0.63347614
15	0xbeb0c1f3	-0.34522972
16	0xbe6a0f52	-0.22857407
17	0xbe841bae	-0.25802368
18	0x3ef4f00d	0.47839394
19	0xbee4b752	-0.44671112
20	0xbed29c0c	-0.4113468
21	0xbf3331e7	-0.6999802
22	0xbda89363	-0.08231237
23	0xbf150d10	-0.58223057
24	0x3cda2ed9	0.026633667
25	0x3ed25c4f	0.4108605
26	0x3e865804	0.26239026
27	0x3ed0faed	0.4081644
28	0xbec7f900	-0.3905716
29	0xbf4f4b72	-0.80974495
30	0xbeef2719	-0.46709517
31	0xbe4d67cc	-0.20059127
32	0xbf138914	-0.5763104
33	0xbf3bbb5a	-0.7333275
34	0xbe118a5c	-0.14212936
35	0x3e0cae2b	0.13738315
36	0x3cad68a1	0.021168055
37	0x3e38c59e	0.18044135
38	0xbee022f6	-0.43776673
39	0xbf35367f	-0.7078628
40	0xbe92638f	-0.28591582
41	0x40a9e8c7	5.309665
42	0x3ed64138	0.41846633
43	0xbefbc962	-0.4917708
44	0xbdd0f37f	-0.10202693
45	0x3f0e16be	0.5550345
46	0xbe69c936	-0.22830662
47	0xbe453acc	-0.1926071
48	0x3eb4f6ce	0.35344547
49	0x3d7ff6e0	0.062491298
50	0x3f05dff0	0.52294827
51	0xbd9d42d9	-0.07678766
52	0xbf1a72c6	-0.6033138
53	0xbe6ec743	-0.233182
54	0xbfb52dbb	-1.4154581
55	0xbfd88c60	-1.6917839
56	0x40009f5a	2.009726
57	0xbf87f829	-1.0622607
58	0x3e8db558	0.27677417
59	0x3f1670ff	0.5876617
60	0x3f753aa0	0.9579258
61	0xbe8532e6	-0.26015395
62	0x3e8dc573	0.27689704
63	0x3e70d8c0	0.23520184
64	0xbea37d1d	-0.3193139
65	0xbddd00c0	-0.10791159
66	0xbd815316	-0.063146755
67	0xbede2d67	-0.43394014
68	0xbe6ffbd8	-0.23435915
69	0x3daa8bd6	0.08327453
70	0xbeb680cc	-0.3564514
71	0xbcd469b3	-0.025929308
72	0x3e260eff	0.16216658
73	0xbf576d08	-0.84150743
74	0xbf302ec6	-0.6882137
75	0xbe2a456d	-0.16628046
76	0xbe93db28	-0.2887814
77	0x3f2b0511	0.66804606
78	0x40031e93	2.048741
79	0xbe97ddc7	-0.2966139
80	0xbdd6bd16	-0.10485284
81	0xbe1690d3	-0.14703684
82	0x3e460a1d	0.19339795
83	0xbc0768fa	-0.008264774
84	0x3d984cba	0.074365094
85	0x3ce4ed64	0.027945228
86	0x3e3ea0fe	0.18616101
87	0xbdd05216	-0.10171907
88	0xbf3e6200	-0.74368286
89	0x3e9d12dd	0.30678454
90	0x3d364306	0.044497512
91	0x3e1e2aa9	0.15445961
92	0xbf11c071	-0.5693427
93	0xbbf220e6	-0.0073891757
94	0x3d55158b	0.052022498
95	0xbec7f3cf	-0.390532
96	0x3f23fe59	0.6405998
97	0x3e850af9	0.25984934
98	0x3e3c3601	0.18379976
99	0x3e389468	0.18025362
100	0xbc20043d	-0.0097666355
101	0xbd9dab89	-0.07698733
102	0xbd92b15e	-0.07162736
103	0xbd442e61	-0.047895793
104	0xbe953421	-0.29141334
105	0xbd3f2670	-0.046667516
106	0xbe2000f3	-0.15625362
107	0xbe2eef70	-0.17083526
108	0xbc5b316f	-0.013378485
109	0x3e104feb	0.14092986
110	0x3eff13d2	0.4981981
111	0xbdd4d800	-0.10392761
112	0xbe443970	-0.19162536
113	0xbe47ef09	-0.19524778
114	0x40b480f3	5.640741
115	0x3e11b693	0.14229803
116	0x3d1cdb9e	0.03829538
117	0x3ea5cef0	0.32384443
118	0x401c5fa9	2.4433386
119	0xbea4b71e	-0.32170957
120	0x3f3c0d4d	0.73457795
121	0x3e9a696c	0.30158556
122	0x3f0f7815	0.56042606
123	0x3efcbd21	0.49363044
124	0xbe0feb66	-0.14054641
125	0xbe82c1fc	-0.25538623
126	0xbee05562	-0.43815142
127	0x3ed96c02	0.42465216
128	0x3f056953	0.52113837
129	0xbdbfee60	-0.09371638
130	0x3f08b594	0.53402066
131	0xbfb939e6	-1.4470794
132	0x3faede44	1.366158
133	0xbf3164ef	-0.6929464
134	0xbd218845	-0.039436597
135	0xbf07225c	-0.52786803
136	0x3dc23b94	0.0948402
137	0xbea4802c	-0.32129037
138	0xbd8bf5a9	-0.06833965
139	0xbdb9a74f	-0.09065115
140	0x3ea9f24d	0.33192673
141	0xbe15468b	-0.14577691
142	0x3e31d858	0.17367685
143	0x3ee23c34	0.44186556
144	0xbe2cdf52	-0.16882065
145	0x3f2303fd	0.6367796
146	0x3ef84dab	0.48496756
147	0x3e971117	0.29505226
148	0x3f132e58	0.5749259
149	0xbe0ad44c	-0.13557547
150	0xbd890d45	-0.06691984
151	0x3ee4e4dd	0.4470586
152	0xbe3f5c39	-0.18687524
153	0x3de9a100	0.114076614
154	0xbb37027b	-0.0027925062
155	0x3e8a8910	0.27057695
156	0xbdef7590	-0.11692345
157	0xbe9f569c	-0.31120765
158	0x3d69f4bb	0.05711816
159	0xbecc2e9e	-0.39879316
160	0x3e47c415	0.19508393
161	0xbd68d95c	-0.056847915
162	0x3f177571	0.59163576
163	0xbe23b72b	-0.15987842
164	0x3eba7e1b	0.36424336
165	0x409d52ce	4.916358
166	0xbe94343b	-0.289461
167	0xbf53d169	-0.8274141
168	0x3ee40825	0.44537464
169	0x3db0003b	0.08593794
170	0x3dc5ad6d	0.09652219
171	0xbeac6cea	-0.33676845
172	0xbd768299	-0.06018314
173	0x3e24f10c	0.16107577
174	0x3e290dd3	0.1650918
175	0x3eb78384	0.35842526
176	0x404cd164	3.2002802
177	0xbf3b2e8f	-0.7311792
178	0x3f0d73bc	0.5525472
179	0xbd700d44	-0.0586064
180	0xbd0c4337	-0.03424379
181	0xbd308bd0	-0.043102086
182	0xbe7575b7	-0.23970686
183	0x3f0ef60a	0.55844176
184	0x3e9fbc39	0.3119829
185	0xbeb0bff5	-0.34521452
186	0x3e39bb02	0.18137744
187	0x3fa8be8c	1.318315
188	0x3eaa35ba	0.33244115
189	0x3e903ef8	0.2817304
190	0x3e03c3d3	0.1286767
191	0xbbc503ca	-0.0060124146
192	0x3db26a1b	0.08711644
193	0xbee9940b	-0.4562076
194	0xbeddc834	-0.43316805
195	0x3ddf56b9	0.10905213
196	0xbe910bca	-0.28329307
197	0xbecfac9d	-0.4056138
198	0xbe77711c	-0.24164242
199	0x3d980672	0.07423104
200	0x3ef07b61	0.4696913
201	0x3ccfed91	0.025381835
202	0x3e1930f1	0.14960076
203	0xbeab0108	-0.33399224
204	0xbeb9937a	-0.36245328
205	0xbd98b771	-0.07456864
206	0x3ec60be0	0.38680935
207	0xbd802c8c	-0.06258497
208	0xbe020610	-0.12697625
209	0x3c3bcd89	0.011462578
210	0x3e8597ae	0.26092285
211	0x3e990ab9	0.29890993
212	0x3e8daecc	0.27672422
213	0xbd13994e	-0.036034875
214	0x3f1ffd84	0.6249621
215	0xbee57a9b	-0.44820103
216	0xbe5858ea	-0.21127668
217	0xbea9bba3	-0.33150968
218	0x3f018433	0.50592345
219	0xbef19852	-0.47186524
220	0x3e60f8da	0.2196993
221	0xbe4b4804	-0.1985169
222	0x3efa208b	0.48852953
223	0x3e20ad76	0.1569117
224	0x3e5faa47	0.218423
225	0x3e040b34	0.12894899
226	0x3f1429dc	0.5787637
227	0xbf0dbbba	-0.55364573
228	0x40675b92	3.614964
229	0x3e2f4633	0.17116623
230	0xbe8bf47d	-0.27334967
231	0xbef6aa68	-0.48176885
232	0xbecbb322	-0.39785105
233	0xbee821df	-0.45338342
234	0x3e972b06	0.29525012
235	0xbf1dbe8e	-0.6161889
236	0x3eadebbb	0.3396891
237	0x3ddb3380	0.10703182
238	0x3f2c0ba3	0.67205256
239	0x3f3f9d43	0.7484934
240	0x3f298eb9	0.662334
241	0xbea4421a	-0.3208168
242	0x3f091815	0.5355237
243	0x3ea775ef	0.32707164
244	0xbd16148b	-0.036640685
245	0x3e84617c	0.25855625
246	0xbe6012b0	-0.21882129
247	0x3e42cb23	0.19022803
248	0x3e8f7d73	0.28025398
249	0xbe84db2a	-0.2594846
250	0x3e6b38d7	0.22970901
251	0xbfd35c4e	-1.6512544
252	0xbfca0ab5	-1.5784518
253	0xbf2c78fb	-0.673721
254	0x3eefe694	0.46855605
255	0xbd5c2230	-0.05374354

ActorDistributionNetwork/CategoricalProjectionNetwork/logits/MatMul f4 [64, 64]
0	0xbea9cdf9	-0.33164957
1	0xbece033d	-0.40236846
2	0xbdce7751	-0.100813515
3	0xbf3b6f82	-0.7321702
4	0xbecca18f	-0.3996701
5	0x3f536c46	0.8258709
6	0x3ee1dc1d	0.44113246
7	0x3e82f264	0.25575554
8	0xbe3e0123	-0.18555121
9	0xbdf7445c	-0.120735854
10	0x3d974a25	0.07387189
11	0xbf05f1bd	-0.5232199
12	0x3f140098	0.57813406
13	0x3ef3cc52	0.47616822
14	0x3f407999	0.75185543
15	0x3e9e51bd	0.30921736
16	0x3f30f5db	0.69125146
17	0x3f120de3	0.5705244
18	0xc0083474	-2.1282015
19	0xbfa7b34e	-1.3101594
20	0xbf57ffc0	-0.8437462
21	0xbf827a91	-1.0193654
22	0x3e508f3f	0.20367144
23	0xbf5d9506	-0.86555517
24	0xbddcb373	-0.10776415
25	0xbf8ba2d7	-1.090907
26	0xbec37b54	-0.3818003
27	0xbe79577a	-0.24349776
28	0x3eda87f6	0.42681855
29	0xbf53bfc0	-0.8271446
30	0xbeb2f678	-0.34953666
31	0xbf668b72	-0.90056527
32	0xbd081131	-0.03321952
33	0xbd1d57f2	-0.03841395
34	0xbe9339a6	-0.2875492
35	0x3efa3b42	0.48873335
36	0xbb892e87	-0.0041864547
37	0x3e2c962a	0.16854158
38	0x3e65f34c	0.22456092
39	0xbe8c9b37	-0.2746217
40	0x3f2dc63c	0.67880607
41	0x3f3ca484	0.7368853
42	0x3e8af4fb	0.2714003
43	0xc0707db9	-3.7576735
44	0xbf66e249	-0.90189034
45	0xbd18977b	-0.037253838
46	0x3dc92bb7	0.09822791
47	0xbf93269e	-1.149616
48	0x3ee35ee5	0.44408336
49	0xbf7cabfc	-0.9869993
50	0xbf8e5ff8	-1.1123037
51	0x3e2ee075	0.17077811
52	0x3f180337	0.59379905
53	0x3edbdd1b	0.42942128
54	0xbf9a42b3	-1.2051605
55	0xbedfa23d	-0.43678465
56	0xbf860084	-1.0468907
57	0x3ec0de8d	0.37669793
58	0xbe084e5a	-0.13311139
59	0xbe6035f0	-0.21895576
60	0xbe935442	-0.2877522
61	0xbeec8961	-0.46198562
62	0x3f0997bd	0.5374716
63	0x3ee5ea7a	0.44905454
64	0x3f8723b1	1.0557767
65	0xbf13464f	-0.5752916
66	0x3ee34694	0.44389784
67	0xbe03ac3f	-0.12858675
68	0x3fee76f3	1.863005
69	0xbedd8e52	-0.43272644
70	0x3f2cc278	0.67484236
71	0x3e82aaee	0.25521034
72	0x3eed9258	0.46400714
73	0xc05f8139	-3.4922621
74	0xbf86a91e	-1.052036
75	0xbe6dab21	-0.23209812
76	0xbe9683d2	-0.29397446
77	0x3f3e1f09	0.74266106
78	0xbd9e99fc	-0.07744214
79	0x3eeb287c	0.45929325
80	0x3f60b259	0.87772137
81	0x3faf983f	1.3718337
82	0xbf9eabf4	-1.2396226
83	0xbf9148d7	-1.1350354
84	0xbfcf5486	-1.619767
85	0x3f0d5238	0.5520358
86	0x3f23bf13	0.6396343
87	0xbdef08eb	-0.11671623
88	0x3f8e4b01	1.1116639
89	0xbf9ca682	-1.2238314
90	0x3f19a330	0.6001463
91	0x3e1ac6fa	0.15114966
92	0xbf5d3ee2	-0.86424077
93	0x3c524d3d	0.012835798
94	0x3f1b5bc9	0.6068693
95	0x3f477d94	0.7792599
96	0x3f5cd393	0.86260337
97	0xbeda986e	-0.4269442
98	0x3f38b52b	0.7215144
99	0xc01286e1	-2.2894824
100	0x3f78ae25	0.97140723
101	0xbfb3db4b	-1.4051298
102	0x3f08e9ed	0.5348194
103	0x3fa7a40b	1.3096937
104	0x3f930c54	1.1488137
105	0xbfaf3e8d	-1.3690964
106	0xbfe1e231	-1.7647153
107	0xc01c369a	-2.4408326
108	0x3f263100	0.6491852
109	0x3f8e633a	1.1124032
110	0x3f111d3a	0.5668522
111	0x3e8084c1	0.25101283
112	0x3ec121b6	0.37721032
113	0x3fa64cd5	1.2992197
114	0x3d5fb173	0.05461259
115	0x3e56854d	0.20949288
116	0x3f89f8e0	1.0779076
117	0x3f2538a0	0.6453953
118	0xbe8dc0b9	-0.27686098
119	0x3f408a57	0.7521109
120	0x3ef6b924	0.48188126
121	0xbedb5f70	-0.4284625
122	0x3ea29100	0.3175125
123	0xbf3158b8	-0.69276
124	0xbee9c7e8	-0.4566033
125	0x3ee1e1eb	0.44117674
126	0x3f37c24e	0.7178086
127	0x3f85529d	1.0415837
128	0x3f9cffec	1.2265601
129	0xbf6f7ee3	-0.9355299
130	0xbf8fb001	-1.1225587
131	0xbf25ca1b	-0.64761513
132	0x3f8dd4e5	1.1080595
133	0x3e8df705	0.27727523
134	0x3dc929ca	0.09822424
135	0x3f56cf2b	0.83909863
136	0x3f13efe3	0.57787913
137	0xc072b4e3	-3.7922904
138	0xbe3cccb0	-0.18437457
139	0xbf622bb6	-0.8834795
140	0xbe8949a0	-0.26813984
141	0x3fcaa0e7	1.5830353
142	0x3f82dd88	1.0223856
143	0xbd733843	-0.059379827
144	0x3ecedb2f	0.404016
145	0x3f48cf83	0.7844164
146	0x3f1a0a5b	0.6017205
147	0x3d90b689	0.07066066
148	0x3f0c2c5d	0.54755193
149	0x3f427c3f	0.75970834
150	0x3eeb7650	0.45988703
151	0x3ebc3e20	0.36766148
152	0x3f6f4bb7	0.93474907
153	0xbeb7e807	-0.3591921
154	0x3f1707e4	0.58996415
155	0xbf1f6f3c	-0.62279105
156	0xbebb85a8	-0.3662541
157	0xbdabb48d	-0.08384047
158	0x3f828215	1.0195948
159	0x3fa1c0a4	1.2636914
160	0x3f55e7e7	0.8355698
161	0xbfdb6039	-1.713874
162	0x3d7c38ab	0.06157748
163	0x3f2fdebd	0.68699247
164	0x3f2f4e54	0.68478894
165	0xbd5054fe	-0.050862305
166	0x3f340576	0.7032083
167	0xbf80274e	-1.0011995
168	0x3fb11fad	1.3837792
169	0x3df288c7	0.118424945
170	0x3f1c7e3d	0.61130124
171	0x3e688483	0.22706799
172	0xbde6e482	-0.11274053
173	0x3dd95d39	0.10613484
174	0x3cca3867	0.024685098
175	0xc01ea034	-2.478528
176	0x3f37b81e	0.71765316
177	0x3f6dc545	0.92879134
178	0x3f7e64e0	0.99372673
179	0x3f18f884	0.59754205
180	0x3f2a3d6f	0.6649999
181	0xbd848b95	-0.06471936
182	0xbed602fb	-0.4179915
183	0x3ec05245	0.37562767
184	0x3f3216da	0.6956612
185	0x3ef013bc	0.46890056
186	0xbf1db5fa	-0.616058
187	0xbf45a885	-0.77210265
188	0xbfa5aea1	-1.2943918
189	0x3f291de4	0.66061234
190	0xbd9e083c	-0.07716414
191	0x3f5f5565	0.87239677
192	0xbbcc594e	-0.006236232
193	0xbfb88732	-1.4416258
194	0xbea4ee85	-0.32213226
195	0xbf9e2ec7	-1.2358025
196	0xc09ad525	-4.8385186
197	0xbf3e197d	-0.7425764
198	0x3f22f064	0.63648057
199	0x3f2e0dff	0.67990106
200	0x3fdee918	1.7414885
201	0xbc71db78	-0.014761798
202	0xc032c0b6	-2.7930121
203	0x3df28eeb	0.11843666
204	0x3f57660e	0.841401
205	0x3efd3ff4	0.49462855
206	0x3fb86fd0	1.4409122
207	0xbd9c0d83	-0.07619765
208	0x3dc766c5	0.097363986
209	0x3d03d24a	0.03218297
210	0x3f570cf0	0.84004116
211	0x3eb4bc68	0.35299993
212	0x3f274ac3	0.6534845
213	0x3ed0c3d1	0.40774396
214	0xbe40ea9a	-0.18839493
215	0x3ef284d2	0.4736696
216	0x3f4a685a	0.7906548
217	0x3e9f36ec	0.3109659
218	0x3edb7ef1	0.42870286
219	0xbc03a533	-0.008034992
220	0xbf34c85f	-0.7061824
221	0x3f09d5cb	0.5384185
222	0x3ea0b2ab	0.31386313
223	0x3d902418	0.07038134
224	0x3ea9d255	0.33168283
225	0xbff25ae6	-1.893399
226	0x3e8c28c9	0.27374867
227	0x3f261128	0.6486993
228	0x3fa68bb7	1.3011388
229	0xbf98a658	-1.1925764
230	0xbf32de25	-0.69870216
231	0x3f90b7e5	1.130612
232	0x3f53a163	0.8266813
233	0x3e202cd4	0.156421
234	0x3f093bef	0.53607076
235	0xbeab5865	-0.33465877
236	0xbfeae797	-1.8351926
237	0x3ff60c80	1.9222565
238	0x3f04b97a	0.51845515
239	0x3f02a14d	0.51027375
240	0x3f54aa71	0.8307257
241	0x3f8983dc	1.0743365
242	0x3f80f7d0	1.0075626
243	0xbf14ec5f	-0.58173174
244	0x3e8816a0	0.26579762
245	0xbf2d122f	-0.6760587
246	0xbf940bdf	-1.1566123
247	0x3e410b24	0.18851906
248	0x3ed34318	0.41262126
249	0xbec685d9	-0.38773993
250	0xbebc1c34	-0.36740267
251	0xbeefe19b	-0.4685181
252	0x3f970a58	1.1800032
253	0x3f247657	0.6424307
254	0xbf74165e	-0.9534663
255	0x3f9fc596	1.2482173
