lite/examples/recommendation/android/app/src/main/assets/model_history10_top100.tflite (tflite, 512288 bytes, 8 tensors)

zeros_like f4 [1, 16]
00000000: 0000 0000 0000 0000 0000 0000 0000 0000
00000010: 0000 0000 0000 0000 0000 0000 0000 0000
00000020: 0000 0000 0000 0000 0000 0000 0000 0000
00000030: 0000 0000 0000 0000 0000 0000 0000 0000
0.0 0.0 0.0 0.0 0.0 0.0 0.0 0.0
0.0 0.0 0.0 0.0 0.0 0.0 0.0 0.0

ones_like f4 [1, 16]
00000000: 0000 803f 0000 803f 0000 803f 0000 803f
00000010: 0000 803f 0000 803f 0000 803f 0000 803f
00000020: 0000 803f 0000 803f 0000 803f 0000 803f
00000030: 0000 803f 0000 803f 0000 803f 0000 803f
1.0 1.0 1.0 1.0 1.0 1.0 1.0 1.0
1.0 1.0 1.0 1.0 1.0 1.0 1.0 1.0

item_embedding_context/embeddings f4 [3953, 16]
00000000: 8e4c 553e 8726 5abc fc09 f53d ef5c d1bd
00000010: bf2c 463d a568 92be 4517 97be 7697 d6be
00000020: fab7 6fbe 6e60 fb3e 13ff 43bd c0c8 c0bc
00000030: dcda 793e 0fe2 eabd faa9 a53e 0ab5 0cbe
00000040: 7a41 043f 5c27 62bf ec44 2cbf a4b1 d43e
00000050: 48bf 183f a657 f13e 3412 e73e 2b52 283d
00000060: a674 59bc 6d36 1a3f 569f 563d e2a1 84bd
00000070: 4b0c 93be dd5b 1a3e b283 0f3f 0895 65bd
00000080: 3b70 debe fdb1 c23e bd13 1b3f ba64 36be
00000090: 459c 84be d762 96be e3a7 17bd ebba 51be
000000a0: 972a 0d3e 29c8 353e 4d96 c9bd cdf2 613e
000000b0: a7ff 13be 2c9c 8abe 8ab2 80bd 0a2a 883c
000000c0: 0c5d 96bd 5476 2ebe e54b a53d b152 a5be
000000d0: e585 94bc 3754 1abc 21e7 5b3e 48d3 85be
000000e0: 302a 53be fb2f c1be 82d3 d8bd a669 173e
000000f0: 58de 883e 76b3 053e 6e7c 803c 73f3 01be
00000100: ca9d 03be 86a8 c03e 9484 ba3e 4430 0e3e
00000110: eaeb 8ebe 1e73 483e 27c7 48be 82f7 f2bb
00000120: a555 a53e a5be bc3e c60f 2e3e 2e73 213d
00000130: 6c8a ab3e 23ed 193d 4a84 b83e 1900 0c3f
00000140: 527b 42be 8767 873d 960f c13e 3702 623e
00000150: a6a0 89be 912c 993c 06ef 06bd fa25 c13e
00000160: 2d85 223e 742b f83d 6985 cb3d e96a 503e
00000170: 0648 5dbe d3db a3bd 7671 92be 7b6e 0b3e
00000180: b50d 11be 9b71 79bd 2cb4 47be fb17 423e
00000190: 5af5 0abf 2542 9a3e eb84 cebd 3fcb 22bd
000001a0: 0613 c43c db3d 133e 4b35 433e e8c2 fbbe
000001b0: 02b5 75be 33f7 b53e f4f3 c4be 6fdc d6be
000001c0: 1504 47bd 5141 ac3d 591f 16bd a668 c13d
000001d0: 8eae b73d 560c 05be 6185 94be 8929 20bd
000001e0: 655b efbd 0afa d73d 3827 443e ccc4 06be
000001f0: e3e5 80be f182 6dbd de5c e1be 150b 9c3e
00000200: 1c14 cb3d 0fe5 d0bd dadd aabc c370 b7be
00000210: ec82 663e aaac eb3d 8072 34be 3d0e 43be
00000220: f889 0dbe 9eb1 793c ec67 aa3e 45f3 9f3c
00000230: 6a6f 143d 7720 bb3d e37b e13d 1dfa f5bd
00000240: 1dc3 1ebd da32 dcbc db62 c63e 4608 cdbe
00000250: a76b 61bd 3e39 e13d e097 1e3d 6bd9 823d
00000260: 2bab 30be 1abf 9f3e 8b68 bc3e c475 acbe
00000270: 4ee2 02be ee31 15be c174 b7bd 9b73 4a3d
00000280: 26ec 0c3d 36a1 a73e 7563 e9bd 6b2b c9be
00000290: 4046 33bd 12f2 6ebe ea99 a13e 4f74 b9be
000002a0: 3430 56be 83a2 f1be 898a f23e 711d 18be
000002b0: b664 a8be 2a7d cc3e 8b69 1a3e 418a 0dbe
000002c0: c3be 013d 6bb5 27be f0cf c1be 53c9 71bb
000002d0: 9979 71bd 0477 acbd 4792 973e 1981 333d
000002e0: cccc c8be 0181 98be 8e7f b9be a0da cfbd
000002f0: 6abb 293d ef56 16bf 1611 08be 34f6 213c
00000300: b1e6 e43d 2e73 f9bc 889b 9e3e e4e5 8e3d
00000310: d611 343d 3132 7a3e fcaa 3abe 56e9 16be
00000320: 498a 1dbe 901f f7bd e8a5 22be ea53 38bc
00000330: a099 7fbe b64c 78bd bdac ac3d 7ac2 953d
00000340: 0804 aabe bfa0 80bd 2a9d b1be 3b4b 3c3e
00000350: 1d6d c4be a0cd b23e 36bd 6c3d 59ec 66be
00000360: 6c83 5fbe ec6a 85bc 3e40 883e 5226 01be
00000370: ba52 a6be 6d14 3f3e d150 1cbd 3be2 843e
00000380: f439 00bd 2a49 5638 f846 10be 20d4 b8be
00000390: 6d09 8fb9 c398 1fbc 9b43 bfbe 52a4 01bd
000003a0: c312 e7be eddb cbbc ade7 46bd ab92 6a3c
000003b0: c54c 8abe b73a aebe 5a21 4ebe 4a98 c43d
000003c0: f17d 103e cfc9 a83e f1df 87bb 6708 513e
000003d0: f8f6 e53d 65e3 a3be d520 1a3d dbd4 403d
000003e0: b687 4e3d ec31 423e 042d 5b3e 2482 57be
000003f0: 69a9 61bd fc8d 9dbe d820 8ebc 4524 88be
0.20829985 -0.01331485 0.11964795 -0.10222804 0.048382517 -0.28595462 -0.2950994 -0.4191243
-0.23410025 0.49097008 -0.04785068 -0.023533225 0.24399894 -0.114688985 0.32356244 -0.13740936
0.5166241 -0.8834131 -0.67292666 0.4154178 0.5966687 0.47137183 0.45131075 0.041093986
-0.01327244 0.602393 0.05239805 -0.06476189 -0.28720316 0.15074106 0.56060326 -0.05605033
-0.43445 0.3802642 0.60576993 -0.17811862 -0.25900474 -0.29372284 -0.037025344 -0.2048146
0.13785778 0.17752136 -0.09843121 0.22065277 -0.14452992 -0.27072275 -0.062840536 0.016621608
-0.07341966 -0.17037326 0.08071116 -0.3228965 -0.018130252 -0.009419492 0.21474887 -0.26137757
-0.20621562 -0.3773192 -0.10587217 0.14786395 0.26732135 0.1305674 0.015684333 -0.12690525
-0.1285316 0.37628573 0.36429274 0.138856 -0.27914363 0.19575164 -0.1960722 -0.007414759
0.32291904 0.368642 0.16998205 0.039416485 0.33504045 0.037579667 0.3603843 0.5468765
-0.18992355 0.06611543 0.37707204 0.22071157 -0.26880378 0.018698009 -0.032942794 0.37724286
0.15871115 0.12117663 0.09937555 0.20353283 -0.21609506 -0.080009125 -0.2860219 0.13616364
-0.14165385 -0.06089936 -0.19502324 0.1895446 -0.54280627 0.3012859 -0.10083946 -0.03974461
0.023934852 0.14379065 0.19063298 -0.4917214 -0.2399483 0.3554016 -0.3846737 -0.41965052
-0.048587877 0.084108956 -0.03665099 0.09443788 0.089688405 -0.12992987 -0.2900801 -0.03910211
-0.11687354 0.10545738 0.19155586 -0.1316101 -0.2517539 -0.057986204 -0.44016165 0.30477205
0.09915945 -0.101999395 -0.02085774 -0.35828218 0.2251088 0.115075424 -0.17621803 -0.190484
-0.13822162 0.015240101 0.3328241 0.01952518 0.036239065 0.091370516 0.11009958 -0.12010596
-0.038760293 -0.026879717 0.38747296 -0.40045375 -0.055034306 0.10997246 0.038719058 0.063891254
-0.17252795 0.31200486 0.3679851 -0.33683598 -0.12781641 -0.14569828 -0.08957816 0.049426656
0.034404896 0.32740182 -0.11395923 -0.39290938 -0.043768167 -0.2333453 0.3156274 -0.3622155
-0.20916826 -0.471943 0.4737132 -0.14854981 -0.32889336 0.39939243 0.15079324 -0.13822271
0.031676065 -0.16377799 -0.37853956 -0.003689368 -0.058953855 -0.08421138 0.29603788 0.04382429
-0.39218748 -0.29785922 -0.3623013 -0.10149121 0.041438498 -0.587264 -0.13287768 0.00988536
0.111768134 -0.03045043 0.30978036 0.06977442 0.043962322 0.24433209 -0.18229288 -0.14737448
-0.15384783 -0.12066567 -0.158836 -0.011250475 -0.24960947 -0.060620032 0.08431385 0.07312484
-0.332062 -0.0628066 -0.3469022 0.18388073 -0.38364497 0.34922504 0.057797633 -0.22551097
-0.21827477 -0.016286336 0.26611513 -0.12612274 -0.3248499 0.18660136 -0.03816301 0.2595385
-0.03130527 5.1089715e-05 -0.14089572 -0.3609934 -0.00027282108 -0.009741011 -0.37356266 -0.03165085
-0.45131502 -0.024885142 -0.048560787 0.014317195 -0.27011696 -0.3402917 -0.2012991 0.09599359
0.14110543 0.32966468 -0.004146569 0.20413361 0.11228746 -0.32009426 0.037628967 0.047077995
0.050422393 0.18964356 0.21403891 -0.21045738 -0.055093203 -0.30772388 -0.017349645 -0.2659017

hidden_layer1/bias f4 [16]
00000000: dd82 41bd c312 aebd 961f d9bd 9dd2 74bd
00000010: 6063 0fbe e0b7 2abd 9734 b63d ed17 a3bc
00000020: a863 48bd d801 1d3e a66b 913d 7ae6 a33e
00000030: 653a 9fbd e771 48be b119 053d 1f8e 94bc
-0.04724394 -0.08499672 -0.10601728 -0.05977117 -0.14002752 -0.041679263 0.088967495 -0.01990887
-0.048923165 0.15332735 0.071006104 0.32011777 -0.0777481 -0.195747 0.032495204 -0.018134175

hidden_layer0/bias f4 [16]
00000000: 634e 873e 2f3f 123e 9265 07be d69a 3abd
00000010: f350 29be 195b d33e b833 ab3e f2ef ef3e
00000020: 8835 0d3f 2e02 033f 269a ea3e f48d c13e
00000030: 9fe2 fb3b 064d c63e a903 3c3e 322b f03e
0.26426992 0.14281915 -0.1322234 -0.04555782 -0.16534786 0.4128044 0.33437896 0.4686275
0.5515981 0.511752 0.4582073 0.37803614 0.0076869274 0.3873064 0.18360771 0.46907955

hidden_layer0/MatMul f4 [16, 16]
00000000: feb7 a13d 690f dfbe 1a3f 7ebf ae18 bb3e
00000010: ef96 b43e 67ca d43e 12fd 163f f931 2cbe
00000020: bee4 e83e ef63 f73d 2532 40bd aacc b63e
00000030: 0c30 49be e589 7d3e a621 68be dd74 023f
00000040: 7baa 15bf a971 523f 27ca 1a3f 5870 89be
00000050: f08c f2be 8634 1cbf be4b 76be d024 cb3e
00000060: 2d88 0fbf 6f43 f8be 1ead 603e f20b 8bbe
00000070: fb4f 0a3f 458b 0ebf 4d10 a0be 4260 8a3e
00000080: 2c2d a33e 2068 14bf 0fa1 47bf 0b24 dc3d
00000090: 83f3 d33e 534b 513e e6e3 1b3e fcc7 35bf
000000a0: a069 8b3f 5485 2b3f bf05 57be 7ed4 6c3f
000000b0: ff40 fabe 2896 8f3e 7d62 593f b220 53be
000000c0: 3a97 92bf 3024 923e c1a1 5b3f 4a3e fb3c
000000d0: 7bed 9a3d 3c9d aabe 68f1 a73e a665 4cbd
000000e0: ed5b e1be 2133 16be 257f 5d3f 1e4c 623d
000000f0: 1cb1 213f d8c0 31bf 18ba 2abf b1f0 6d3f
00000100: e6a7 c53e 75f8 38be 3415 533d 3393 c2be
00000110: c4ca 203e 71d6 963b 57c6 f13d e350 93be
00000120: e360 8abe a748 543e 17ee 8dbd c9ed 7dbe
00000130: 8fe7 853e 48c6 82be e012 bebd c3de 9cbd
00000140: 92d2 42bd 0eb8 613f aa50 bf3e d8c9 63bf
00000150: 71ba aabf 076c 7fbf f217 81be 52e3 833c
00000160: 9536 e93d fbb7 d7be 3780 ac3e 6c8e dabe
00000170: 3bf9 8bbe 2e4b 493f 3aca b7be 79ea 38bf
00000180: 0148 0ebf cdd6 5fba f460 18bf a211 cebe
00000190: 3dea 3bbe facb 133f 0402 54be 54ae 2abf
000001a0: 3905 2b3f 1d3a d0be bd5f 18be d598 b03e
000001b0: 96f7 2bbf 2f80 f83e d972 66be 734c 40bf
000001c0: 1914 13be 9843 8ebf dcab 5cbf 3b64 703f
000001d0: 1df0 0d3f 9b72 17bf 6520 613f 92bb 923e
000001e0: 4995 10bf 6233 ee3d 94a7 ff3e 7346 3cbf
000001f0: c951 c73d 0582 59bf d8d5 913e cd44 0a3f
00000200: 861d 2c3f f21a 1bbf 24b8 58bf 6d01 943d
00000210: e4c8 293f ad4b f63e 36c7 cc3e 80b1 e03e
00000220: 7370 b53e 96e5 263d dd8a 733e 77c5 813e
00000230: c7be 91bd a446 97be 3f58 8e3e 9271 8b3d
00000240: b9fc 6bbf 0902 553f 8ee4 153f 08d8 d8bd
00000250: a7dc 94bf bce6 84bf 5ecd 3fbd ebeb e13d
00000260: e98f 4ebf 1109 8bbf f20d 8b3f ce4f c3be
00000270: 164c 203f 10b3 12bf 7a30 2ebf 4f79 003f
00000280: 4551 813e a54b 173e e080 b0be 1dfb edbe
00000290: 2e61 52bf 2d42 8ebe 8709 173f d654 623e
000002a0: 167e 07bf 15c7 8fbf 35ab 8a3f bff3 93be
000002b0: 390a ee3e 76b0 6f3d 5222 e8be 9b02 693f
000002c0: 89e3 30bf aec4 263f f987 6f3e 7b14 b4be
000002d0: acef 12bf da1b 14bf 0afe 8f3e 32cd efbe
000002e0: 6ecb 9d3e aebb ccbc 0842 7bbe 62e7 303c
000002f0: 0765 04bf 187c ee3e 5f26 44be a5d4 58bf
00000300: 6e10 32bf ce5b 183f ab35 a03e 295c d0bd
00000310: ba97 33be 631e 24bf aea7 073f 1841 423e
00000320: 76ee 90be 5a52 3dbf acac 633f e3ad 973d
00000330: db61 243f bd90 67bf 82e3 cdbe 6fe8 3a3f
00000340: 4963 18bf c73a a33e d8e0 3fbe 6cc9 ba3e
00000350: feab 6abe 2efa 2f3e 76bd ee3e bd88 25bf
00000360: 5774 2d3e 170d 643f 3e8f 25be 7219 113f
00000370: 8d4b f4be d18b 473e 41bb 5d3f 294f 4bbf
00000380: ee1f a1bf a204 103f d987 433f 75c5 183f
00000390: ac56 31be be68 7f3e 6a9b 493e f98c b93e
000003a0: b24d 0e3e 52b6 eb3e 51e1 d53e 98f3 b83e
000003b0: 8493 2b3e 950d 4abf 1c2f 20be f51c e23d
000003c0: 8ab8 78be 04b5 28bd 1182 b5be 990d 183f
000003d0: 84af 53bd fdf1 b93e 9b1a 253f a728 50bf
000003e0: cfc5 263f dbf4 263f 4c3e 7ebf fd41 883f
000003f0: ac28 55bf 8042 2a3f 7deb bc3e 9b22 ebbe
0.07896422 -0.43566445 -0.99315035 0.36542267 0.35271403 0.4156067 0.58979905 -0.16815938
0.45487016 0.12079608 -0.04692282 0.3570302 -0.19647235 0.24759634 -0.22669086 0.5095957
-0.5846326 0.8220468 0.6046471 -0.26843524 -0.47373152 -0.61017644 -0.24052331 0.39676523
-0.5606716 -0.48488948 0.21941039 -0.2715755 0.5402829 -0.5568126 -0.31262437 0.27026564
0.318704 -0.5797138 -0.7798013 0.10749062 0.41396722 0.2043889 0.15223655 -0.71008277
1.0891609 0.6700032 -0.20998286 0.9251174 -0.48877713 0.28044248 0.84915906 -0.20617941
-1.1452401 0.28543234 0.8579369 0.03066935 0.07564827 -0.33323085 0.32801366 -0.049901627
-0.44015446 -0.14667942 0.8652213 0.055248372 0.6316087 -0.6943488 -0.66690207 0.9294539
0.3860466 -0.18063529 0.051533893 -0.3800293 0.15702349 0.0046032 0.118054084 -0.2877265
-0.27027044 0.2073084 -0.06930178 -0.24797739 0.26153228 -0.25541902 -0.09280944 -0.07659676
-0.047564097 0.8817147 0.3736623 -0.88979864 -1.3338147 -0.9977421 -0.2521358 0.016099606
0.11387364 -0.42132553 0.3369157 -0.42686784 -0.27338585 0.7863034 -0.35896474 -0.72232777
-0.5557862 -0.0008538783 -0.5952294 -0.40247828 -0.18351074 0.5773312 -0.20703894 -0.66672254
0.66804844 -0.40669337 -0.14880271 0.34491602 -0.6717466 0.48535296 -0.22504748 -0.7511665
-0.14363135 -1.1114378 -0.86199737 0.9390294 0.5544451 -0.5915925 0.87940055 0.2865873
-0.5647779 0.11630894 0.4993254 -0.73544997 0.09732396 -0.8496402 0.28483462 0.5401123
0.6723255 -0.6058799 -0.84655976 0.072268344 0.6632216 0.4810461 0.39995736 0.43885422
0.35437354 0.040746294 0.23783441 0.25345966 -0.07116466 -0.29546082 0.278017 0.06808771
-0.921825 0.8320623 0.5855187 -0.1058808 -1.1629838 -1.0382915 -0.046826713 0.11031326
-0.8068834 -1.0862142 1.0863631 -0.38146824 0.626161 -0.5730448 -0.6804272 0.501851
0.25257316 0.1477495 -0.34473324 -0.46480647 -0.82179534 -0.27784863 0.5899891 0.22102675
-0.52926767 -1.123263 1.0833498 -0.288969 0.46492174 0.058517896 -0.45338684 0.910196
-0.6909719 0.6514386 0.23391713 -0.35171875 -0.5739696 -0.57855 0.28123504 -0.4683624
0.30819267 -0.024991836 -0.24536908 0.010797353 -0.51716655 0.4657905 -0.19155262 -0.8469947
-0.6955632 0.5951508 0.31290945 -0.10173828 -0.17538348 -0.64108866 0.52990234 0.18970144
-0.2830693 -0.73953784 0.8893535 0.07406213 0.64211816 -0.9045523 -0.40212637 0.73010916
-0.595265 0.3188078 -0.18738115 0.36481798 -0.22917172 0.1718528 0.46628922 -0.6466177
0.16938911 0.89082474 -0.16167924 0.5667945 -0.4771389 0.1948693 0.8661385 -0.79417664
-1.2587869 0.5625707 0.7637916 0.59676296 -0.17318219 0.249423 0.19688192 0.36240366
0.13896826 0.46037537 0.41773465 0.36123347 0.16755491 -0.78926975 -0.15642971 0.11040679
-0.24289146 -0.041188255 -0.35450795 0.5939575 -0.051681057 0.36317435 0.6449372 -0.8131203
0.6514558 0.6521737 -0.9931381 1.0645138 -0.83265185 0.6650772 0.36898413 -0.4592484

hidden_layer1/MatMul f4 [16, 16]
00000000: 11d9 803e cd19 a7be a124 893e 0b65 cebe
00000010: 646f 48be 74a4 44be ba9e 8a3e d2c2 edbd
00000020: b0a6 9a3d 993e aebe 7589 65be 8825 a5be
00000030: cb14 f6bd 7241 6abe abea 07be bf9e bebe
00000040: 34fb 5fbd 6290 87be e00c 9fbe 66f3 9b3e
00000050: ea5f b4be 1c81 87be c792 1bbd f413 823e
00000060: ffd4 373e e72a a3be c2c7 22be 5326 a73e
00000070: 950e 173f cd74 e5bd 30ab df3e 1c6b a3be
00000080: 5fb6 4fbe 0cba b0be eaf8 883e 55ab 53be
00000090: d971 913e 4d6b ab3d bd5c 843e 11c1 fe3d
000000a0: 1da8 91bd 631e 72be 1197 a0bc 5e37 34be
000000b0: d049 023e 2a05 50bd 7d5e 023e 0b76 a2be
000000c0: 5153 213f 7db0 94be 5b84 353f 2ef7 8cbe
000000d0: 9564 563e c750 06bf 4517 1c3f 8c87 dbbe
000000e0: a748 063f 04d9 2dbf accb 4fbe b236 f5be
000000f0: c5b0 413e 97fc c63e be91 a3bc ffe6 0f3f
00000100: f57d bf3d ec72 5e3e 40c1 c83e 6122 bb3d
00000110: c7fd 93be 009d adbe cf70 38be cebb c43e
00000120: 32a3 b73e 7fe8 86be 3806 9abe 906e 893e
00000130: 5a50 6d3e 7fdc b4be ba3b e7be 1435 e3ba
00000140: 98a7 48bd aec6 293f faa9 5e3e 04ee 8f3f
00000150: 81d1 aabc debc 0ebf a42e dfbd 4f04 253e
00000160: 6a23 9ebe 84df 013f b26c 9fbd 7df7 43bd
00000170: bf57 423f 278c d03e 02ab c13f 05a8 babd
00000180: 17cc a43e a6d4 0d3f 5a73 173f 5c59 38bf
00000190: b3ac d43c d6c2 bb3e b7d8 663f 691f 31bf
000001a0: a3ab 853d e1ab fb3a 580a 0f3e fd8b 19bd
000001b0: 4ec0 10bd 22fe 133f f162 32bd 647e 123f
000001c0: 72d6 a63e 98ff 5a3f 31da 1abd d802 8f3e
000001d0: e4ff 66be 43de bb3e 03fe 92be bfb9 5ebe
000001e0: a4e3 30bf 6969 8e3f 2c54 2e3f 884e 9bbe
000001f0: e710 4f3f e8ba 2dbf b082 82bd 9c9f 56bf
00000200: 3cc8 003f c695 c73e 371f 723f 21a6 973e
00000210: 507b a93e 9f3a b4be 7ea1 a93e 7699 35be
00000220: df02 913e a43e a2be fdd2 0abf 2833 64be
00000230: 95ce a3be 7895 593e 4b10 dd3d 0cbf 5c3f
00000240: efe6 29bf 0f94 493e 41ea 1dbf 3183 30bd
00000250: bec9 033e 46fa 973f de64 f73e ada0 f8be
00000260: deba 1abf 7985 153f 620d bcbe ba14 913f
00000270: 2fd4 23be 7e4e d03e a11b 61bb 7160 d3bc
00000280: ba6c 6dbe 07d8 353f d6bc 283e 998b 7d3f
00000290: beb3 b63d 8aef 903e 2c1e 12bf fb2c cd3e
000002a0: 8abd d5be 0968 8f3f ce41 483f 811c ebbe
000002b0: 6b8a 0e3f 89c5 0cbf 2cac 8fbe 2a76 40bf
000002c0: d470 523f ffb9 c93e 2eb3 d9bd d015 823d
000002d0: 789e cebe 87fb d9be f903 0abe 3a94 f43f
000002e0: 5c40 903f 9313 d23d ee95 593e cc88 8abf
000002f0: c1a5 b43e 0522 d63d 4446 2abd 78ff 6bbe
00000300: 371a 843d f46b 883e 69a8 94bb ec18 acbd
00000310: 35ed 85be 2c45 763d 3818 f23e c42f 65bd
00000320: ffe4 023e b34d 70be a518 a8bd 7332 f73e
00000330: 6d17 75be 121b 17be 7fcf 973d 01a2 45be
00000340: 9da8 dcbd 6325 8ebe 2893 06be a98d aa3e
00000350: 5b37 403e e6d7 5cbd 606b c7bd c2bd a9be
00000360: 2b5a 623e 177b 0abe c525 34bd 7dce 3ebe
00000370: 1d39 b5bc 333c 403e db68 bb3e 33a5 4dbc
00000380: 88d0 b1bc 10b8 6c3e 31ca 7f3f b42a 463f
00000390: 40c5 263e 4492 1cbe d2d3 263e bb38 d1bc
000003a0: ab2d 85bb 88e0 65be 03a1 33bf 3d8a 42bc
000003b0: 3ef5 a73e b3ed 633f 0527 8e3e bbe4 823f
000003c0: 4e62 c43d 73ec b73e a069 d9be 25cd 163f
000003d0: 7404 193e 7975 173f 16d1 1dbf 499a cebe
000003e0: 3ae9 f6be ce41 b53f a46a 6d3f 67b0 0f3e
000003f0: 55e0 803f 346e 59bf 48b6 82bd 4952 64bf
0.2516561 -0.32636872 0.26785758 -0.40311465 -0.19573742 -0.19203359 0.27074224 -0.11609425
0.07551324 -0.34032133 -0.22415717 -0.32255197 -0.12015685 -0.22876528 -0.13273112 -0.3723049
-0.054682925 -0.26477343 -0.3106451 0.30459136 -0.35229427 -0.2646569 -0.037981775 0.25405848
0.17952345 -0.3186867 -0.15896514 0.32646427 0.59006625 -0.112039186 0.43685293 -0.31917655
-0.20284413 -0.34516943 0.26752406 -0.20670827 0.2840717 0.083700754 0.25852004 0.12439168
-0.07112143 -0.23644404 -0.019603284 -0.17599246 0.1272347 -0.050786175 0.12731357 -0.31730685
0.63017756 -0.290409 0.70905083 -0.27532333 0.20936806 -0.52467006 0.60973006 -0.42876852
0.5245461 -0.67909265 -0.20292538 -0.47893292 0.18915088 0.38864586 -0.019966956 0.5621185
0.09350196 0.21723527 0.39209938 0.09137417 -0.28904554 -0.33908844 -0.18011783 0.38424534
0.35866696 -0.26349255 -0.3008287 0.26842165 0.23175183 -0.35324475 -0.45162755 -0.0017334544
-0.048987955 0.66318786 0.21744528 1.1244512 -0.020851852 -0.5575694 -0.10897568 0.16114925
-0.30886394 0.5073168 -0.07784404 -0.047843445 0.7591514 0.40731928 1.5130312 -0.091140784
0.32186958 0.554026 0.5916039 -0.7201135 0.025961256 0.36672086 0.9017443 -0.69188553
0.06526878 0.0019201004 0.1396879 -0.03748702 -0.035339646 0.5780965 -0.04355139 0.57224107
0.32585484 0.85546255 -0.03780574 0.27931857 -0.22558552 0.3669301 -0.2870942 -0.21750544
-0.6909735 1.1125919 0.68097186 -0.30333352 0.80885166 -0.6786332 -0.06372583 -0.83837295
0.50305533 0.38981456 0.9457888 0.29618934 0.33101892 -0.35200974 0.3313102 -0.17734322
0.28322503 -0.31688416 -0.5422819 -0.2228514 -0.31993547 0.21248424 0.10794123 0.86229014
-0.66368 0.19685386 -0.6168557 -0.043093864 0.12869927 1.1873252 0.48319143 -0.48560086
-0.60441387 0.5840679 -0.3672896 1.133445 -0.1599891 0.40684885 -0.0034348744 -0.025802823
-0.23186007 0.71032757 0.16478285 0.99041134 0.08921002 0.28307754 -0.5707729 0.4007338
-0.4174617 1.1203624 0.7822541 -0.45920184 0.5567996 -0.54988915 -0.28061044 -0.75180304
0.8220341 0.39399716 -0.10629879 0.06351817 -0.40355277 -0.42574713 -0.13478078 1.9107735
1.1269641 0.1025764 0.212486 -1.0822997 0.3528271 0.104557075 -0.041570917 -0.23046672
0.064503126 0.26644862 -0.0045366776 -0.08403191 -0.26157537 0.06012456 0.47284102 -0.055953756
0.12782668 -0.2346714 -0.082078256 0.48280677 -0.23934717 -0.1475642 0.074126236 -0.19300081
-0.10774348 -0.277629 -0.13142073 0.33311203 0.18771116 -0.053916834 -0.09737277 -0.33152586
0.22104709 -0.13523518 -0.043981332 -0.18633457 -0.02212196 0.18772964 0.36603436 -0.012551594
-0.02170588 0.2311709 0.99917895 0.7740891 0.16286182 -0.15290171 0.1629174 -0.025539747
-0.004064282 -0.22448933 -0.7016756 -0.011873779 0.32804292 0.89034575 0.27764145 1.0226053
0.09589063 0.35922584 -0.42463398 0.58906776 0.14943105 0.59163624 -0.61647165 -0.40352085
-0.48224813 1.4160707 0.92740846 0.14032136 1.0068461 -0.8493378 -0.06382424 -0.8918806

Tensordot/MatMul f4 [3953, 16]
00000000: 0df3 dbbe 6451 45be f175 c5bd bd10 ef3d
00000010: e327 953d 4496 c0bc b153 00be 601a 64bd
00000020: 42ae 1b3e b42b bebe ca7d c13c 3804 45be
00000030: 482d d13d c3a6 4e3e 4429 3e3e c1ad f9bc
00000040: 7fac 343e 6195 72b9 bd30 933e 98be 553e
00000050: beca 00be bc62 e83d 68dd afbd d034 83bd
00000060: 431d 173e 7d42 49be b1f4 4ebe fe2c 61bd
00000070: 646a e9be 1c42 773e 3bec cd3e 2f51 2c3c
00000080: 30f5 8abe ea13 bcbe 8eb3 e6be 5586 b9be
00000090: 0393 373e 205c ef3e 7ba3 99bd 34a0 d1bc
000000a0: f117 febd 882c 443e 537d d03d 8032 d4be
000000b0: 5b98 f43d d912 f63d f5a1 ea3d f284 e83d
000000c0: 7525 fdbd d813 c7be 4a39 d6be 9284 53be
000000d0: 3a4e c2be 68da a3bb fedd 14be 79dc 0c3e
000000e0: 6367 fa3d a7a0 d8bb e6f3 da3e 8890 a7bd
000000f0: 9e10 9cbe 0cdb eb3e 84c4 0cbf 58f3 943d
00000100: a0a1 4d3e 7f15 d4bd ac3a ac3e 0219 adbe
00000110: 804f f1bc e1a0 5b3e c3f0 fcbd 101f ae3d
00000120: 16f8 b73d 4107 29be 12e8 003f 6105 48be
00000130: c49e 373e 7d53 49be 47cd 84be 9a65 2bbb
00000140: 0b80 733d 7866 f6bd 15a7 e03d 6fc1 bcbd
00000150: 091b edbe 6c66 0f3e b3a9 a9bd 4a79 d83e
00000160: b9ff 08be 47cd 9cbe 2e52 343e 749c 85be
00000170: 771d ba3b 0324 75be 4a5a bbbe f4d9 4a3e
00000180: d7de dcbe 8158 853b baf3 493d a03b 50bd
00000190: a8f5 cc3b 12bb e0be 5f1c 523e 8e73 42be
000001a0: 6505 6abd a9b3 b93e d843 7a3c 01e8 54bd
000001b0: d27e 80be d60b 3f3d 9e64 823e 67e1 17be
000001c0: c7d9 5cbc 5c02 0fbe 6249 a2bc 4d5f 17be
000001d0: 2f2b c8ba c93f 94bd 8595 dbbe 9687 493e
000001e0: 2ee8 cbbe 5faa eabe 34f2 933d 68ea fc3d
000001f0: c6aa 47bd 6bba 4c3e a14c ecbd 143c c03e
00000200: 4378 253d 0056 dfbd 7dff 97be bac9 8a3e
00000210: 07ee 8ebd 750c 923c 71f5 9cbe 5c0f 2e3e
00000220: a93d c7bd a6a6 a73e ca7a 0d3d 644d cbbd
00000230: e6d6 57bc b4d4 4fbe 62e5 a43e 725e 2d3b
00000240: c9de 8f3e 1824 ba3d c2b5 303d 3073 c4be
00000250: 4569 53be 8d48 bf3e fa87 70be 5f6a f23e
00000260: b3e4 21bd 2f41 373d 6f9e cb3c 73e2 2ebe
00000270: e8aa b93e c7b0 e3bc 7af5 b63d 1f0d 08bd
00000280: b616 cb3d 5acc 1d3e 2fa1 d53d d8de e23d
00000290: d7ce 6cbe 0c00 da3d 5ca3 6d3c e7d3 e03c
000002a0: f7db e3be 26e9 883e 230d 5f3d 93ad 0abf
000002b0: ce84 0b3e e2f4 c8be 6e99 dfbd fdf8 933e
000002c0: a5f3 05be bb07 a1bb 69cb 85bd 7e97 6abd
000002d0: 2961 ea3d f2e9 9dbe 191a 633b c3d1 58be
000002e0: cc8a f03d 84c8 d5be b822 783b e0b2 e73e
000002f0: 86de 133a 9661 c2bd a744 1cbf 52e5 083e
00000300: a4a8 22be e1fe dabc 1c26 a6be ca3e 12bf
00000310: dfd4 833d dd02 b93c 97c2 303d 8ab7 77be
00000320: 5c48 603c 1eb7 3b3e eef8 83bd 4c02 433e
00000330: f686 cfbe 89f2 16be 8cb1 333d fbab 5e3e
00000340: 2a58 8b3e 0818 233d b12e 4fbe ec0e aebd
00000350: 17e1 5dbe 393c d83d 57f5 823e 3ac9 b6bd
00000360: 56af 8ebe f306 e23c 4d8f 603e 6f41 323e
00000370: fe21 4ebe 39c3 023e 42e4 3b3d 1d30 54be
00000380: 18a8 b1bd b7fb ef3d d496 3dbe 213c 0cbe
00000390: 9434 723e cacc f1bc 2e07 813e 8d79 82be
000003a0: 6aa8 24bf fab5 6fbd 0caa 0e3f 4cdf 283e
000003b0: 2f5e e7bd 69c5 b83c abb8 833d 8ceb 1dbe
000003c0: cef8 243e 96e7 2f3d bb7d 12be ef82 b5bd
000003d0: f628 9ebd 26b2 ae3e 4eae c1bd 61d1 8fbe
000003e0: c19a babe 1561 383e b7b2 193e 68b8 97ba
000003f0: 8198 cc3e 2353 c3be 3634 bf3d d6f6 0b3e
-0.4295887 -0.1926933 -0.09641636 0.116731144 0.072829984 -0.023509152 -0.12531926 -0.055689216
0.15203193 -0.37142718 0.023619551 -0.1923989 0.10213715 0.20180802 0.18570429 -0.03047836
0.17643927 -0.00023134566 0.28748122 0.20873487 -0.1257734 0.11346957 -0.08587152 -0.064065576
0.14757256 -0.1965427 -0.2021053 -0.05497455 -0.45588982 0.24146312 0.40219292 0.010517403
-0.27140188 -0.36733943 -0.45058864 -0.362353 0.17927174 0.46749973 -0.075018845 -0.025589086
-0.1240691 0.19157612 0.10180154 -0.41444778 0.11943122 0.12015314 0.11456672 0.11353482
-0.1236066 -0.38882327 -0.41840583 -0.2065604 -0.37950307 -0.0050004013 -0.14537808 0.13755979
0.12226751 -0.006610948 0.42764205 -0.08181864 -0.30481428 0.46065557 -0.5498736 0.07272977
0.20081186 -0.103556626 0.33638513 -0.33808142 -0.029456854 0.21448089 -0.12350609 0.085020185
0.089828655 -0.16506673 0.5035411 -0.19533302 0.17931658 -0.19660755 -0.25937864 -0.0026153089
0.059448283 -0.12031263 0.10969368 -0.09216582 -0.4630969 0.14003915 -0.08284321 0.42280036
-0.133788 -0.30625364 0.17609474 -0.26095927 0.005679782 -0.23939519 -0.36592323 0.19809705
-0.43138763 0.0040693884 0.0493047 -0.050838113 0.0062548704 -0.43892723 0.20518635 -0.18989393
-0.05713405 0.36269882 0.015274964 -0.05197907 -0.25096756 0.046642147 0.2546739 -0.14832078
-0.013479657 -0.13965744 -0.019810382 -0.14782448 -0.0015271659 -0.072387286 -0.42887512 0.19680628
-0.39825577 -0.45833108 0.07223931 0.12349397 -0.048746847 0.19992988 -0.11538053 0.37545836
0.040397894 -0.10905075 -0.2968711 0.2710703 -0.06978994 0.017828206 -0.30656007 0.16998047
-0.097285576 0.3274433 0.03454093 -0.099268705 -0.013173794 -0.20295984 0.32206255 0.0026454
0.2809966 0.090889156 0.043142088 -0.3836913 -0.20645626 0.3736004 -0.23489371 0.4734678
-0.039524745 0.0447399 0.02485582 -0.17078571 0.36263204 -0.027794255 0.0893354 -0.03321564
0.09916441 0.15409985 0.10431134 0.1107766 -0.23125778 0.1064454 0.01450428 0.027444793
-0.44503757 0.26740378 0.054455888 -0.54171103 0.1362488 -0.3924933 -0.10917936 0.289009
-0.13081224 -0.0049142516 -0.06532938 -0.05727338 0.11444313 -0.3084255 0.0034653007 -0.21173768
0.117452234 -0.41754544 0.003786249 0.45253658 0.00056407636 -0.09491269 -0.61042255 0.13368729
-0.15884644 -0.026732864 -0.3245095 -0.5712706 0.06437086 0.022584373 0.043154325 -0.24191108
0.013689127 0.18331572 -0.06443964 0.19043845 -0.40532655 -0.14740957 0.043870494 0.21745293
0.272157 0.03981784 -0.20232655 -0.0849894 -0.21667896 0.105583616 0.25577804 -0.089251
-0.27868146 0.027591204 0.21929665 0.17407773 -0.20130154 0.12769784 0.04587198 -0.20721479
-0.086746395 0.11717933 -0.18514568 -0.13694812 0.2365287 -0.029516596 0.2520079 -0.2548336
-0.6431948 -0.058523156 0.5572822 0.16491431 -0.11297261 0.02255507 0.06431707 -0.15421885
0.16110536 0.042945467 -0.14305775 -0.08862864 -0.077226564 0.3412029 -0.09457074 -0.2808943
-0.36446193 0.18005784 0.1500958 -0.0011575343 0.399601 -0.38149366 0.0933613 0.13668379
