lite/examples/recommendation/android/app/src/main/assets/recommendation_rnn_i10o100.tflite (tflite, 521496 bytes, 18 tensors)

context_encoder_1/item_embedding_context/embeddings f4 [3953, 16]
00000000: 1b9a 1e3e 14a0 45be fb5b c6bd 97a0 533e
00000010: 79aa 0bbe 2b76 153e bdfe 0d3e c944 143d
00000020: 813d a2bd 4221 56be 627f 833c ef5b 313c
00000030: 0a9d 4d3d 230b 723e b843 a1bd 2233 c8bd
00000040: f306 93bc ed79 893d fe4a fbbc 4747 b2be
00000050: 5c14 af3b c85d 5c3e 9d4f e23d 2ea3 c5bd
00000060: c8a9 f3be 061b 923e fa2a a03e 70e6 a23e
00000070: 5a06 8cbe 563e b5bd 0acd ba3e da55 e73e
00000080: cdf8 a8be 496c 833b c2af 2e3c cbd3 8f3e
00000090: cdb6 293e 1877 b1be 5f19 0b3e e4f0 083e
000000a0: d9df 16be f8f3 8b3d 385c 1b3b eb4f 33bf
000000b0: 8da2 57be e887 873e 7cf7 e43e b77e fd3b
000000c0: f0f3 60be ef2d 9c3e 8341 eb3d b857 e6bb
000000d0: 9cdc 463e 5429 213e 80e2 463d ffdc 0e3e
000000e0: b9b1 c8bd b011 fe3c 105e 53be be93 2e3e
000000f0: 9d6e 8fbd 24fd eb3e 67e9 0c3d 11d7 7abd
00000100: a33e a3bc 03df 573e 7ed1 b93e 3c0c 1b3d
00000110: e110 d9bc 4013 ca3d 2801 cbbd 40f5 7ebe
00000120: 9d62 b2be e75c 793d d88e f4bc a47c 07be
00000130: 2f3d 5fbc 6bc3 a9bd e906 d6bd 9580 3cbe
00000140: 195e 36be 6995 f5bc 45b2 933e ed5d 033f
00000150: ab0f a73d 175c 0a3e 5295 01be 1696 1bbf
00000160: 4e50 8bbe bda5 dd3d 47a8 9bbd 47f9 873c
00000170: 2f9e 413d 1042 db3e 5caf 08be 5e0e 643e
00000180: f581 083f 6cc7 31bb ad5e 95be 0688 b93e
00000190: d71d 5d3e d870 bfbe c921 9fbe 4012 fd3d
000001a0: 388a 733e d1f8 ee3e d2b5 bbbe 384f 1a3e
000001b0: 22e2 d7bd 02cb 1fbe 221c ce3e 3efa ba3e
000001c0: 047d 0f3d 5eb7 3ebe 9615 3e3e f1c7 543d
000001d0: 1092 123e 120f e9bc 5e98 943d 8b55 253e
000001e0: c926 cbbc e30a 323c cb82 02be 0e9a 53be
000001f0: 6f0a 5dbe 9022 2dbd 6490 afbe abab 4c3d
00000200: e4e5 73be df3a 97bd fe7a 32be b935 5cbe
00000210: b5ff 653c 075b f0bd a81d 32be 9daa a23d
00000220: 7a52 f93d 539e cb3d 35c9 aebe e0f9 533e
00000230: 2489 aa3d c574 913e 76f2 323e 30dd 0abe
00000240: 85d2 70be 9b3b 9fbd f0c2 8e3d d340 9d3e
00000250: 64ac f7bd 33c8 05be 3676 2dbd 0dfb 883e
00000260: 0d26 eebd 53cc 37be 480c 25be e1f7 0f3b
00000270: 6240 25be dafc 043e 7ee0 bcbc 2cfe 07bd
00000280: 1638 e23e 57f1 0bbe f20b 3fbe 8998 acbe
00000290: 0e90 1c3f 9375 92be 6be9 1ebd 31a4 f63d
000002a0: 65ef 70bd 08bb 533c 8156 83be 7f26 25bd
000002b0: 7b18 013e aa30 eb3c 86b4 0f3e 10ed 74be
000002c0: 9005 38be 6312 40be 8f43 11bd 8180 053e
000002d0: 1e2f e33c b7cb 013c 38dd 24bf 3ee7 f1be
000002e0: 7b0d abbe cb99 e33e ee9b d7be 736e e4be
000002f0: 8189 abbc 6111 0a3e c55b 7f3d 6b4a 9bbc
00000300: 35ea e5bd 78f2 df3e 7f79 15be 93a9 34be
00000310: 13be 8f3e 9615 473e 853d 1d3d 23c3 6c3e
00000320: c09f e7bd a081 4e3e 32fd aebd 1cc8 783d
00000330: 3199 483e d912 593e 5e68 38bd 5569 b73e
00000340: ead4 e43c 719c 26be e7c2 f33d 2e92 b43e
00000350: da64 f83d fa4a 6cbc 194a 2a3e d7e6 783e
00000360: f23a d9be 97d2 833d c988 ac3e d269 633d
00000370: 1b2f e3be 8310 9abe 7f02 d83c e241 2f3e
00000380: e966 a23b 65bd 2cbe deb3 443e c076 d2be
00000390: 8077 833e 8723 ffbd e8d7 8d3e df53 8bbd
000003a0: 9699 01bd 5c1f 7d3e 042a 513e e0c7 37be
000003b0: a29a bd3d 6341 21be a8c7 003e bcee 22bd
000003c0: e93d fa3c e027 c93e f652 f33d 7df9 09be
000003d0: 8c91 803d eb59 303e c3e2 983e 8d6f 173e
000003e0: bfea f53d 1dde 7dbe c23a 5ebd 2d88 693e
000003f0: 1c14 08be 9354 f9bb 79ae d73d d0cf 69be
0.15488474 -0.19299346 -0.09685513 0.20666729 -0.13639249 0.14595859 0.13866706 0.03619841
-0.07921887 -0.20911124 0.016051952 0.010825141 0.050198592 0.23637061 -0.078742445 -0.09775378
-0.01794765 0.067127086 -0.030675407 -0.34820005 0.005343003 0.2152015 0.11050341 -0.09650265
-0.4759047 0.28536242 0.3128279 0.31816435 -0.27348596 -0.0884978 0.36484557 0.45182687
-0.3300232 0.0040107113 0.010662021 0.28091273 0.16573639 -0.34661174 0.13583897 0.13373142
-0.14733829 0.06833643 0.002370609 -0.7004382 -0.21058102 0.26470876 0.44720066 0.007736053
-0.21968055 0.30503795 0.11487105 -0.0070295 0.19420093 0.15738422 0.04855585 0.13951491
-0.09799523 0.031014293 -0.20641351 0.17048547 -0.0700352 0.46091568 0.034402277 -0.06124026
-0.019927328 0.21081166 0.36292642 0.037853464 -0.026497306 0.09866953 -0.0991233 -0.24898243
-0.3484086 0.060879614 -0.02985327 -0.1323114 -0.013625427 -0.08289226 -0.10450537 -0.18408425
-0.17809333 -0.02997847 0.28846946 0.51315194 0.08157285 0.13511692 -0.12654617 -0.6077589
-0.27209705 0.10822628 -0.07600456 0.016598357 0.047269996 0.4282384 -0.13348144 0.22271106
0.533233 -0.0027126921 -0.29173794 0.3623659 0.21593414 -0.3739078 -0.31080464 0.123569965
0.23783195 0.46674207 -0.36662155 0.15069282 -0.10541178 -0.15604785 0.4025584 0.36519045
0.035031334 -0.18624637 0.18562922 0.05194849 0.14313531 -0.028449569 0.07255624 0.16145913
-0.024798768 0.010866853 -0.12745206 -0.20664236 -0.21586011 -0.04226929 -0.3428985 0.049968403
-0.23818165 -0.07384276 -0.1742973 -0.21504869 0.014038016 -0.11736112 -0.17394125 0.07942698
0.12173934 0.09942307 -0.34137884 0.20700788 0.08326939 0.284094 0.17475304 -0.13560939
-0.23517807 -0.07775041 0.06970775 0.3071352 -0.12093428 -0.13064651 -0.042349063 0.26754037
-0.11628351 -0.17949037 -0.16117966 0.0021967816 -0.16137841 0.1298708 -0.023056265 -0.03320138
0.44183415 -0.13666283 -0.186569 -0.33710125 0.6115731 -0.28605327 -0.038796823 0.12043036
-0.058822054 0.01292301 -0.25651935 -0.040319916 0.12606995 0.028709728 0.14033708 -0.23918557
-0.17970872 -0.18757014 -0.03546482 0.13037302 0.027732428 0.007922105 -0.64400053 -0.47246736
-0.33408722 0.44453272 -0.42111152 -0.44615516 -0.02093959 0.13483192 0.062343378 -0.018956384
-0.11226312 0.43739676 -0.14597128 -0.17642812 0.28074703 0.19441828 0.038388748 0.23121314
-0.11309767 0.20166636 -0.08544387 0.060737714 0.19589688 0.21198596 -0.045021407 0.3582255
0.027933557 -0.16270615 0.11902409 0.35267776 0.12128611 -0.014422173 0.16629829 0.24306808
-0.42427784 0.06436651 0.3369811 0.05552084 -0.44371876 -0.30090722 0.026368378 0.17114976
0.0049561155 -0.16869123 0.19209239 -0.41106224 0.2567711 -0.12457948 0.27703786 -0.068031065
-0.03164061 0.24718994 0.20426184 -0.1794734 0.092580095 -0.157476 0.12576163 -0.039778456
0.0305471 0.39288235 0.11881058 -0.13474078 0.06277761 0.17221801 0.29860505 0.14788647
0.12007665 -0.2479176 -0.054255255 0.22805853 -0.13288921 -0.007608959 0.10531325 -0.2283318

context_encoder_1/hidden_layer1/bias f4 [16]
00000000: 80a2 213e ea5d 0b3e 0b1d b1bd 07f4 8a3d
00000010: 62e7 e6bd 6d83 c53d c710 0ebd 7405 1b3d
00000020: b5ff 82ba 9db5 03be e3cb 8c3e 66ce 3ebd
00000030: ab6c e23d 17ce a23d 9c8a fe3e 5872 b13d
0.15784645 0.13610044 -0.08648118 0.06784826 -0.112746015 0.09644208 -0.03468397 0.037846997
-0.000999442 -0.12862249 0.27499303 -0.046583556 0.11055883 0.07949465 0.49715126 0.086643875

context_encoder_1/hidden_layer0/bias f4 [16]
00000000: 4fc6 863e ad9f 90be c2a0 7f3e 3c26 1d3e
00000010: 673c 123e 0653 873e 0513 ef3d 1859 8c3e
00000020: c8d6 1fbf 0e09 c9be 0741 1a3f e41f 12bf
00000030: 4cc5 cd3d 0342 283e bab9 893e 2fe7 3c3e
0.26323172 -0.28246823 0.24963668 0.15346617 0.14280854 0.2643053 0.116735496 0.27411723
-0.62437105 -0.3926472 0.60255474 -0.5707991 0.10047397 0.16431431 0.2689951 0.18447565

std.constant3 f4 [16, 16]
00000000: e576 b4bd 3ea2 d43c 4cc0 debe 512a 01bd
00000010: f408 2bbe e8fc 253d c3b7 de3d 6d31 383e
00000020: 6ce6 b4be 1f00 843e a5dc 8f3e a3c3 adbe
00000030: c4dd a9be d65a aabc c541 12be c857 35be
00000040: c944 35bf 4018 e63e a711 02bf fc0d 95bd
00000050: c266 653d f964 843b c83f d13d bd56 b2bd
00000060: b313 39be 606a a3bc e4dc c43e f7b8 2cbe
00000070: 50a8 d1be 2472 0ebf fd46 a2bb b2d4 923b
00000080: 7c89 8ebe 0728 d03e 0f1c 23be c7bc 2fbe
00000090: ef30 643e 5a81 b6be 4de0 e6be cfd5 d4bc
000000a0: a072 b3be 9eb3 9c3d 91cb 9d3e 5979 09be
000000b0: c27f 35be f93d 1dbe 2544 c2bd 7ab7 733e
000000c0: 554e 8c3e d22d b43d c633 6a3e efd6 483e
000000d0: 5d9b e5be 42b4 6dbf 89b6 f4be 47e2 99be
000000e0: 945e 9f3e c2e2 963e 229b 3dbe 5798 8cbe
000000f0: 6cad 4f3e f3c3 093e 84cd ad3d e36a 133f
00000100: abf4 14be e9cf 47bc a651 3dbe 3d5a 4f3e
00000110: 5d27 303f 58b9 a53c 541d 8bbe 4e31 bc3e
00000120: f001 96be 738e debe 161d 32be f56f 033d
00000130: e6a2 46be a2aa cabe c68d adbe 5066 3d3e
00000140: 2b38 18bf 3f3c 1d3f f2d0 4ebf 8e07 53be
00000150: b332 953e bc82 8bbe c039 14bf 9c7a f8be
00000160: 6355 08bf 8ba4 093e e8b3 95bd b908 4fbf
00000170: be84 1b3e cf97 993e 2617 75be 3d3f f1bd
00000180: c827 ddbe 9d9a 823f 150c 68bf 0b47 3ebe
00000190: 3e53 4ebe 4d38 a9bd 09f0 8b3d 8f09 50bf
000001a0: 7e43 6cbf 096d cebe a1a8 c03e fb24 4bbf
000001b0: f23e f03e ad31 273d ebbb 0d3d ce50 68be
000001c0: b1dd 4dbd 5ca3 823e 56fd 9ebe a6f4 20be
000001d0: 84be d3be af99 f0be 02fe 68bf e4e4 22bf
000001e0: 3fa4 25be 8492 52be eeee ccbd 557f 84be
000001f0: 326e 893e 3f73 afbd 6fde 65bc 0944 993e
00000200: 7fc9 41be 14ce 073f 135e 45bf 256e 9c3e
00000210: 8608 e8be 604b 55bf f44d 9cbe 0aab d5be
00000220: 5843 303e be98 36be 66b3 75bf 15b8 58be
00000230: 16f1 9d3e b68b 1abd 4635 bcbd adbd 023f
00000240: 5ad9 4fbf cd2b d03e 1382 0fbf 2512 ca3d
00000250: afe5 9c3e ea8a 6cbf b79e 48bf 9032 44bf
00000260: 85f4 793e 648b c0be d514 2a3d 00c6 45be
00000270: 850b 503d 596f 65be 716e e93c 97e9 8c3f
00000280: fb71 37bf 0666 f63e 3d92 fdbe a380 5abe
00000290: c12e 083e 2631 b0be 3a44 b3be 4acf a9bb
000002a0: 804b 1dbd 10ac c33c a24b 71be 4f0d cdbe
000002b0: 3d77 14be d41f dfbd f8a5 ddbe 86bf 533e
000002c0: 8a7d f6be a570 3e3d 52df aabe ac65 6a3e
000002d0: 07f4 643e d9c0 433e 72d0 5bbe b522 863c
000002e0: cd99 62bd b4e2 a7bd 07f0 8bbd bea0 afbe
000002f0: b991 10be adaf 7abe 6043 c13e 9027 af3e
00000300: 0ffe 22bf e274 433f 2d7e 1bbf ca28 d6be
00000310: 7b48 f73e 2dce 05bf 6267 b7be eb8d 92bd
00000320: b626 d9be f9df 82be cba1 0e3e fa7a efbe
00000330: 5598 a43d ce95 b13c 391a 26be 5f36 063f
00000340: 01ee 41bf 8d77 263f ed46 d6be b0b1 0ebf
00000350: 65b9 6b3f 78af 84be 539a 0ebf 3c85 8f3e
00000360: f0c3 47bf a89c 35bf 6513 263f fb3a bdbe
00000370: 9715 96be 7456 2fbf 425a b6bc 441e ae3e
00000380: 40fd 06bf 8c11 a63e 04f7 a5be 3794 3bbe
00000390: 3605 983e 1d33 dbbe a959 b9be 8b53 07bf
000003a0: 723f 5cbe 9ccd 59be 5f72 023e 6704 b1be
000003b0: 60ce a3bc 4f68 813d b102 b0bd 462a d33e
000003c0: 384e 55bf ce76 5e3f 92bb 43bf 3ed8 96be
000003d0: 0a59 323e 571a 1ebf 0a44 17bf 79c7 e0be
000003e0: c046 32bf c126 783e 52e5 c33e bda9 3cbf
000003f0: c0ee 19bf 7824 853d c8dc abbe 723b 023f
-0.0881174 0.02595627 -0.43506086 -0.031534497 -0.16702634 0.040524393 0.108748935 0.17987604
-0.35332048 0.25781342 0.28098026 -0.3393832 -0.33177006 -0.020795267 -0.14282902 -0.17709267
-0.7080808 0.44940376 -0.50808185 -0.07278058 0.0560062 0.004040357 0.102172434 -0.0870795
-0.18073921 -0.019948184 0.38449776 -0.16867433 -0.40948725 -0.55642915 -0.00495231 0.0044809217
-0.27839267 0.40655538 -0.15928672 -0.17161857 0.22284292 -0.35645562 -0.45093003 -0.025980858
-0.3504839 0.07651447 0.3081937 -0.13425197 -0.17724517 -0.15355672 -0.09485654 0.2380046
0.27403513 0.08797802 0.22871312 0.1961324 -0.44845095 -0.92853177 -0.47795513 -0.30055448
0.31126845 0.29469877 -0.1851621 -0.27459976 0.20280999 0.13453655 0.084864646 0.5758497
-0.14546458 -0.012195566 -0.18488178 0.20249267 0.68810064 0.02022998 -0.27170813 0.36756366
-0.29298353 -0.43468055 -0.17393908 0.032089192 -0.19398078 -0.39583308 -0.33897227 0.1849606
-0.59460706 0.61420053 -0.80787575 -0.2060835 0.29140243 -0.2724818 -0.5790062 -0.48531044
-0.5325529 0.13441674 -0.07309705 -0.80872685 0.15187356 0.29998633 -0.23934612 -0.1177964
-0.43194413 1.0203434 -0.90643436 -0.18581788 -0.20148942 -0.08262692 0.068328924 -0.81264585
-0.92290485 -0.40317562 0.37628654 -0.793533 0.46923023 0.04081886 0.03460304 -0.22687075
-0.05026025 0.25515258 -0.31052655 -0.15718326 -0.4135629 -0.4699225 -0.91012585 -0.6363051
-0.16175936 -0.20563704 -0.1000651 -0.25878397 0.26841885 -0.08566903 -0.014030083 0.2993472
-0.18924521 0.53048825 -0.7709667 0.30552784 -0.45319003 -0.8331814 -0.30528224 -0.41732055
0.1721319 -0.17831704 -0.95976865 -0.21163972 0.30847996 -0.037730895 -0.091898486 0.5107067
-0.8119103 0.40658417 -0.5605785 0.09866742 0.30643985 -0.92399466 -0.7836718 -0.7663965
0.24409683 -0.37606347 0.041523773 -0.19313812 0.050792236 -0.22405757 0.028495045 1.1008786
-0.71658295 0.48124713 -0.49525633 -0.21338134 0.13299085 -0.34412497 -0.3501299 -0.0051821815
-0.03840208 0.023885757 -0.23564008 -0.40049216 -0.14498611 -0.108947426 -0.43290687 0.20678529
-0.48142654 0.046494145 -0.33373505 0.22890347 0.22358714 0.19116534 -0.21466234 0.016373971
-0.055322457 -0.08197537 -0.06832891 -0.34302324 -0.14118089 -0.24481077 0.37746716 0.3420987
-0.6366891 0.76350224 -0.60739404 -0.41827995 0.48297486 -0.52267724 -0.35821062 -0.07155975
-0.42412347 -0.25561503 0.13928907 -0.4677351 0.080368675 0.021677878 -0.1622094 0.52426714
-0.7575379 0.6502617 -0.41850987 -0.5573988 0.92079765 -0.25915122 -0.5570423 0.28031337
-0.7803335 -0.70942163 0.64873344 -0.3695906 -0.29313347 -0.6849129 -0.022259835 0.34007466
-0.5273018 0.32435262 -0.3241502 -0.18318258 0.29691476 -0.42812434 -0.36201218 -0.5286185
-0.21508577 -0.2126984 0.12738942 -0.3457367 -0.019995868 0.063187234 -0.08594263 0.4124319
-0.8332248 0.8690003 -0.76458085 -0.29461855 0.17416778 -0.6175894 -0.59088194 -0.43902186
-0.69639206 0.24233533 0.38260895 -0.736965 -0.6012993 0.065010965 -0.3356688 0.50871956

std.constant4 f4 [16, 16]
00000000: 64c6 b9be a7c8 723d 0de0 72be d35f 87bd
00000010: ed40 9fbe 5cf5 6cbc b5ea c43e 06e7 6e3e
00000020: 19e2 8cbe 0c95 b8be 9b58 21be 240a 9dbe
00000030: 8a79 7fbe b450 b43e 8b96 5fba c1d0 ecbd
00000040: 8932 d0be 5c74 903e c439 e5be 1b84 acbc
00000050: d914 6b3e 4a42 0e3d 7593 8a3e eb68 f8be
00000060: dbbe 76be dc44 8bbe dde2 87be 7e02 8bbe
00000070: 3b62 bbbc 0f79 bcbe fcee 053e df00 91be
00000080: 97eb 03bf cbd4 b73e 2c7b f1be 8255 b0bd
00000090: ace2 19be f213 94be 3c9d 1abd 8e14 1fbe
000000a0: 516e c1be aae2 7e3e c331 d83d 5cff 6ebd
000000b0: b9ae adbd ea5c 0abe 9ba1 bdbd 08f6 d43d
000000c0: bf0e e9bd ff60 863e 1371 0e3c 490e 8f3e
000000d0: b148 93be 87f3 6d3e baa1 e03e ed65 eebd
000000e0: 8d9f f83c 66e7 c93e 196e a0be 3005 ccbe
000000f0: 2643 b5be 7d5a 37bd 5a88 83be f47c 463e
00000100: 41e6 53be 239f 95bc 7cf2 abbc 18fd 9b3d
00000110: f932 f93e 7e67 0f3e b4f1 2f3e 4cc4 21be
00000120: 526d 67be ef28 ebbe 669e 103e cd48 30be
00000130: d83b 41bd 56e1 e0bd 2195 4abc 5760 b5bd
00000140: be84 7ebd 7f97 133e 003b a53d b0b0 24be
00000150: 2b3c 443d 03d1 a53c a074 bb3e 9021 2c3e
00000160: 2649 213f 8ac7 4c3e 2bf1 63be 15dc 98bd
00000170: d367 b7bd ca05 53be bdd4 0bbf 30a1 bcbe
00000180: 2e9d 01bd 9fe5 1a3e 84cf 8cbe e311 85bd
00000190: 2c2f c7bd 76f6 933d 1935 d53e 5373 953d
000001a0: 2f36 293f 5fb5 9a3e 3863 b13d e7bc f2bd
000001b0: 8cfd dabb 5738 d9be 2d3e 51be ec37 e8bd
000001c0: f45b 903d a3c5 66be de92 f33c d177 d0bb
000001d0: c0d6 25be 01c1 a9be cb55 b0bd 6811 cabe
000001e0: 1e24 f53c 4cbf 93be 8cab 1ebe ab5b 853e
000001f0: 94f7 9a3e 8dbe 72be baa4 3e3e 83f0 a3bd
00000200: 4786 a8be 7cd7 563e 6f43 c8bd 2206 a3bc
00000210: 8fbb 123d 945b c23e 2814 903e 1af8 4fbe
00000220: d06b 5b3e 04f2 073f 7193 cebe 6fbf 02bf
00000230: 80dc 47be 14f3 883e 4494 a4be 8ac5 82bd
00000240: 02dd a5bd 1ed0 253e fb2b b6be ca0a 5f3d
00000250: 978f 0c3f bf0e 093e 82da 843d e361 2e3e
00000260: 020d cdbb ae3a 80bc 3ad8 b3bc fac3 29be
00000270: 9e9f 98be 49c0 3ebe b71e c4bc ecfa 00be
00000280: 3ee6 85bd d42b 09bd 9c4d 74bd 314b 64be
00000290: d94d aebd b678 313d c4c4 233e 1bff d53d
000002a0: bd65 383f f65d 5f3e 5431 98be 3f4c 01be
000002b0: 8330 573e 166e 493e ad5b f1be 4be6 72be
000002c0: 287c 373e 7b77 c1bd 93ff e83d 43eb 633d
000002d0: a233 293d ba21 3c3e 5094 04be 29d8 ad3e
000002e0: 3205 a43e 7d72 993e dbf1 99be 4934 963c
000002f0: c866 d1bd 9e49 5d3e 1f49 cd3d d30d 6d3d
00000300: e8f1 4b3e 8da7 a3bd 1e5a a63d 9686 06be
00000310: 04dd b53c 7145 9ebd 2413 463e e033 cdbd
00000320: a596 1ebe 70ee a83d b644 8ebe 81b4 c5bd
00000330: eeab a03e 64ad 53bd 6cfc 84bd 0102 a2bd
00000340: c5c5 aa3d e6b2 183e 8ec5 6d3e 1058 0b3e
00000350: dfeb 533e 9590 e23e a78d 083d 93b3 123e
00000360: 540a 02be 8d00 3d3c df12 213e 35fc 96bc
00000370: 5bea eabe 61dc a3bd bf56 883e adb8 bebd
00000380: 8e7d 4c3d 2ff4 283e 8502 853d 288b 4b3e
00000390: 27ec 0c3e eae9 60bd 330f 173e cc55 e0bc
000003a0: 8497 723e bb81 783d 0f93 8abd 13ce ebbd
000003b0: 3d0a 023d b67d 583d 107d cbbd 7e68 18be
000003c0: 065d 89bd eb02 6b3d f97f 7c3d 7c44 fe3d
000003d0: 80a3 393e 5a6b 4a3e 7ac7 313f 06eb 1c3e
000003e0: dc97 febd 8170 0e3e e0e5 a7bd 3e63 1dbe
000003f0: ac52 653e 3548 43be 45a9 eb3c 2e26 55be
-0.36284173 0.05927339 -0.23718281 -0.06610074 -0.31104222 -0.014462795 0.38460317 0.23330316
-0.2751625 -0.36051214 -0.15756457 -0.306718 -0.24948707 0.35217822 -0.00085292076 -0.11563254
-0.40663555 0.28213775 -0.44770634 -0.021059087 0.22957171 0.034731187 0.27065626 -0.48517546
-0.24096243 -0.27200973 -0.2654027 -0.2715034 -0.022873988 -0.3681111 0.13079447 -0.28320977
-0.51531357 0.35904536 -0.47164285 -0.08610059 -0.15027875 -0.28921467 -0.037747607 -0.15535185
-0.37779477 0.24891153 0.10556366 -0.058349 -0.08480591 -0.13512006 -0.092593394 0.10398489
-0.11379766 0.26245877 0.008693951 0.27940586 -0.28766397 0.2323743 0.43873388 -0.116405345
0.030349517 0.39434355 -0.31333998 -0.39847708 -0.35402793 -0.04476403 -0.25689965 0.19383603
-0.20693304 -0.018264359 -0.020989649 0.07616633 0.48671702 0.14004323 0.17182046 -0.15797538
-0.22600296 -0.45929667 0.14122924 -0.17215271 -0.047176212 -0.109804794 -0.012364657 -0.08856266
-0.06213831 0.1441326 0.08067894 -0.16083026 0.047908943 0.020241266 0.36612415 0.16809678
0.6300224 0.19997993 -0.22259967 -0.07463852 -0.0895535 -0.20607677 -0.5462149 -0.36841726
-0.03164404 0.15126656 -0.27502072 -0.06497552 -0.09725794 0.07224743 0.41642073 0.07297387
0.660983 0.302165 0.086615026 -0.118524365 -0.006683057 -0.42425796 -0.20433874 -0.11338791
0.07048789 -0.2253633 0.029733118 -0.0063619395 -0.16195202 -0.33155063 -0.08610114 -0.39466405
0.029924449 -0.28856885 -0.15495127 0.260465 0.30267012 -0.23705502 0.18617526 -0.08004858
-0.32914945 0.20980638 -0.09778487 -0.019900385 0.0358234 0.37960494 0.28140378 -0.20309487
0.21427846 0.5310366 -0.40346864 -0.51073354 -0.19517708 0.26747954 -0.32144368 -0.06385334
-0.080987945 0.16192672 -0.3558043 0.05445365 0.549066 0.13384531 0.064869896 0.17029528
-0.006257654 -0.01565298 -0.02195369 -0.16578665 -0.29809278 -0.18628038 -0.023940427 -0.12595719
-0.06538056 -0.033489063 -0.059644327 -0.22294308 -0.08510942 0.04332801 0.15993029 0.10449048
0.7203024 0.21813187 -0.29725134 -0.12626742 0.210146 0.196709 -0.47140256 -0.23720662
0.17918456 -0.09446617 0.11376872 0.055644285 0.041309007 0.1837224 -0.12947202 0.3395398
0.32035214 0.2997016 -0.30067334 0.018335478 -0.10224682 0.21610114 0.10023712 0.057874512
0.19916499 -0.07990942 0.08122657 -0.13137278 0.022200115 -0.07728089 0.19343239 -0.1001966
-0.15487154 0.08248603 -0.27786797 -0.09653569 0.31381172 -0.05167903 -0.06493458 -0.079105385
0.08338503 0.14911994 0.23219892 0.13607812 0.20695446 0.44250932 0.033338215 0.14326315
-0.12699252 0.011535776 0.15729855 -0.018430809 -0.45881924 -0.08001018 0.26628682 -0.09312568
0.049924426 0.16499399 0.06494621 0.19877303 0.1376196 -0.054910578 0.14751892 -0.027384661
0.23690611 0.060670596 -0.067663305 -0.11513915 0.031748045 0.052854262 -0.09935963 -0.1488361
-0.06707196 0.05737583 0.06164548 0.12415406 0.18128777 0.19767514 0.69445 0.1532403
-0.124313086 0.13910104 -0.08198142 -0.15369889 0.22394818 -0.19070514 0.028767237 -0.20815346

std.constant5 f4 [16, 16]
00000000: 9e7a ec3d d468 c4bd 583b 823e 0ac4 2f3e
00000010: 2362 28bd 8746 32be e088 d5be 8349 84be
00000020: b06d a0bd 4af8 adbe 2acc f93d 5ea8 373f
00000030: 0eb9 ff3e e453 acbe d915 af3e c7c7 9e3e
00000040: 9b2d 13bf e668 353e 3915 0bbf 9b8c b2be
00000050: b6f8 0abd e17c c6bc d1b1 6bbd 4591 d93d
00000060: 77b6 b9bd 3d6e 233e 732e d43e 0906 afbe
00000070: a6e4 26bf 4173 e2be 1e54 5cbe cf7a e33d
00000080: 10ce f53e 90c7 aebe cacf 1f3e 36e8 293e
00000090: 70f6 003e d579 4f3e f28a ec3e 5018 d7bc
000000a0: 86a5 203f f009 b0be 473e 72be 5f06 da3d
000000b0: 4a96 bc3e a7db 9abd 3af0 063e 5189 e1be
000000c0: 6090 3f3d 7dbe 333e 6aeb 78bd 7b2d 843d
000000d0: 1491 4ebd e1d1 6fbe 9956 163e db1f 36be
000000e0: 52a7 ae3d c99e b33e c5c2 d9bd 2500 81bc
000000f0: 8222 c9bd 3ea0 efbd 46be 0c3e fc3f 833d
00000100: 7e78 8fbe 6571 d83d 4c7e 6fbe 39bd 89be
00000110: 5017 543e 510e da3d b4f6 6d3d d003 3dbe
00000120: 96c9 8ebe a4a0 0dbd 9364 ecbd f6f6 88bd
00000130: 2c64 74be 90c9 15be 8bb6 0ebd e68f 9ebc
00000140: 9728 1bbe 22be 10bd 8968 c83d 957a 043d
00000150: 95b4 ed3d fb03 223e fa70 5f3e d55a 543d
00000160: 9bd1 c7bd 6969 96bc b06f 4ebd 063a afbd
00000170: 5c55 e3bd ba6f 8a3c 0454 6abc 33c1 36be
00000180: e285 a13b 6a67 ad38 f088 da3d 0447 88bb
00000190: aa51 2c3e 1c12 0e3e 0bc4 873c 3c89 babd
000001a0: 2661 313e 11e7 793c 3c66 bbba d3b3 9d3d
000001b0: fa8e 313d 0557 53bd c7b4 ef3d aac9 793c
000001c0: 5ad2 d33d 3f0c dbbd e53d 2e3e 1262 ea3d
000001d0: c9a2 e03d d610 443c 98e6 cb3c 73ae c83d
000001e0: c37a 47bd 3725 77bd 39ab 59bc a289 c33d
000001f0: fe60 febc ceb0 a5bd c4d7 e03d e087 aabe
00000200: 2195 39be ccc8 c6bd 584a a53d 94e6 fabc
00000210: 3d4b 4ebc 9893 c1bd 88ea 433e 8a91 00be
00000220: 442a 513e b555 f03d 7ee9 4abd c526 c13d
00000230: d9b9 fe3d b167 e5bd da55 8f3d 8745 91bd
00000240: 6eba 47bc 72bf 29bd 386c e73d 88d4 9b3d
00000250: de21 f4bc 4735 6f3d 48cc 6fbd 5a88 1abd
00000260: 0de6 303d a9a3 3a3c 5734 fd3c 570d c1bb
00000270: d06d 47be 5c2d b73e d6ac 1c3d b756 41be
00000280: 669e 153e 0f17 8cbe c5dc debd 48ea e5bb
00000290: 6bf0 d1bc a44d 47bc 8b9a ccbd 5482 d3bc
000002a0: e7a1 7dbe a31e d6ba f6d2 0d3e cadf e33d
000002b0: 6020 61be e66a e0bd 9af1 053e 1334 e23d
000002c0: 00e1 283e 3f4b 3bbd 1f72 be3e adac 2a3e
000002d0: d474 bd3e 4ee2 16be 870b 133e 2ac9 94bd
000002e0: 4d4b 2fbb ad8c a0be b269 b3be 499e b83e
000002f0: 0c1c ad3d e503 5abe 23d1 05bd 0814 c1bd
00000300: 7932 d33d 824f b4bc df40 b5be b81b 193d
00000310: 5025 5ebd 7385 24be 4915 e3bd 5e42 34bd
00000320: dc62 a93d a9d2 9ebd bf57 963d a47b a5bd
00000330: 40c2 8dbc 1163 4b3e 8953 83bd ddd6 1bbe
00000340: 1490 2fbd fe71 07be 1564 d63d 0532 bdbd
00000350: 2e81 ad3d 0bcc 063d 9485 49bd e992 563e
00000360: c1f0 65bc 28cc cfbc 1d63 5f3d 4424 e2bd
00000370: 19b3 433e d9ea d43d 0118 65bc 8ccb 963d
00000380: a917 bd3c aa2b fb3c 39d7 e8bd d83e 58bb
00000390: 1511 b93d 1573 58be 9a22 3dbe e6a7 68be
000003a0: a980 d6bd ed0e bb3d a00a 993e e2e8 9a3d
000003b0: 02e3 26bd 5789 01bf ea5e cbbd 4ea6 02be
000003c0: e22c 4ebd 0c83 24be d044 1b3e a53f 45bc
000003d0: 5c80 12bd 145d 41be 33d2 063c e4d7 bfbd
000003e0: 4d4d 6f3d 572d 973d 8aa8 b73d 3a2e b8bd
000003f0: 53f1 86bd dcff dfbd 9b0c 9f3c ce98 883d
0.11546825 -0.09590307 0.254359 0.17164627 -0.041109215 -0.17409717 -0.4170599 -0.25837335
-0.07833421 -0.33978492 0.12197144 0.7174128 0.49945873 -0.33657753 0.34196356 0.31011793
-0.57491463 0.17715797 -0.5432926 -0.34872898 -0.033928595 -0.024229469 -0.057542626 0.10623411
-0.090680055 0.15960021 0.41441688 -0.34184292 -0.6519264 -0.44228557 -0.21516463 0.11107408
0.48008776 -0.3413663 0.15606609 0.16592488 0.12594008 0.20261319 0.46199757 -0.02625671
0.6275257 -0.34382582 -0.2365657 0.106457464 0.3683341 -0.075614266 0.13177577 -0.44050077
0.046768546 0.17553134 -0.060771383 0.06453987 -0.050431326 -0.23419906 0.14681472 -0.1778559
0.085280076 0.3508208 -0.106328525 -0.01574714 -0.09821035 -0.11700486 0.13744459 0.064086884
-0.28021616 0.10568503 -0.23388022 -0.26902178 0.20712018 0.10647262 0.058096603 -0.18458486
-0.27888173 -0.034577027 -0.115426205 -0.06687729 -0.23866338 -0.14627671 -0.034842055 -0.019355725
-0.15152203 -0.035337575 0.097855635 0.032343466 0.11606709 0.15821831 0.21820441 0.051844437
-0.09756776 -0.01836081 -0.050399482 -0.08555989 -0.111002654 0.016898979 -0.014302257 -0.17847137
0.00492929 8.268545e-05 0.1067065 -0.0041588563 0.16828027 0.13874096 0.016572973 -0.09108207
0.17322215 0.015252844 -0.0014297436 0.077003144 0.043349244 -0.05159666 0.117044024 0.015245834
0.10342856 -0.10695695 0.17015798 0.11444487 0.10968549 0.011966905 0.02489023 0.097988985
-0.04870106 -0.060338225 -0.013285452 0.09547736 -0.031052109 -0.080903634 0.10978654 -0.3330679
-0.18123294 -0.09706268 0.080708206 -0.030627526 -0.01259118 -0.094519794 0.19132435 -0.12555519
0.2042628 0.11735097 -0.04953908 0.09431223 0.124377914 -0.11201418 0.06998797 -0.070933394
-0.012190444 -0.041442342 0.11299938 0.076088965 -0.029801305 0.05840042 -0.058544427 -0.03772769
0.043188144 0.011391559 0.030908747 -0.005891483 -0.19475484 0.35776794 0.038250767 -0.18880735
0.14611205 -0.27361342 -0.10881952 -0.007016454 -0.025627336 -0.012164507 -0.09990414 -0.025818981
-0.24768792 -0.0016336035 0.13850006 0.11126669 -0.21985006 -0.10957889 0.13080445 0.110450886
0.1649208 -0.045726057 0.37196442 0.16667433 0.37003195 -0.14734766 0.14359866 -0.072649315
-0.0026747764 -0.31357327 -0.35041577 0.36058262 0.08452615 -0.21290548 -0.03267015 -0.09427649
0.10312361 -0.022010569 -0.35401055 0.03737995 -0.054234803 -0.16066532 -0.11088044 -0.044008605
0.08270809 -0.07755024 0.07340955 -0.08080223 -0.01730454 0.1986201 -0.064124174 -0.15218683
-0.042862013 -0.13227078 0.10468308 -0.09238056 0.08471905 0.032909434 -0.049199656 0.2095448
-0.014034451 -0.025365904 0.05453788 -0.11042073 0.19111289 0.10396356 -0.013982774 0.07363042
0.023082571 0.03066047 -0.113691755 -0.0032996442 0.09036461 -0.2113765 -0.1847023 -0.22720298
-0.10473759 0.09133706 0.2989092 0.0756395 -0.040743835 -0.5060019 -0.09930213 -0.12758753
-0.050335772 -0.16065615 0.15162969 -0.0120391 -0.035766944 -0.18883163 0.008228826 -0.0936735
0.05842333 0.07381695 0.08967693 -0.08993192 -0.06588998 -0.10937473 0.01941519 0.0666977

std.constant6 f4 [16, 16]
00000000: 66ea acbe 7a48 c93e ec20 68be 0078 1abe
00000010: 79f5 71be d2a1 e03d cd36 a03e cc79 333d
00000020: 07f8 7ebe 7f75 81be 4286 43be c31e 73be
00000030: 8bd8 17bf 59b5 fb3b 1f44 e6be 2826 383d
00000040: 92df ddbe fb74 ec3e 9119 e5be 75c7 e0be
00000050: 52bf 0cbe 51ec f03e 25da e0be d44a d73e
00000060: a8be 88bf f4a4 bebe 52a7 fb3e 2846 8abe
00000070: 0491 43be 07cc d5bd e461 013e 4bca 02be
00000080: 3608 94be 4e8b 153f 0c2e 29bf db69 d2be
00000090: cbff febd f83c abbd 0728 3bbe cc47 24be
000000a0: 7024 a2be d29a 753e fdd1 433e d7cb d4be
000000b0: e8a8 9cbe 9237 803e 16ef e1be 90c7 ce3e
000000c0: 8794 13bf de4e 033f 98c3 41bf 382b aa3e
000000d0: 7f6d a5be c199 16be 4e76 823e 4aaf 08bf
000000e0: ba6c e13d a17b 043f 775d 06bf e8ff 22bf
000000f0: b6bc 163d 11ec 163f 3c6a f2be 0d83 a93e
00000100: a634 b7be 874b 833e e1d0 c3bd 776c 183e
00000110: b86f bc3e 8f81 213e df05 fc3e 34eb 9d3e
00000120: 3ce8 b93d 3a99 27bd 73f9 593d 46e9 5cbe
00000130: 06f7 3bbf 3a95 11bf 893e 97be 715a 803e
00000140: 2d5b 35bf d424 453f d89e 5cbf 1df9 c4be
00000150: d35a 503e 5dbd a4be 20af 81be 59c4 3bbf
00000160: 0ed9 5abe bec6 ea3e 304d 0cbe e35b 1ebf
00000170: 5d15 61be f18b ca3e 8051 70bf 91d9 213f
00000180: a2f3 74bf 20a2 a43f 4bd7 babf 02f5 90be
00000190: 7599 e53e 76ca 32bf 3b4f 80be ec90 30bf
000001a0: accc bbbe c0ba 213e 7d30 103f 6c20 80bf
000001b0: b328 b1bb d37a 053e 4425 a6be de8b 873f
000001c0: bc74 d3be 4527 d23e 7c36 c0be c464 9a3d
000001d0: 4bdd 51be 08fb b2be 27ab 7bbf da8c 08bf
000001e0: d58f 333e 32fd 343e c9fa 79bb cc08 ccbe
000001f0: 1042 183e 7a23 77bc ef14 dbbe 9888 fc3e
00000200: 6c46 90bf fd03 853f b8a8 98bf 88e4 b7be
00000210: 348e 2c3f 0ed4 17bf 108a e83b 16e4 f9be
00000220: a4c3 b2be 30ba 013f 7222 86be 80be 6abf
00000230: 21df 6d3d 15aa 9a3e 63df 11bf 473a 2f3f
00000240: 7ce2 1bbf cf99 b63e 773a 54bf 5afc dd3c
00000250: 9ca0 cd3e 611f 32bf e548 f5be 4e36 27bf
00000260: ea79 5ebd b5f4 d7be c301 90bc 334f f1be
00000270: e16c 213c 10d3 56bf b19a 04be 3b25 933f
00000280: 7660 27bf fb70 a63e e375 90be be9d f9bd
00000290: 4b97 5abe 80f1 ecbe 6b3d 63be 56f2 8cbd
000002a0: 27c0 893f 06ed 943f f194 3ebf 7377 1abf
000002b0: 2f42 cbbc 5717 a33d 1f0b 70bf 8622 7c3f
000002c0: 61f2 aebe 6af9 9f3e a14b b0be ed6c 85be
000002d0: ffa1 a4bd 5ae2 b73e 5b9b a93e 7827 f43d
000002e0: 427e 8f3e ef3a 003e 91c2 18bf b237 26bf
000002f0: 304f 423e b109 cf3e cac1 13be 8b2d e8bd
00000300: 20eb 7ebf b9b4 7e3f 1697 69bf c87f debe
00000310: 9583 ee3e 6a8f 26bf 754f 1bbf ebeb 09bf
00000320: 6d62 05bf afc3 063e 6dc5 af3e fce7 03bf
00000330: e351 0a3e d7f9 3fbe 7db6 4ebe 06c0 103f
00000340: 3d66 c4be 1f1c e33e ba59 b6be 5222 a43d
00000350: d924 5e3f f93c 983d 2797 1ebf cbc9 fe3e
00000360: e41f 6abf 89f6 90bf c51f 2b3f 6113 d2bd
00000370: cbf1 dbbe cb9f 5cbf 73d1 6f3e b9e8 283e
00000380: 804a a5be c544 023f db62 aabe ea8f 1ebe
00000390: 7661 843e b01e f3be 9bee 71bd 3d0a 99be
000003a0: ce95 79be 9a71 e9be e3b7 63bd 6ecd b4be
000003b0: 612f 853e a984 3e3d 4fcb 54bd f832 8d3e
000003c0: 623f 5dbf 640f 923f 3062 64bf fbe3 a6bd
000003d0: c578 733e ecd6 1cbf 5556 17bf 633f dabe
000003e0: ac8a 45bf e9d1 9b3e c490 193f c4a1 1abf
000003f0: 37ab 25be 8089 ffbc d4d2 ebbe 239a 083f
-0.33772582 0.39313108 -0.22668809 -0.15084839 -0.23628797 0.10968365 0.3129181 0.043817326
-0.24899302 -0.25284955 -0.19094184 -0.23742203 -0.59314793 0.0076815304 -0.44973847 0.044958264
-0.43334633 0.46183 -0.44746068 -0.43902174 -0.13744858 0.47055295 -0.4391643 0.42049277
-1.0683184 -0.37235224 0.49151093 -0.2700665 -0.19098288 -0.10439306 0.12634999 -0.12772481
-0.28912514 0.5841569 -0.66085887 -0.41096386 -0.124511324 -0.08361238 -0.18276988 -0.16043013
-0.31668425 0.2398484 0.19123073 -0.41561767 -0.30597615 0.25042397 -0.4412772 0.4038663
-0.5764851 0.51292217 -0.7568908 0.33236098 -0.323101 -0.1470709 0.25480884 -0.5339247
0.11007066 0.5175114 -0.52486366 -0.6367173 0.036801063 0.5895396 -0.47346675 0.33107796
-0.35782355 0.2564356 -0.09561325 0.14885126 0.36803985 0.15772079 0.4922323 0.30843508
0.09077498 -0.040917613 0.05321641 -0.21573362 -0.734238 -0.56868327 -0.29539898 0.25069
-0.7084225 0.7700932 -0.86179876 -0.38471308 0.20347147 -0.32175723 -0.25328922 -0.7334648
-0.21371862 0.45854753 -0.1370132 -0.6185896 -0.21980806 0.39559892 -0.9387436 0.63222605
-0.95684254 1.2861977 -1.4596952 -0.28311926 0.4484364 -0.6984018 -0.25060448 -0.68971133
-0.3667959 0.15793896 0.5632399 -1.0009894 -0.005406463 0.13035135 -0.32450306 1.0589559
-0.413 0.41045585 -0.37541568 0.07538751 -0.20494573 -0.34957147 -0.9830803 -0.5333992
0.17535336 0.17674711 -0.0038143864 -0.3985046 0.14868951 -0.015084142 -0.4278941 0.49322963
-1.1271491 1.0391842 -1.1926489 -0.35916543 0.67404485 -0.59307945 0.0070965365 -0.48806828
-0.34914887 0.50674725 -0.26198155 -0.9169693 0.05807412 0.30207887 -0.56981486 0.684483
-0.6089246 0.35664222 -0.8290171 0.02709787 0.40161598 -0.6957913 -0.47907177 -0.6531724
-0.054315485 -0.42178884 -0.017578965 -0.47130737 0.009852619 -0.83915806 -0.12949635 1.1495737
-0.6538156 0.32508072 -0.2821494 -0.1218829 -0.21346776 -0.46278 -0.22191398 -0.068821594
1.0761765 1.1634834 -0.74446017 -0.60338515 -0.024811832 0.07963436 -0.9376697 0.9849018
-0.34169295 0.31244975 -0.344327 -0.26059666 -0.08038711 0.3591488 0.3312634 0.119215906
0.28026015 0.12522481 -0.59671885 -0.64928734 0.1897552 0.4043708 -0.14429393 -0.11336812
-0.9957752 0.9949451 -0.91246164 -0.43456864 0.46584764 -0.6506258 -0.60668117 -0.5387561
-0.5210331 0.13160585 0.3433031 -0.51525855 0.135078 -0.1874765 -0.20186801 0.56543005
-0.38359252 0.44357392 -0.3561533 0.080143586 0.86774975 0.074335046 -0.6194939 0.4976333
-0.9145491 -1.1325237 0.6684535 -0.102576025 -0.4295791 -0.86181325 0.23419742 0.16495027
-0.322834 0.50886184 -0.33278546 -0.15484586 0.25855607 -0.4748435 -0.059065443 -0.29890624
-0.24373552 -0.45594484 -0.05559529 -0.3531298 0.2601271 0.046513233 -0.051951703 0.2757795
-0.8642484 1.1410947 -0.8921232 -0.081489526 0.23776539 -0.61265445 -0.5911611 -0.42626485
-0.7716472 0.30433586 0.5998652 -0.60403085 -0.16178595 -0.031193495 -0.46059287 0.53360194

std.constant7 f4 [16]
00000000: 0adc f33e 8a2d d6bc 21c2 b93e 8aa0 303e
00000010: 9381 c63d 6e0b 083f 9738 703f 5363 343d
00000020: afb3 c73e e4cc 133f 6195 0f3f 4449 a53e
00000030: 15dc 4f3f 18d8 603f 5b8e 0e3f e350 393f
0.47628814 -0.026144762 0.3628092 0.17248741 0.09692683 0.5314244 0.9383635 0.044040035
0.39004275 0.57734513 0.5608731 0.3228246 0.81195194 0.8782973 0.5568597 0.7238905

std.constant8 f4 [16]
00000000: e118 9b3f ff46 863f 9031 ae3f 19f0 843f
00000010: a29e 7b3f 1554 513f 1050 853f 4f3a 503f
00000020: 6533 703f d751 9a3f f44d 6e3f 2f5c 493f
00000030: 9242 443f efe8 693f 7fa1 9c3f e8ac 623f
1.2116967 1.0490416 1.3608875 1.0385772 0.9828893 0.81768924 1.0415058 0.8133897
0.9382842 1.2056226 0.930877 0.78656286 0.7666408 0.91371053 1.2236785 0.88545084

std.constant9 f4 [16]
00000000: 9771 d6be 4fe0 9a3e 92fe d7be f08c 8ebc
00000010: 4932 37bd 9969 32be df90 8dbd 7047 a93d
00000020: dbd0 903c 5cdc 483e e43d 313d db05 a9be
00000030: 563e 11be a3c3 78bc 9918 41be 414c 6c3e
-0.41883537 0.3024926 -0.4218641 -0.017401189 -0.04472569 -0.17423095 -0.069123976 0.08265579
0.017677715 0.1961531 0.043271914 -0.3301228 -0.14183936 -0.015183362 -0.1885704 0.23075964

std.constant10 f4 [16]
00000000: cecd f13e ddcc 193e 6594 113f af7c fa3e
00000010: 5b2b a73e 2ce2 613f 7f63 b13f 98b1 903e
00000020: a3ff 813f b131 803f 1f1d 083f 87a2 503e
00000030: 2666 843f ced4 b03e be8f fb3e 985e 693f
0.4722733 0.15019555 0.5686706 0.4892325 0.32650265 0.88235736 1.3858489 0.28260493
1.0156139 1.0015165 0.53169435 0.203745 1.0343673 0.34537357 0.49133104 0.91159964

std.constant11 f4 [16, 16]
00000000: 790f 9dbf a1dd 963e 48e5 af3e c920 c03d
00000010: f613 be3e 65f8 3ebf 8d37 0c3f a7d3 b3be
00000020: a401 14bc fed1 66bf ec03 0d3e d687 08bf
00000030: 0350 153f 195b ed3e aa37 03be 0056 ecbe
00000040: 8007 2ebf 1973 c7be 8513 f7bd 957e f9be
00000050: 86f3 07be b27d d8be 5a10 2dbe da16 333e
00000060: c04c 6bbe 8fda a03e 7d90 8d3e bd61 01be
00000070: 0624 5d3e d59a c7be d4f2 68be f957 cabe
00000080: 9b07 8e3e ccd9 a53d 0f18 06bb 8143 5abd
00000090: 9af0 e5be 281a 8f3e ba16 6f3e 7d70 4dbf
000000a0: 7254 8fbe ad9d b43e 36a8 cd3e 7bc5 0c3f
000000b0: 5c07 1a3f e676 55be 09c1 e1be d05e 7fbd
000000c0: d5e7 eb3e f5af 963d 0c98 2d3d ff86 bcbe
000000d0: 7373 9abe 281d a43e b51b 9a3e 79a0 ddbe
000000e0: 890c d4bd d4c6 bb3e a293 35be 7b41 1dbf
000000f0: 7411 0dbf 8194 9bbd a1ab a23e 6075 0c3e
00000100: 36f5 99be c997 243f c3b3 74be 77bb 893e
00000110: c311 e1bc 3c92 453f 97ba c73d 4968 1bbe
00000120: 9bf1 a0be 99a7 0cbf 9cdb cebb bbda d73e
00000130: ca24 e1be 8d7b 033e 12f5 783e d421 543e
00000140: f6bb e03c 45d5 a3bd bb8d 84bd 85ad e03d
00000150: 81ed 9fbe 0d65 f8be 0b95 9bbe d44b 053e
00000160: 740f 2d3f 2b71 a6be c395 8cbe e7fb 933d
00000170: c4b1 2d3f fca5 8e3e 7183 50bf 097f 2ebf
00000180: a990 13bf e218 51bf ae87 a03f 2c93 2bbe
00000190: a3a9 73be adad 63bf 1c27 8cbd f048 403f
000001a0: 0cab 743e 072a 013f ba34 5d3e 8931 39be
000001b0: f4b2 06be 86c2 803f 8dd1 8abf f643 74bf
000001c0: c268 a13e cc9e 393e 3119 0abf 1abe 673e
000001d0: a3b8 493e d76c a23e 3e29 07be 4f1d b23e
000001e0: 6970 6f3d 622b ad3e aa9c 32bd 563a 343d
000001f0: 6a56 4bbf 8b39 90bf ac63 c33e 3f8d 083f
00000200: 4d8e 91bf 6500 5b3c ccec fbbc 20a0 c8bf
00000210: d752 95bf 8dd7 123f 8ffb a7be 4439 16bf
00000220: 232a a9bf 6d93 5dbe a153 a43f 2c3d 9c3f
00000230: c8e2 99bf 8ea1 983f f8e4 d43d cd7c 033f
00000240: a0ff 28be f9e4 5f3e 7a94 fb3d 40ab e13e
00000250: 1f92 b83e fdc1 43bf ba7a 42be 3e14 3e3e
00000260: 8a98 243f 5cd9 61be 4231 3f3c 9530 4f3e
00000270: 72b7 7d3e 9108 663f 8631 9dbe 82a6 42bf
00000280: 254e 9c3d 47f3 04bf aa86 fd3d 1493 68bf
00000290: 249a 10be 3880 7d3e 44cd 143f 746d 25be
000002a0: 772b c63d 131a 44bc f1dc c83e 10ac 193e
000002b0: 822c d1bd c968 7cbd 52ff aebe f7ca f63e
000002c0: efef c83e 337f 03bc f7a6 3abe 2722 b6be
000002d0: 4a21 26bf 0402 333e e914 a0be f2aa 81bc
000002e0: 6dfd b7bd b6a4 053e e200 0f3f ad0c b13e
000002f0: 77b2 02bd ee99 2e3e 95cd f3be 6ace 143e
00000300: 3162 67bd b98b 9dbe 2115 693e ae8a 02bf
00000310: cce9 803e c75c 02be 26af 333e 5c0d ddbe
00000320: 6f92 d2bd b549 a43e 58b1 133e 5f60 383e
00000330: 57f4 44be 136c a9bd a7a1 e63a 3ccf b0bd
00000340: 9734 10be 232f 0a3f 98cf ab3e b45d d1be
00000350: b11a 1fbf 4a35 133e 1885 373e b1fe f9be
00000360: 4426 dabd cdc1 47bf 58ed 17bc 1dee 13bf
00000370: 8eb5 71be b7f0 1e3f e5dc a93e 27fa ea3e
00000380: 3963 2fbe 8f11 c7be eb7a 073f 84ad 06bf
00000390: 6759 8e3e e04b 10bf 338e 733d c4fe 243e
000003a0: 688a 903e b45d b53d 6824 e3bc 9f57 4ebd
000003b0: e49a 7ebf f801 4e3f 9434 16bd 82e6 e1be
000003c0: 128d 973e f796 4f3e afef 4abf d5fb 4abf
000003d0: 6bf6 b9be 747b 443f ff80 ed3e 8258 05bf
000003e0: a0b7 b5be d624 8fbe 627b 243f 2957 6a3f
000003f0: 9c04 3dbd 5db7 3fbf bc8c 983e acb0 993e
-1.2270347 0.29465964 0.34354615 0.09381253 0.37124604 -0.7459777 0.54772264 -0.35122415
-0.009033594 -0.9016417 0.13771027 -0.5333227 0.58325213 0.46358564 -0.12814203 -0.46159363
-0.67980194 -0.38955 -0.1206427 -0.48729387 -0.1327649 -0.42283398 -0.16900769 0.17489186
-0.22978497 0.31416747 0.27649298 -0.1263494 0.21595773 -0.38985315 -0.22748882 -0.39520243
0.27740178 0.08098182 -0.0020461117 -0.053287033 -0.44910127 0.27949643 0.23348513 -0.8024977
-0.27994114 0.35276547 0.40167397 0.5498883 0.6016748 -0.20846137 -0.44092587 -0.06234628
0.4607531 0.0735778 0.04238133 -0.36821744 -0.30166206 0.32053494 0.30099264 -0.43286493
-0.103539534 0.3667513 -0.17732099 -0.6142804 -0.55104756 -0.07596684 0.31771567 0.1371665
-0.30069894 0.64294106 -0.23896699 0.26900837 -0.02747429 0.7717626 0.09752386 -0.151765
-0.3143433 -0.54943234 -0.0063128006 0.42159066 -0.4397338 0.128401 0.24312237 0.2071603
0.027433377 -0.07999662 -0.064723454 0.10970596 -0.3123589 -0.48514596 -0.30387148 0.13017207
0.67601705 -0.32508215 -0.2745801 0.07225781 0.67849374 0.2786101 -0.81450564 -0.6816259
-0.5764261 -0.81678593 1.2541406 -0.1675536 -0.2379518 -0.88936883 -0.06843397 0.75111294
0.23893374 0.50454754 0.21602145 -0.18085302 -0.13154203 1.0059364 -1.08452 -0.954162
0.31525236 0.18126982 -0.5394469 0.22631112 0.1969934 0.31723663 -0.13199326 0.34787986
0.058456812 0.3382216 -0.043606438 0.044000946 -0.7942873 -1.1267561 0.3816198 0.53340524
-1.1371552 0.013366793 -0.030752562 -1.5673866 -1.1665906 0.57360154 -0.3280911 -0.5868113
-1.3215984 -0.2163827 1.2838022 1.2206168 -1.2022333 1.1924303 0.10395235 0.51362306
-0.16503763 0.2186469 0.12284179 0.44075966 0.36048982 -0.7646788 -0.18992129 0.1856241
0.64295256 -0.22055572 0.011669459 0.20233376 0.2477701 0.8985682 -0.30701846 -0.7603532
0.076320924 -0.5193371 0.12379201 -0.90849423 -0.141213 0.24755943 0.5812571 -0.16155034
0.09676259 -0.011969107 0.39231065 0.15007043 -0.10213567 -0.06162337 -0.3417917 0.48201725
0.39245555 -0.008025932 -0.18227755 -0.3557293 -0.64894545 0.17481238 -0.31265953 -0.015828583
-0.08983884 0.13051113 0.5586072 0.34579983 -0.03190848 0.17050907 -0.47617784 0.14531866
-0.056490127 -0.30770662 0.22761966 -0.5099286 0.25178373 -0.12730704 0.17547283 -0.43174255
-0.10281836 0.32087484 0.1442312 0.18005513 -0.19233833 -0.08272567 0.0017595784 -0.08633277
-0.14082561 0.53978175 0.3355682 -0.40891802 -0.621501 0.14375797 0.17921865 -0.48827127
-0.1065183 -0.7803009 -0.009272896 -0.5778521 -0.23604414 0.6208605 0.33176342 0.45893976
-0.17127694 -0.38880584 0.5292193 -0.52608514 0.27802584 -0.56365776 0.059461784 0.1611281
0.28230596 0.08855763 -0.02772732 -0.05037653 -0.99455094 0.80471754 -0.036671236 -0.44121176
0.29599816 0.20272432 -0.7927198 -0.79290515 -0.36320814 0.76750875 0.4638748 -0.5208818
-0.35491657 -0.2795779 0.6425077 0.91539246 -0.046146974 -0.74889165 0.29794872 0.30017602

std.constant12 f4 [16, 16]
00000000: c536 1ebf fedc 323f 0ffa 19be 288b 783e
00000010: 1629 b33d ff0b 86bd 7d43 adbe fd04 ce3e
00000020: b535 7cbe 74e5 39bf c20f 613d 7250 75bd
00000030: f843 e0bd f2e0 563e f7f7 603f 71ab d83e
00000040: 7348 a0bf 02cc f53e 17a7 0d3f 5dbd 8ebe
00000050: 8d5f 52bf 4c22 093f 3d0a 95be cb2b e6bd
00000060: 18be 62bf 097b 05bf 3317 8b3f 0d9e 243f
00000070: d24f bbbd d6df 093e 6c2f 55bf ede3 8bbe
00000080: e8db 833e 11ce a03e f446 86be ce09 8bbe
00000090: 15be 5fbf 4532 003f 841c c6be a3d3 eabe
000000a0: ff7c 133e 4a67 733e f5e2 223f 9c81 333f
000000b0: 8c0f a83e 4a08 8bbe 38c9 b5be cd20 f43e
000000c0: 62ef 00bd 0c66 11bf eb4d 9e3e 315b c23d
000000d0: 51ea 1b3f b5c9 46bf 593e 32bf 9ff5 733f
000000e0: da16 b9bd a5f8 3a3f 54a5 49bc 9938 d8bd
000000f0: 6213 09bd 4795 243f 37a2 56bf ecbc fbbe
00000100: 4825 833e d3b2 823e b740 fdbd d582 6b3d
00000110: a746 3fbe fde1 93be 3461 6e3e d4ef 1ebd
00000120: 613e 0b3e ca58 913e 6d68 87be 0452 3d3e
00000130: 7078 213f 2477 6ebd 0b62 03bf eb33 8bbc
00000140: f9a9 0abe dd4f a43e 76e6 80be bd6f 2c3e
00000150: 8e82 a8be e57e 22be 09e3 04bf 98d9 aa3e
00000160: 2d69 60bd 65ab 143e 6138 2e3e 62a9 053f
00000170: 13ca 59be ff13 273e 7b2b fcbe 747f 24be
00000180: 108d 27bf 18ee c0be 5ec2 743f eaa9 1e3f
00000190: e8d0 243f 8d48 62bf e13c df3e 5111 263f
000001a0: 132e 19bd db51 073e a780 ee3d b155 73be
000001b0: a583 5a3f d23e 5d3f 9f16 84bf 3d84 66bf
000001c0: f2d0 78bf d52e 10bf f1eb 9d3f 70aa 8b3d
000001d0: 8e3d f13d 500c 60bf b523 553d cac3 b53c
000001e0: 034b b2bc c6f3 e9be db4f d73e e5c9 dfbe
000001f0: 2b5d 493e e689 a23f 6a3e 65bf 17f5 58bf
00000200: 4006 4ebf b5d8 e93e 63f3 49bf 9e8b a03f
00000210: 623e 283f 045f 153d 8808 1e3f 9cca 6cbe
00000220: ff4b 9f3f 9693 9dbf 5b61 8bbe 41b6 45be
00000230: 5878 c83f d466 2ebf 8696 c2be dcf5 73bf
00000240: bb66 81bf ca6d ca3e 5ebb f93e e35e 4b3f
00000250: aec7 fc3e 6ccb 62bf 7077 043e 24e2 f93e
00000260: f146 243d 24fe 47bf 4cf2 8c3e 9e31 cabd
00000270: e3c1 873f 4f15 ae3e 663b 1abf 1539 8dbf
00000280: 90eb c2bd 9376 b3be 3b93 bb3e f1d1 8c3e
00000290: f050 01bf 176d 42bf ba57 4fbe 233f ef3e
000002a0: b307 183f d538 aabe c3d0 d33e 3392 6fbd
000002b0: 96e9 0c3e 3284 573f ce51 78bf 7ee9 03bf
000002c0: de18 3c3e a5fa ebbe 6c86 663e 1d1d bdbf
000002d0: 817d 92bf dcfb 683f 0bb3 c0be d95f b7be
000002e0: 29b1 99bf 77c5 cc3e 0a24 803f d209 9d3f
000002f0: 4ab9 0fbf 8914 c1bd 7788 adbe 788d d83e
00000300: 73ff 8fbf b9dc 813e 17b7 363f 5cd8 bcbe
00000310: dfd7 86be d903 0cbf cfa4 9bbf a2f1 603f
00000320: 62f1 12bf bef5 e4bb a2f1 a33f b114 c73f
00000330: 7047 97bd 5955 2f3f 386c 94bf 156f f5bd
00000340: 9c8e 46be dad0 73be 4d73 0d3f 6319 703f
00000350: 8cb5 083f dd99 7abf 90b8 373d 03e0 503f
00000360: 9560 2c3f 4416 e7bd ccd6 05bf 1b9d 41be
00000370: f76b 693f 8ea8 0b3f 85ea 91bf 66d9 9ebf
00000380: 9735 60ba b196 0ebf 4797 573f 5b83 773e
00000390: b3bf ec3e 81c4 72bf a54c 6fbe 7c3f 2e3f
000003a0: a156 ee3e 2f92 293f 35c0 79be d4b9 1fbe
000003b0: ce78 e93d 1400 8f3f fa73 89bf b43c 71bf
000003c0: 6b57 15bf 9d77 4a3e 4822 e43e 0417 aa3e
000003d0: 8efd 0dbf 7448 94bd 7ccb c73e cc32 ecbe
000003e0: 988b 4a3e 87b8 08bf 9a0a b73e 35e7 a6be
000003f0: 63a7 f23e 9ae1 e83e f938 6fbf 2507 83be
-0.6180232 0.6986846 -0.15036796 0.24271834 0.08748071 -0.06545257 -0.33840552 0.4023818
-0.24629863 -0.7261574 0.05494667 -0.05989117 -0.10950464 0.20984247 0.87878364 0.423183
-1.252211 0.48007208 0.55333084 -0.27878848 -0.8217705 0.5356796 -0.29109374 -0.112388216
-0.8857131 -0.5214086 1.0866455 0.64303666 -0.09146084 0.13464293 -0.83275485 -0.2732233
0.25753713 0.31407216 -0.26226008 -0.27155918 -0.8739942 0.50076705 -0.3869363 -0.4586459
0.14403151 0.2376987 0.6362756 0.70119643 0.3282436 -0.27154762 -0.3550508 0.47681275
-0.031478293 -0.56796336 0.30918822 0.0949005 0.60904413 -0.7765153 -0.69626385 0.95296663
-0.09037562 0.7303565 -0.012307484 -0.1055767 -0.03346575 0.6429028 -0.8384127 -0.49167573
0.2561438 0.25527057 -0.12365859 0.057497818 -0.18679295 -0.28883353 0.23279268 -0.038802937
0.13598014 0.28388053 -0.26446858 0.18488318 0.630744 -0.05821909 -0.51321477 -0.01699253
-0.13541402 0.3209218 -0.25175828 0.168395 -0.32912105 -0.15868719 -0.5190893 0.33369136
-0.054787803 0.14518507 0.17013694 0.5221158 -0.21268491 0.16316222 -0.49251923 -0.16064245
-0.6544962 -0.3768165 0.9560908 0.6197802 0.64381266 -0.88391954 0.43601134 0.6487017
-0.037397455 0.13214819 0.11645632 -0.23763157 0.85357124 0.8642398 -1.0319403 -0.9004553
-0.97193825 -0.5632146 1.2337629 0.06819618 0.11779319 -0.8751879 0.052036006 0.022188086
-0.021764284 -0.45693797 0.42053112 -0.4370872 0.19664447 1.2698333 -0.8954836 -0.8474898
-0.80478287 0.45673147 -0.78887004 1.2542608 0.6572019 0.036467567 0.6173177 -0.23124164
1.2445067 -1.2310665 -0.27222714 -0.19307806 1.5661726 -0.68125653 -0.38005465 -0.95297027
-1.0109476 0.39536887 0.48775762 0.7944166 0.49371094 -0.8859165 0.12936187 0.48805344
0.040106717 -0.7812216 0.27528608 -0.09872745 1.0606045 0.34000632 -0.60246885 -1.1033045
-0.09517586 -0.35051402 0.36635765 0.27503923 -0.50514126 -0.7594771 -0.20248309 0.46727857
0.5938675 -0.33246484 0.4137021 -0.058489036 0.13760981 0.8418609 -0.96999824 -0.51528156
0.18368861 -0.46089664 0.22512215 -1.477451 -1.1444551 0.91009307 -0.376366 -0.35815313
-1.200719 0.39994404 1.0010998 1.2268622 -0.56142104 -0.09427745 -0.33893177 0.42295432
-1.1249832 0.2536371 0.7137312 -0.3688382 -0.26336572 -0.5469337 -1.215967 0.878687
-0.5739957 -0.0069873026 1.2808115 1.555319 -0.073866725 0.68489605 -1.1595526 -0.11984078
-0.19390339 -0.2381014 0.5525406 0.9378874 0.5340202 -0.97891027 0.044853747 0.81591815
0.6733487 -0.11283544 -0.5228088 -0.18907587 0.91180366 0.5455407 -1.1399695 -1.2410095
-0.00085529074 -0.55698687 0.84215206 0.24171202 0.46240005 -0.9483109 -0.23369081 0.6806562
0.46550468 0.66238683 -0.24389727 -0.15598232 0.11399995 1.1171899 -1.0738518 -0.9423325
-0.58336514 0.19772191 0.44557405 0.33220685 -0.5546502 -0.07240382 0.39022434 -0.46132505
0.19779813 -0.53406566 0.35750276 -0.32598272 0.4739333 0.4548462 -0.9344631 -0.25591388
