tensorflow_examples/lite/model_maker/core/data_util/testdata/mobilenet_v2_035_96_embedder_with_metadata.tflite (tflite, 566166 bytes, 104 tensors)

predict/MobilenetV2/expanded_conv_3/project/Conv2D;predict/MobilenetV2/expanded_conv_3/project/Conv2D f4 [16, 1, 1, 48]
000000 a6 5c fd be 62 d8 a5 bd 95 5d 36 bf 5d c8 95 3e
       -0.49484748 -0.08097912 -0.71236545 0.29254428
000010 e0 ef 42 3f 4f 29 8a bd 04 11 74 3d 8c 1d 53 40
       0.7614727 -0.0674616 0.05958654 3.2986784
000020 76 a3 cc bf c4 81 00 3f fc 91 a9 3f 2f 57 45 be
       -1.5987384 0.50198007 1.3247676 -0.19271539
000030 d2 41 0a 3f 6e 9d 02 bf 13 86 d4 be 3a 26 e6 3e
       0.54006684 -0.5102147 -0.4150854 0.4495104
000040 a4 a3 eb 3e 41 ef d3 be c5 88 82 be ad 68 0e be
       0.46023285 -0.41393474 -0.25494972 -0.13907118
000050 52 c0 01 40 f3 a3 60 be e6 e9 28 3f c5 0f 80 40
       2.0273633 -0.21937542 0.659819 4.001925
000060 34 c6 00 bf bc 16 2f 40 29 0c 14 be 73 93 e0 be
       -0.50302434 2.7357626 -0.14457764 -0.43862495
000070 87 ab 52 3f 33 02 fe be 31 72 48 3f 6c 26 4b bf
       0.8229298 -0.49611053 0.7829924 -0.793555
000080 60 ac 0a bf f1 d0 d1 3f 7e 55 1e 3f a7 24 c2 bf
       -0.54169273 1.6391889 0.618492 -1.5167435
000090 20 8b fc 3e 14 f7 bf 3f 87 79 11 3f 71 12 c6 be
       0.49324894 1.4997277 0.5682606 -0.38685945
0000a0 c3 3c 59 c0 ce 3e 4e bf 3e fe 23 3f fc 38 af 3f
       -3.3943336 -0.8056458 0.6405982 1.3689265
0000b0 d0 ae 90 3f 59 93 58 3f 90 39 7b c0 18 9a cb bf
       1.1303349 0.84599835 -3.9253883 -1.5906401
0000c0 fd f2 ae bf da 93 e9 be 93 ab 46 3f 1a a5 00 3f
       -1.3667904 -0.45620614 0.7760555 0.50251925
0000d0 c6 fc 97 bf c9 4f cd 3e b8 c2 58 3d ab c8 03 40
       -1.1874015 0.40099934 0.052920073 2.0591228
0000e0 61 65 01 c0 df 06 a1 bf d5 41 60 3e f7 86 cd bf
       -2.0218127 -1.2580222 0.21900113 -1.6056813
0000f0 31 1b 4a bf 24 ec 23 bf 83 74 4b bc 24 7c d7 bd
       -0.7894774 -0.64032197 -0.012417915 -0.10521725
000100 53 03 67 bf 5b 8f 8b 40 13 bf be be d4 67 26 3f
       -0.9023945 4.3612494 -0.37255153 0.6500218
000110 ad 34 9d 3e aa 56 9c 3e b5 21 81 bf f1 18 1a bf
       0.3070425 0.3053487 -1.0088412 -0.6019431
000120 ae 9e 6d 3f 93 62 c8 bf b4 38 23 3f f1 8d 61 3f
       0.9282025 -1.5655082 0.637584 0.8810721
000130 fc eb 72 bf e7 8a 48 c0 8a 04 b1 bf 00 ea 3f 3f
       -0.94891334 -3.133478 -1.382951 0.7496643
000140 78 06 43 bf 7b b6 33 be 93 25 95 3f 4f 79 b6 bd
       -0.76181746 -0.1755008 1.1652092 -0.089098565
000150 89 91 03 be d6 61 c1 bf df aa 6b 3d ac ca 1d 3f
       -0.12848486 -1.5107982 0.057536002 0.6163738
000160 ad 1a 32 bf 4e fb 91 bf cb 63 94 40 f6 5a e3 3e
       -0.69571954 -1.1404817 4.6371818 0.44405335
000170 69 53 c3 3e 71 25 22 bd c1 cc 54 3f f4 76 e1 be
       0.38149574 -0.03958649 0.8312493 -0.44036067
000180 df 40 80 bf 4c a2 ae be 02 3e 1f bf aa 83 dd bf
       -1.0019797 -0.34108198 -0.6220399 -1.7305806
000190 e5 7b c2 bd 1c ae 49 c0 c1 94 83 3e 30 96 82 bf
       -0.09496287 -3.1512518 0.25699428 -1.0202084
0001a0 8e cb c8 3c 9a eb 1a 3f ec 21 40 3f c9 89 9f 3f
       0.024511125 0.6051575 0.7505176 1.2463924
0001b0 e3 3d 3d 3f ae 10 35 3f 0b 71 23 bf ad 5f be 3e
       0.73922557 0.70728576 -0.63844365 0.3718237
0001c0 c7 a8 41 be 58 dc 75 bf f9 93 97 bf 84 e8 20 bf
       -0.1891204 -0.9603934 -1.1842033 -0.6285479
0001d0 8d bb 51 be 94 2a ea bc 3a 4e 37 bd e0 e6 c3 c0
       -0.20481701 -0.028584756 -0.044752337 -6.121933
0001e0 df 07 1d bf b3 6a 64 40 a5 82 37 bf 8a d9 3e 3e
       -0.61340135 3.5690124 -0.7168372 0.18637672
0001f0 ac f8 12 bd dc 35 73 bf 08 d5 fd bd b4 09 90 be
       -0.035881683 -0.9500406 -0.12394148 -0.28132403
000200 b5 61 a2 be f0 5b 25 40 94 b6 03 3f 33 1b 78 bd
       -0.3171517 2.5837364 0.5145047 -0.060572814
000210 3b c0 89 3f a9 cd 09 3f 50 70 a1 3f 4f 0a 2a 3d
       1.0761789 0.5382944 1.26124 0.041513737
000220 10 1a f5 bf 37 a7 1f 3e 2d 67 68 bf 4e bf 91 be
       -1.9148579 0.15591131 -0.90782434 -0.28466266
000230 ff bf f5 bc 2f df f8 be 17 ba 35 3f d7 5a c7 3e
       -0.029998777 -0.48607776 0.70987076 0.38936493
000240 4d 7c a3 be 53 90 b5 3f 92 7d b4 3d 36 22 a9 bf
       -0.3193077 1.4184669 0.08813013 -1.3213565
000250 a5 f1 16 bd ec bd 44 3c 04 5a d4 3d 82 c3 32 be
       -0.036851544 0.0120081715 0.103687316 -0.17457393
000260 03 a6 56 bf 8a 69 06 be c8 9c a2 3c 19 9a d4 3f
       -0.83847064 -0.13126197 0.01985015 1.6609527
000270 70 b9 b1 c0 4d 79 7d 3e 72 2c 73 be 1f 0b d4 bd
       -5.5538864 0.24753304 -0.23747423 -0.10353684
000280 a1 b5 31 3d a2 40 50 3e 72 9a 4a bf b7 00 9d bd
       0.043386105 0.20337155 -0.79141915 -0.07666152
000290 74 62 a9 bf 8d 06 b5 3e a2 97 81 3e 30 4f 30 3f
       -1.323317 0.3535656 0.25311 0.6887083
0002a0 04 26 99 be 04 54 fe be 3e 5c 16 3e b6 8e 86 3f
       -0.29911816 -0.49673474 0.14683625 1.0512302
0002b0 55 d9 d0 be 63 71 4e 3f d7 f7 39 3e dc f3 39 3f
       -0.4079081 0.80641764 0.1816095 0.72637725
0002c0 ba 67 36 3e 84 01 42 3d 93 52 39 3f a6 0c 53 3f
       0.17813006 0.047364727 0.72391623 0.82441175
0002d0 2a 09 de be d8 8e 91 3f ba 9e e5 3f a8 55 2f 3e
       -0.43366367 1.1371717 1.7939065 0.17122519
0002e0 5b b9 ea 3e 61 71 81 3e 68 62 81 3f 6d 74 a1 bf
       0.4584454 0.25281814 1.0108156 -1.2613655
0002f0 22 94 b8 3e b4 5c 62 be 8a 09 39 3e ee f5 50 3f
       0.36050516 -0.22105676 0.18070045 0.8162526
000300 60 04 b6 3f 3f 9f a1 bf e4 11 b2 3e f0 3f da 3e
       1.4220085 -1.2626723 0.34779274 0.42626905
000310 70 56 48 3f 80 2e 8d 3f 78 29 6b 3f 8a 52 71 bf
       0.78256893 1.1029816 0.9186015 -0.9426657
000320 71 0f 98 bf 11 12 08 3e c7 82 f5 be 79 78 3f bf
       -1.1879712 0.13288142 -0.47951338 -0.747932
000330 f1 37 f9 3c d8 b1 f0 3e c2 aa 64 3d 2a db 21 3f
       0.030422183 0.47010684 0.05582691 0.6322504
000340 17 5a 57 3f 56 55 9e be d9 15 49 c0 7a 7b 03 3e
       0.8412184 -0.3092448 -3.1419585 0.12840071
000350 2a e7 3c be 59 68 e4 3e 3c a1 10 3f 8f 56 37 40
       -0.18447557 0.4461086 0.56496024 2.864658
000360 e0 98 f5 3c c5 d1 88 bf 37 95 68 3e f5 5a f6 3f
       0.029980123 -1.0689017 0.22713171 1.9246508
000370 63 6a ae 3e c9 e2 3c c0 ee b8 40 3f 97 94 90 3e
       0.34065542 -2.9513419 0.7528218 0.28238365
000380 36 73 07 3f 5d 3d b1 bf 41 5f a2 3f af c1 a1 c0
       0.5291017 -1.3846852 1.2685319 -5.054893
000390 82 67 eb 3e 70 06 b8 3f 81 bb 74 bd f5 d0 33 3f
       0.45977408 1.4376965 -0.05974913 0.7024072
0003a0 68 15 3f bf ff 45 3b 3f 58 f5 a8 3e 06 9a 69 bf
       -0.7464204 0.7315368 0.32999682 -0.91250646
0003b0 47 bb d6 be 2f d4 47 bf 7f c3 b9 3e 12 64 6d 3e
       -0.41939756 -0.7805814 0.36281964 0.23182705
0003c0 40 e0 aa 3f 64 d2 32 3d 20 7c 64 bf 34 05 23 40
       1.3349686 0.043657675 -0.892519 2.5471926
0003d0 96 c6 4d bc 1a db a0 be 3b 8b 9c 3e 29 95 88 3f
       -0.012559554 -0.3141716 0.30574974 1.067052
0003e0 35 38 92 3d 7e 63 22 be 6e 26 e2 3f 1c b2 ba 3e
       0.07139627 -0.15858266 1.7667978 0.36464012
0003f0 85 88 09 3e 44 b9 11 40 eb 8b b7 3d a4 dc 6e 3d
       0.13430984 2.2769327 0.08962234 0.058315888

predict/MobilenetV2/expanded_conv_3/expand/Conv2D;predict/MobilenetV2/expanded_conv_3/expand/Conv2D f4 [48, 1, 1, 8]
000000 cd 41 b3 bd 23 cf 04 36 f2 db c0 ba e1 52 50 3d
       -0.08752785 1.9790102e-06 -0.0014713986 0.05086029
000010 96 4f c9 bc 3f a8 e9 3c ee cf 8a 3c a3 82 a9 bc
       -0.024574082 0.028522609 0.016944852 -0.020692175
000020 cd e3 39 3d 0d 70 e7 3d c4 09 94 3d cf 6e 03 3d
       0.045383263 0.11300669 0.07228425 0.032088097
000030 1e 1f ca 3c b3 45 86 bd dc aa 24 3e 92 26 49 3e
       0.024673041 -0.06556263 0.16080803 0.1964362
000040 54 08 a7 bc 7d f7 26 ba a8 e2 57 3a 9c 8e a5 b9
       -0.020389713 -0.0006369276 0.00082353735 -0.00031577505
000050 3d 61 85 bd 6b 27 e1 bb 72 1a c2 3b 11 48 c2 3a
       -0.06512687 -0.006871154 0.0059235627 0.0014822503
000060 b0 5f 5b 3d 8a b7 db ba 8f c2 dc bb 8d af 87 bd
       0.05355805 -0.0016763073 -0.0067370604 -0.066252805
000070 f4 d4 8b bd 9e ce 19 3c b9 74 9b 3c aa 0b 22 bc
       -0.06827727 0.00938764 0.018976556 -0.009890476
000080 1d e4 64 bd c4 53 a3 3c eb 12 e0 bb 9e 92 95 bb
       -0.05588161 0.019937404 -0.0068381927 -0.0045645973
000090 d0 54 fe 3c ce 59 bb bb 48 4a a3 3c 5b ed 16 3c
       0.031046301 -0.0057174927 0.019932881 0.009211863
0000a0 80 32 4b bd bf 64 58 bc 8f 91 25 3c b9 9b 95 bb
       -0.049608707 -0.0132076135 0.010105505 -0.0045656827
0000b0 0a 95 7c bd c3 81 83 3b e6 e4 92 3b ff 56 29 3d
       -0.061665572 0.0040132715 0.004482853 0.04134273
0000c0 ec 5b 5f bc 3e ec e0 bd 48 4a b4 3c 22 55 71 bc
       -0.013632756 -0.109825596 0.022008076 -0.01472977
0000d0 b8 c6 39 3c c6 6e 38 3b a3 11 18 bb dd 86 ec 3c
       0.011338882 0.0028142198 -0.0023203872 0.028872902
0000e0 07 2d e9 bc 01 02 ed ba 69 ab ad 3a 7d 6c 34 3d
       -0.028463854 -0.0018082262 0.0013249937 0.044048775
0000f0 79 9c 61 3d c8 eb 6b bc 50 36 79 bc 9e b8 31 3b
       0.055080865 -0.014399476 -0.015210703 0.0027118097
000100 44 b4 50 3d 4f 99 27 3b 76 91 c6 3a 7c 56 b3 bd
       0.050953165 0.0025573557 0.0015149552 -0.0875673
000110 6d 83 16 b8 fc a2 83 bc ec 03 fc bc 27 4e bf bc
       -3.5885187e-05 -0.016068928 -0.030763589 -0.023352696
000120 f5 66 04 bc 53 70 40 be 83 cf 3d bc 44 0f e6 bb
       -0.0080811875 -0.18792848 -0.011585119 -0.007020863
000130 18 54 87 3b 3e 9b 02 3e 73 ad 9d bd 1c bf 01 3e
       0.004129898 0.12754533 -0.076990984 0.12670559
000140 45 c8 27 be 4d f4 1c bc df eb 0b bb 69 56 1f 3d
       -0.1638499 -0.00957973 -0.0021350307 0.038900767
000150 c8 be 62 be bc 93 fe 3d 7b 5f e0 3d 12 28 e9 bc
       -0.2214309 0.12430522 0.109557115 -0.02846149
000160 d8 d7 82 3d 0c ff b7 3b 2d fb b5 3c 13 e2 ef 3b
       0.06388825 0.0056151208 0.022214497 0.0073206513
000170 9c e4 04 bd 9c 14 c8 bc b5 7a 95 bc b0 fc 8f bd
       -0.03244458 -0.02442389 -0.018246988 -0.07030618
000180 a2 69 58 b9 c3 e4 2b 3c 3f 22 fe 3c 89 1a a6 bb
       -0.00020638717 0.010491553 0.03102219 -0.005069081
000190 0e 5a f5 3b 73 bf 6a bd 48 42 c0 3d f4 77 3e 3d
       0.007487542 -0.057311486 0.09387642 0.046501115
0001a0 21 5e ae 3d 7e 05 0e bd d8 03 0a bc f3 b2 93 bc
       0.085140474 -0.034673207 -0.008423768 -0.018029666
0001b0 46 87 24 3e 71 b9 26 3e 11 e0 1c 3e 72 6a 60 bd
       0.16067228 0.16281678 0.1531985 -0.054789014
0001c0 41 a3 0a 3d b6 94 77 3c 08 cb 5a bb 9a 87 a2 3b
       0.033847097 0.015111139 -0.0033385176 0.0049600126
0001d0 d1 39 dd bc e3 e9 a2 bb a9 6a ec bb bd e9 a8 bb
       -0.027005108 -0.004971729 -0.0072148633 -0.005154817
0001e0 58 e6 40 bc 4a 22 cf bd 1a f1 4a 3c e1 94 2e bc
       -0.011773668 -0.10113962 0.012386585 -0.010655613
0001f0 ed 9f 53 3b 42 a3 3d 3b 42 c5 86 3b 15 b4 e7 3c
       0.0032291368 0.002893642 0.0041128704 0.028284112
000200 f0 84 d7 bc 85 07 f4 bb 13 a1 02 3b 8b de 3b ba
       -0.026308507 -0.0074471855 0.0019932433 -0.00071666454
000210 cb 8c 83 bd bf 14 35 b8 a3 23 e4 3b cd 52 00 3b
       -0.064233385 -4.3173084e-05 0.006962256 0.0019580603
000220 7a 74 96 bc 46 a8 92 3d 0b cc a3 bd 26 e5 0e 3b
       -0.018366087 0.07161002 -0.079979025 0.0021804064
000230 92 73 08 3c 11 1b b5 bd 4d 1f 9a 3d 06 89 79 bd
       0.008328335 -0.08843053 0.075255014 -0.06092169
000240 a4 d4 64 3d b4 90 46 bc f6 67 9b bc 1b 22 cb 3b
       0.055866852 -0.012119461 -0.01897047 0.006199134
000250 77 c8 d6 bc 6c 93 3e 3c e9 3c a5 3b e9 1a 38 3d
       -0.026218636 0.011631828 0.0050426614 0.04494754
000260 2e 6e 8a 3d bb 7f d9 bc 3b 97 37 bc f2 b2 4c bb
       0.06759296 -0.026550164 -0.01120549 -0.003123459
000270 5e 55 ce 3c 94 94 64 b8 9b a8 8c 3c de 7a 76 3b
       0.02518719 -5.449781e-05 0.017170241 0.0037609856
000280 e3 c0 a4 3d cf 13 74 3c 83 c7 2d bc 83 fb 9c 3d
       0.08044603 0.014897301 -0.010606649 0.076651596
000290 12 2f be ba 29 54 b5 3c b4 b7 a8 3a 3c c2 12 bd
       -0.0014509878 0.022134857 0.0012872131 -0.035829768
0002a0 11 e4 6d 3b 95 ed 62 3c a0 6a da bc 5a 07 1b 3b
       0.0036299268 0.013850589 -0.02666217 0.0023655505
0002b0 09 84 27 bc 41 95 22 3d 10 3d 64 bd c2 06 1b bd
       -0.010224351 0.03969312 -0.055722296 -0.03784824
0002c0 93 6e b4 bd 53 bf 78 3c a4 2b aa 3c 28 4a 65 bb
       -0.08810153 0.015182334 0.020772763 -0.0034986828
0002d0 64 34 bc bc 91 20 67 3a ee d8 13 bd c3 11 90 bc
       -0.0229742 0.00088168035 -0.036095552 -0.017586594
0002e0 aa 54 43 bc 83 26 8d bc dc 23 ec 39 85 15 d9 3b
       -0.011922041 -0.017230278 0.00045040145 0.00662488
0002f0 ab de 1b bd c0 1d 9b 3c 56 e5 ba 3c f5 8a 9f bb
       -0.03805415 0.018935084 0.022814434 -0.00486886
000300 6b 49 8b 3d fc f7 84 bb 16 d3 b3 bb 1c 1f 54 bb
       0.06801113 -0.0040578824 -0.00548781 -0.0032367175
000310 dd fc 41 bd 4c e8 a2 bb 87 84 46 3a dc 3e a0 3b
       -0.04736029 -0.0049715396 0.00075728487 0.004890306
000320 d6 cd 53 3c a4 91 f4 bb 79 c3 ab 39 10 d2 5c bc
       0.012927493 -0.007463651 0.000327613 -0.013477817
000330 6e 4e 8f 3d f0 d1 e9 3c 9b 4c e6 3c ce 4f 96 bc
       0.06997381 0.028542489 0.0281127 -0.0183486
000340 fc 62 46 b9 b1 03 96 be 41 4c 5f 3c 60 31 e8 bd
       -0.00018919626 -0.2929969 0.01362902 -0.113375425
000350 55 69 81 3c a4 f5 bf be ef 4f 73 3e 1b 51 1b be
       0.015797297 -0.37492096 0.23760961 -0.15167658
000360 1f e6 4d bc ad 18 bb bd 04 b8 93 3c 04 f7 23 bc
       -0.012567072 -0.09135566 0.018032081 -0.010007624
000370 26 f7 12 bb f2 00 25 bd fd 1e bc 3c 27 ca b9 bb
       -0.0022425144 -0.040284105 0.022963995 -0.0056698504
000380 1d 24 1b bd 6d 23 61 3c 54 1b 26 bc f0 75 b7 3b
       -0.037876237 0.013741356 -0.0101383515 0.005598776
000390 6d 52 bb bb 3b 17 32 bc a0 00 47 3d e4 f5 17 3d
       -0.005716613 -0.010869796 0.04858458 0.037099734
0003a0 dc 6c 2c bc 1e 39 10 3d c1 bc 46 3c 61 b8 8f 3b
       -0.010524001 0.03521072 0.012129963 0.0043859934
0003b0 6b 7c 89 b9 8a 12 0a 3d 33 6e ac bd 07 ed d4 bd
       -0.00026223375 0.033709086 -0.08419456 -0.10396772
0003c0 64 9c 87 3d d7 70 84 bc 04 d2 82 ba ed d4 8f 3b
       0.06621626 -0.016167087 -0.0009980802 0.0043893964
0003d0 5a ae 2d bd 6e 68 d3 3a 15 71 c0 bc 9d 13 3c bc
       -0.042402603 0.0016129145 -0.023491422 -0.011479286
0003e0 cf 85 7e bb 70 ea 2d bc 82 c0 cc 3c 9f df cd bb
       -0.003883708 -0.010614976 0.024994139 -0.006282761
0003f0 ac c7 e3 3b b3 da 35 bd fc d0 49 3d 28 52 d9 3c
       0.006951293 -0.04439802 0.04927157 0.026528433

predict/MobilenetV2/expanded_conv_2/project/Conv2D;predict/MobilenetV2/expanded_conv_2/project/Conv2D f4 [8, 1, 1, 48]
000000 81 98 7c bf 7b 75 63 be e3 b9 29 bf f6 62 96 3e
       -0.986702 -0.22212784 -0.66299266 0.29372376
000010 3e 3c d2 3d 6b 9c ef be 28 68 45 3b 0b e7 f3 3c
       0.102653965 -0.46799025 0.0030121896 0.029773256
000020 75 49 09 c0 e2 89 16 40 c0 e2 36 bf be 4f 08 40
       -2.1451085 2.3521657 -0.71439743 2.129867
000030 af ed 0a 40 47 b8 0c 3e 42 3d ab 3f a8 da b6 be
       2.170757 0.13742171 1.3378069 -0.35713696
000040 78 83 05 be db 3d 1d bf d2 3c 00 3e f1 9b 9a 3d
       -0.13038433 -0.6142251 0.12523201 0.07549275
000050 19 11 1a be 58 09 d2 bd 9a 7f d3 be 26 a3 23 bf
       -0.15045585 -0.102556884 -0.4130829 -0.6392082
000060 45 5e de 3e 80 9e e1 bf 27 a0 43 3e 65 af 9a 3f
       0.43431297 -1.7626495 0.19104062 1.2084776
000070 d8 5f 69 be 6a 02 47 3e ef a2 b1 3e 67 e3 32 bf
       -0.22790468 0.19434515 0.3469462 -0.6987824
000080 39 e3 58 bd eb fb b8 bf e3 52 00 40 e9 78 b9 3e
       -0.05295107 -1.4451879 2.005059 0.3622506
000090 ae c7 44 bd 13 ad e1 bd ee ad d4 bd 48 17 a9 be
       -0.048041992 -0.110193394 -0.10384737 -0.33025575
0000a0 1e 3e 09 40 55 64 92 bd 8e 9e 5f 3f 21 5e e4 be
       2.1444163 -0.07148043 0.8735131 -0.44603065
0000b0 8e 2e 13 bf dc 79 eb 3e 77 fa a2 be b2 5e af be
       -0.5749291 0.4599141 -0.31831715 -0.34251934
0000c0 9f 07 41 bd 54 c8 90 3f 5c d9 8a 40 61 ff 35 3e
       -0.04712641 1.1311135 4.339033 0.177732
0000d0 4a aa 1e be 48 c6 55 bf 0b e0 36 3d 10 86 35 c0
       -0.15494648 -0.8350568 0.044647258 -2.8363075
0000e0 53 76 7a 3f 6f c3 40 bd f6 ff 41 3f 7b 44 41 3e
       0.978368 -0.04706138 0.7578119 0.1887378
0000f0 cc 40 32 bf 40 78 6f 3e 3f 02 43 be 46 5c 81 c0
       -0.6963012 0.23385715 -0.19043826 -4.042514
000100 51 c8 b3 3e 97 49 ef bf 1c dc 9a 3e 5c f1 1e 3e
       0.35113767 -1.8694333 0.30246055 0.15521759
000110 80 b8 61 bf bf 4a 8d 3f c9 ea 4d 3f 13 ba 95 bf
       -0.8817215 1.1038436 0.8043638 -1.169741
000120 e3 73 1c bf 66 be 8b be e6 48 f1 3e 48 64 05 3d
       -0.6111433 -0.272937 0.4712593 0.03256634
000130 c3 bc c9 3e f6 b6 39 be fa b1 da 3e 3a d1 3e bd
       0.39401826 -0.181362 0.4271391 -0.046586253
000140 fe f1 20 be fc ff d7 3e d5 39 0b 3f e0 09 d9 3e
       -0.15717313 0.42187488 0.5438512 0.42390347
000150 94 e8 d1 be c5 71 91 bf fa 62 0e 40 86 4d f9 bf
       -0.40997756 -1.1362845 2.224791 -1.9476783
000160 99 49 c3 3e f5 6c 9e 3f 0d 6d b8 be 26 4c 60 3f
       0.38142088 1.2377001 -0.360207 0.87616193
000170 b9 01 fe be 87 76 93 3e e2 75 58 3f 0d c0 43 bd
       -0.4961069 0.28801367 0.84554875 -0.047790576
000180 98 a4 a4 3e 31 d6 4f c0 f3 5e 8f 3f cb 50 35 c0
       0.32156825 -3.2474482 1.1200851 -2.8330562
000190 f2 e1 0c 40 97 8e e2 3f 4d 81 d3 be 10 34 f7 bf
       2.2012906 1.7699765 -0.41309586 -1.9312763
0001a0 7a 75 db 3e db 70 5c bd 8c 98 20 be cd 43 6c 3f
       0.42863065 -0.053818565 -0.15683192 0.92290956
0001b0 87 63 2c bf 10 98 77 40 d9 74 be 3e 97 50 ab bd
       -0.67339367 3.8686562 0.37198523 -0.08364981
0001c0 a7 69 20 c0 6e 6e 06 41 eb d9 d2 bf db 7d 11 c0
       -2.5064485 8.40196 -1.6472753 -2.2733066
0001d0 1b 3a 81 bf 61 7e bc 3f 01 c0 22 c0 9b e5 20 bf
       -1.0095857 1.4726068 -2.542969 -0.6285035
0001e0 0b be 00 41 bf 0c e4 3d 0f 59 e2 bc 18 c8 e1 be
       8.046397 0.111352436 -0.027630357 -0.44097972
0001f0 dc 34 f4 bf a5 75 10 bf 4a 45 12 3e 8b a2 2c c0
       -1.9078631 -0.5642951 0.14284244 -2.6974208
000200 73 0f 0f bf f6 85 74 bf 20 25 37 3d 94 8f 2e 3f
       -0.5588295 -0.9551691 0.04471314 0.6818783
000210 d7 e7 27 bf 9d 4d f4 bd 3a 53 66 bf 32 b2 f6 3e
       -0.65588135 -0.11928866 -0.89970744 0.48182827
000220 f5 97 86 3f 49 34 a9 bf e5 76 9d bf 8b 42 b1 bc
       1.0515124 -1.3219081 -1.2301909 -0.021638175
000230 2c ca ed 3d 26 9b d9 3f e2 6c d2 bf 96 45 27 c0
       0.11610827 1.7000473 -1.6439478 -2.6136222
000240 61 65 60 3d c3 fc bb c0 ad df 1d be cf 70 03 3f
       0.054784182 -5.8746047 -0.15417357 0.5134401
000250 55 97 69 3e d0 51 c4 be 03 2c 34 bf 45 59 dd bd
       0.22811635 -0.38343668 -0.70379657 -0.108080424
000260 da 8b fc be e5 9f 54 bf 50 0d 94 3f 0b 31 b4 3f
       -0.49325448 -0.8305648 1.1566563 1.4077467
000270 f8 1e 5d 3f a5 67 1a bf 0b ca 53 40 89 9a 09 3e
       0.8637538 -0.603144 3.3092067 0.13437857
000280 82 84 17 bf 05 b2 b6 bf cc af 69 3e b3 df c2 3f
       -0.59186566 -1.4273077 0.22820967 1.5224518
000290 c6 86 d2 be 90 38 b0 3f ad 7b c5 bf dd 06 59 3e
       -0.4111845 1.3767262 -1.5428368 0.21194024
0002a0 91 01 cb 3e 5a 2d 63 40 88 bc 33 3d a0 af ea 3e
       0.39649633 3.549643 0.04388097 0.45837116
0002b0 40 2e 01 bf 3c 29 a8 3e 5e 73 09 41 cd 99 0f 3d
       -0.50461197 0.3284396 8.590666 0.035058785
0002c0 16 6c 4d 3f 3d 5b fe 3e 0c 18 4e be 80 4c 1b bd
       0.8024305 0.49678984 -0.2012636 -0.037914753
0002d0 64 c7 b5 bf 66 05 77 bf 4a 55 00 bf 1b 45 4e 3f
       -1.4201474 -0.9649261 -0.5013014 0.80574197
0002e0 42 9d 1d bf 44 eb cf 3e fa 1b 24 bf 90 7a ea 3f
       -0.6156808 0.4060918 -0.6410519 1.8318653
0002f0 1d d3 fc be 30 c8 5f 3d a1 ce 48 bd a4 96 13 40
       -0.49379817 0.054634273 -0.04902518 2.3060694
000300 14 9a 55 c0 40 a1 76 3e 48 ac 99 3b 11 10 55 3d
       -3.3375292 0.2408495 0.004689727 0.052017275
000310 14 85 35 3c 51 0a a5 bf 46 ff c2 3c 5e 2a 70 3e
       0.011079092 -1.2893773 0.023803364 0.23453662
000320 56 e1 ad 3f cb a3 a0 bf 5e 94 2d 3f 3f 5d 18 bf
       1.3584392 -1.2549986 0.67804515 -0.5951728
000330 81 af 8a bf 3d bf 28 3d 62 33 d7 be f5 f9 9b be
       -1.083481 0.041198004 -0.4203139 -0.3046414
000340 44 47 a1 3d 2b 44 6a 3e 59 4c 8f 3c 84 40 58 3f
       0.07874921 0.22877567 0.01749246 0.84473443
000350 32 d7 9c 3e e6 16 73 bf 0c 72 ec 3e e9 59 b6 3d
       0.3063293 -0.94956815 0.4618076 0.08903868
000360 a1 08 58 be 13 c0 c2 3f 83 5b 49 3e 72 13 6c 40
       -0.21097042 1.5214866 0.19663815 3.6886868
000370 a0 44 87 3d 81 36 0c 3d 02 90 64 be 35 fa 84 bf
       0.06604886 0.034231666 -0.2232056 -1.0388857
000380 62 0a 6e bc c7 bb 89 c0 e0 90 86 bf 8d 32 be 3e
       -0.014528843 -4.304172 -1.0512962 0.37147942
000390 37 c3 c3 3d 90 db 4d be e8 08 57 3d 3c ba 0e 3d
       0.09558719 -0.20103288 0.052498728 0.034845576
0003a0 76 90 da bf 08 ba 3e be d3 6f c5 be 08 2c 0f 3f
       -1.7075336 -0.18625653 -0.38561878 0.5592656
0003b0 0e 7d f7 bf 5c e5 ed 3d b3 72 48 3e be b8 58 3e
       -1.9335039 0.116160125 0.19575004 0.21164224
0003c0 31 71 28 bf 13 db 34 3f 9c b5 1c 3f 0b c4 3a 3e
       -0.65797716 0.7064678 0.61214614 0.18238847
0003d0 d5 7c a5 bf cd 48 98 3e 70 7d ad bd ec 4e a3 3f
       -1.2928721 0.29743043 -0.08471191 1.275846
0003e0 57 3c 15 3f aa ce e9 3d 70 6c bd 3e 82 f0 3b 3e
       0.58295196 0.11416371 0.36996794 0.18353465
0003f0 3b ba 10 be ae 0d 9d bf 0e 9e 4f 3e 98 c2 75 3f
       -0.14133541 -1.22698 0.20275137 0.9600005

predict/MobilenetV2/expanded_conv_2/expand/Conv2D;predict/MobilenetV2/expanded_conv_2/expand/Conv2D f4 [48, 1, 1, 8]
000000 47 e4 70 3c 59 ec b8 3b f6 5c 90 b9 f1 10 bd ba
       0.014702863 0.005643409 -0.00027535082 -0.0014424605
000010 17 76 c7 3c 0d 3b a2 3b 98 85 15 bc 0e db 98 bb
       0.024348302 0.004950887 -0.0091260895 -0.004664785
000020 74 3c 8e bb 84 7e c2 ba 36 17 c2 3a c5 5a c5 3d
       -0.0043407027 -0.001483873 0.0014807943 0.096364535
000030 b9 ab e1 3b ba 5a 90 bb a8 48 9c 3b 49 fc 39 3c
       0.006886926 -0.0044053467 0.0047694035 0.011351653
000040 ea d7 82 3c 4d b1 96 bd b0 60 32 bc cf e7 bd 3c
       0.015972096 -0.07358036 -0.01088731 0.023181824
000050 7e e7 56 bb 4b 79 1d bd 67 23 38 3d c8 ae ea 3b
       -0.0032791789 -0.038445752 0.044955637 0.007161949
000060 24 bc 03 3e 5c 7a 01 bd 0f b4 02 bc cc 02 86 3c
       0.12864739 -0.03161083 -0.0079775 0.016358756
000070 4f e0 1d bc 33 fe 0c bd fc 7f f1 3c 3a b8 d2 3b
       -0.009635999 -0.03442211 0.029479973 0.006430653
000080 1f 79 00 3d b8 77 21 be cf f7 db 3e b6 bf 27 bd
       0.03136551 -0.15768325 0.429625 -0.040954314
000090 10 fe 0e bd 92 47 24 be ed a9 28 3d ab e7 a1 be
       -0.03491026 -0.16042927 0.04117768 -0.3162206
0000a0 a9 0b ae 3d 43 67 35 3b 01 1d 08 3b 70 40 8f bb
       0.08498318 0.0027679957 0.002076924 -0.004371695
0000b0 ea 64 23 3e 01 d3 93 3c 83 b2 48 bc a5 0b 38 ba
       0.15956464 0.01804495 -0.012249592 -0.0007020778
0000c0 ef 1d 0b bd 3d 08 5a 3e 4e 5d f5 bc 9b 7f 95 3e
       -0.033964094 0.21292205 -0.029951718 0.29198918
0000d0 ff a6 76 3d 6c 9b ed 3d dd de 28 be 20 a1 fd bd
       0.060217854 0.1160191 -0.16491266 -0.12384248
0000e0 64 9d 83 bc ba 7b b6 3e 36 94 20 bc bc da e4 3b
       -0.01606626 0.3564127 -0.009800961 0.006984083
0000f0 2d a0 35 3a a9 bb 1a bd 74 16 2b 3d 0e 3c bc bb
       0.000692847 -0.037776623 0.04176946 -0.0057444638
000100 cf fe 44 3e e3 4d 9c 3d 83 a8 cf bb ad 76 15 3c
       0.19237827 0.07632043 -0.006337227 0.009122533
000110 b0 8d 9c bd b9 2c 0d bd 19 ab 50 ba 78 23 63 bd
       -0.07644212 -0.03446648 -0.0007960066 -0.055453748
000120 be 7b 3c be 9c 81 a3 3c 5f cf 12 3c 64 17 ea 3c
       -0.18406579 0.019959264 0.008960574 0.028575607
000130 23 30 9c 3d a4 6a 75 3c d9 01 39 bc 25 04 1b 3b
       0.07626369 0.014979038 -0.011291944 0.0023653593
000140 72 4c f5 bd a9 1d 5a bc ac da b4 3c 2a f8 59 3e
       -0.119774714 -0.013312736 0.022076927 0.21286073
000150 74 97 85 3d d1 3a 3d 3d 72 3f d4 bc e8 f6 9c bb
       0.06523028 0.04619867 -0.02590916 -0.0047901757
000160 7c 80 1a be 9d 16 4e 3a 97 3e 64 3c 2b 19 9c bd
       -0.15088075 0.0007861646 0.013930938 -0.07621988
000170 47 80 24 3d c6 5e 01 3c 35 f8 d8 bc 39 f8 5c bd
       0.040161397 0.007896131 -0.026485542 -0.05394766
000180 7d 23 2b 3e 28 64 04 3d 73 c1 27 3b ec 5d af 3c
       0.16712756 0.03232208 0.0025597482 0.02140709
000190 87 21 79 bd 34 cf 82 bc fe 38 c1 3b d3 94 70 bd
       -0.06082299 -0.015967943 0.0058966866 -0.05873568
0001a0 e8 33 73 bc 05 b9 cd 3d 1c 0c 2a be c6 3f 2a bc
       -0.014843918 0.10045055 -0.16606182 -0.010391181
0001b0 ca 79 d5 3b 0a 77 07 3e 39 1c c1 bd e9 3b c7 3d
       0.0065147625 0.13229004 -0.09429211 0.09728224
0001c0 9e 2b 8b bd 92 28 16 bd ec b8 92 bc aa 71 34 3e
       -0.06795429 -0.036659785 -0.017910443 0.17621484
0001d0 25 e0 ea 3c 0b 36 5a 3c 19 7e 00 bc 11 02 0d bd
       0.028671334 0.013318549 -0.007842564 -0.0344258
0001e0 0a 9c 6a bc 34 9e 0e 3f b9 fc e2 3b 76 4c 5f bc
       -0.014319429 0.5571015 0.0069270995 -0.01362907
0001f0 bc e7 d4 ba d0 4c 86 bd 58 9c 37 3d a3 50 62 be
       -0.0016243379 -0.065576196 0.044826835 -0.22101073
000200 e0 a6 09 bc 59 a1 bf bd 55 c4 76 bc c9 06 36 3b
       -0.0084016025 -0.093569465 -0.015061458 0.002777504
000210 f5 ff cf bb 4c 48 a9 bd be 26 b0 3d 57 6c ab bc
       -0.006347651 -0.08265743 0.086011395 -0.020925684
000220 a1 c9 89 3c 21 ec df 3d 7d 58 81 3a bf 3a 2a bc
       0.016819777 0.1093371 0.000986829 -0.010389983
000230 86 da a6 3b 65 66 88 3d 7f f9 97 bd 4f 02 83 bc
       0.005091968 0.06660155 -0.074206345 -0.015992312
000240 ed 2c 19 bd 30 f3 52 3e d8 eb 19 bf e4 ae 93 bb
       -0.03739636 0.20600581 -0.60125494 -0.0045069326
000250 46 8e 1b 3d 57 ab 83 3e cb d7 1b be 66 98 97 3e
       0.03797748 0.2571666 -0.15219037 0.29608458
000260 70 f2 9a bc 59 64 94 3b 70 60 09 3a 83 0c 92 39
       -0.018914431 0.004528564 0.00052405056 0.00027856612
000270 61 f9 04 bd 1c 08 31 3a 65 ee b4 3b ff 32 d5 3b
       -0.03246439 0.00067532226 0.005521583 0.0065063233
000280 8c ae b1 bd 59 ba 7e bc f6 5d 08 ba 01 fe f5 39
       -0.0867587 -0.015547358 -0.00052019896 0.0004691929
000290 fa 0b 51 3d 6c 44 a6 bc 67 94 e8 3c 14 15 04 3a
       0.051036812 -0.020296298 0.028391076 0.0005038541
0002a0 12 4a 6b bd 45 06 1c bb 00 b5 f6 ba ad 0a ba 3a
       -0.057443686 -0.0023807448 -0.0018822253 0.0014193855
0002b0 b8 de e8 bd 89 5a 65 bb b0 6a 86 3c 42 be b1 3b
       -0.11370605 -0.003499659 0.016408294 0.005424292
0002c0 65 14 14 be 39 11 e6 bc 31 42 57 38 c1 8c 52 bb
       -0.14460905 -0.028084384 5.132164e-05 -0.0032127353
0002d0 c6 05 c7 3d 92 2b 91 bc f8 55 28 3d 39 ca 69 3d
       0.09717898 -0.017720971 0.04109761 0.05707762
0002e0 5e e3 46 bd b7 a3 69 bd 7f ab 84 bc e0 ba 9e bc
       -0.048556678 -0.057040896 -0.016195057 -0.019376218
0002f0 f6 4d a7 bb a1 e8 47 3e 85 64 9a be 17 52 5b be
       -0.005105729 0.19522335 -0.30154815 -0.21418034
000300 e8 9c e0 bb 38 36 08 3d 59 ab d5 bd 03 49 25 3b
       -0.006854642 0.033254832 -0.104330726 0.002522052
000310 52 70 f3 3b 0e 7f 1e 3d c1 87 7d bc 52 49 7e 3d
       0.007429161 0.038695388 -0.015474261 0.062081642
000320 9e ac 62 3d d1 22 ab bc 1f 9b 2a ba c9 5d 91 3d
       0.0553404 -0.020890625 -0.00065081 0.07097966
000330 0e e4 2b bd 72 f5 dc bb 20 e5 b5 3b 2d a0 e0 bc
       -0.041965537 -0.0067431265 0.0055509955 -0.027420128
000340 80 6b 9f 3a c8 60 00 bc 58 fa 96 ba 28 f6 89 39
       0.0012162775 -0.007835574 -0.00115187 0.00026314077
000350 62 d2 6b bb 66 1c 3e 3d 59 fe 47 3d 54 e5 34 bc
       -0.0035983552 0.0464138 0.04882655 -0.011041004
000360 0a 13 87 3d aa f0 f8 bb d6 41 14 bb 1b b9 44 3c
       0.06595428 -0.0075970488 -0.002262225 0.012007023
000370 33 a2 f5 3d 41 c3 db 3c 40 e6 07 3d 60 a6 96 bc
       0.11993828 0.026826503 0.033178568 -0.01838988
000380 ca 88 3d b9 95 b0 7d 3e 6d a4 09 be 54 21 1a 3c
       -0.00018075402 0.24774392 -0.1344163 0.00940736
000390 b0 c5 36 3c 65 7d 21 3e 75 35 70 bd 99 8b 75 3e
       0.011155531 0.1577049 -0.05864473 0.23979034
0003a0 57 10 99 bc f4 eb ed 3c 2a c6 32 bc 82 df 9c bc
       -0.01868455 0.029043175 -0.010911504 -0.019149546
0003b0 08 42 72 bb 06 a3 58 3e db 8e 9b be 6b 89 50 be
       -0.0036965627 0.21155939 -0.30382428 -0.20364921
0003c0 31 85 96 3b 58 1d e2 bb 8e e8 3b 3a 39 c9 2b be
       0.0045935144 -0.0069004707 0.0007168137 -0.16775979
0003d0 80 4c f9 bb 8f 66 eb 39 34 2f 8a bb 43 a3 91 bc
       -0.0076079965 0.00044899105 -0.004217053 -0.017778045
0003e0 8b 37 84 bd f2 ef 80 3b 37 06 35 3b 8d ba 03 3b
       -0.064559065 0.0039348537 0.0027622113 0.0020100207
0003f0 4a 51 fd bd a2 95 04 3c 4b fa 50 3c 3b 29 a1 38
       -0.1236902 0.008092316 0.012754987 7.684758e-05

predict/MobilenetV2/expanded_conv_1/project/Conv2D;predict/MobilenetV2/expanded_conv_1/project/Conv2D f4 [8, 1, 1, 48]
000000 f7 a0 28 bf 2b 51 24 bd e3 30 06 3f 07 8c a4 c0
       -0.6587061 -0.04011647 0.52418345 -5.142093
000010 a6 71 09 3f f6 56 ba 3f 0d db a6 3e a9 18 b6 3e
       0.5368904 1.4557788 0.32588997 0.3556569
000020 75 af 20 3e cb 8c 9f 3e ed b0 0a 3e 3c 46 8f be
       0.15691932 0.31162104 0.13544054 -0.27983272
000030 89 a1 ac 40 af ae 58 1c 5f e3 3a 3d 81 c9 9f 3e
       5.3947186 7.169418e-22 0.045626994 0.31208423
000040 73 55 38 9d 8c 77 f0 be 09 95 9d be 23 d9 2a 3c
       -2.4396373e-21 -0.46966207 -0.30777767 0.010427746
000050 60 97 89 40 e7 f3 59 be cd 5a 84 bc 08 ae 82 3e
       4.2997284 -0.21284448 -0.016156578 0.255234
000060 39 88 cf 3f 90 aa ff 3f eb f9 35 3f 6e 9f 27 3f
       1.6213447 1.9973927 0.7108447 0.65477645
000070 04 06 86 3e 25 2b 79 3e 33 89 25 3e c7 e2 e1 c0
       0.26176465 0.24332865 0.16165619 -7.058933
000080 92 7a 14 3f b2 02 ad 3e 9d 98 0b bd 5a 26 74 3c
       0.5799953 0.3379112 -0.03408109 0.014901722
000090 9d 4a c5 bf 01 0e 91 3d 29 1a 5d bf eb 79 eb 3f
       -1.5413395 0.07082749 -0.8636804 1.8396581
0000a0 ed d6 e5 3e a3 28 bc bf 95 40 ee be 7f 07 84 3e
       0.44890538 -1.4699901 -0.46533647 0.2578697
0000b0 8a c6 ff 3d 50 0f b8 bd fb 3c 6a 3e 76 94 0d 3e
       0.1248904 -0.08987296 0.22874825 0.13826165
0000c0 c4 4f 82 bf f4 ba 5a be 1f b0 91 bd 01 f7 26 be
       -1.0180593 -0.2136038 -0.071136706 -0.16305162
0000d0 b9 db a0 3f c2 09 3f 3f 48 e0 4f bf 46 6e 09 40
       1.2567054 0.74624264 -0.812016 2.1473556
0000e0 97 85 13 3f 57 c1 2c 3e aa cd 5e bf 19 4e 22 bf
       0.57625717 0.16870628 -0.8703257 -0.6340042
0000f0 97 82 aa 3e 4c 62 e6 1b fc 1e 03 3f ae 25 85 3f
       0.33302757 3.811383e-22 0.51219153 1.0402124
000100 0d 9c 4b 1b 01 82 92 3f f8 36 02 3f b2 00 aa bf
       1.6842189e-22 1.1445924 0.50865126 -1.3281462
000110 cf ca 39 3b 04 8c 19 3f 22 c5 65 40 52 21 12 3f
       0.0028349643 0.5997927 3.590157 0.5708209
000120 73 93 49 bf e5 1b 85 bd f7 93 c2 3f 91 ff cf 3d
       -0.78740615 -0.06499461 1.5201405 0.10156167
000130 b2 66 15 3f 17 4f 95 bd 01 a3 fa 3e 8d 8b a5 be
       0.58359826 -0.07290476 0.48952487 -0.3233303
000140 f4 d5 cd 3e 2c 86 5f be d3 be 6a be 7d b2 15 bf
       0.40202296 -0.21828526 -0.22924356 -0.58475477
000150 e3 a5 20 3e 3f bf c3 bf 73 f2 8a 3e d4 8f ce 3d
       0.15688281 -1.5292739 0.271381 0.10086027
000160 70 77 43 be 87 a5 60 be 00 1c 0f c0 d6 30 5f be
       -0.1908853 -0.21938144 -2.236084 -0.21795973
000170 74 d9 69 bf ec 93 57 3e 0b d5 ae bf 70 29 30 c0
       -0.9134743 0.21052521 -1.3658766 -2.7525291
000180 05 e5 57 c0 ef 9f 61 3f 17 15 49 bd de 72 1b 3f
       -3.3733532 0.88134664 -0.04909238 0.6072215
000190 81 06 22 40 ca e2 25 bf 7a 22 d4 3f 80 6a b7 3f
       2.531647 -0.6479918 1.6573021 1.4329376
0001a0 6c 18 02 bf 0f 74 48 40 c3 cb ef 3e 29 fc a8 be
       -0.50818515 3.1320837 0.46835145 -0.33004883
0001b0 7d 84 2c 3e 76 0f 75 9d 23 fc bb 3e 4b 10 41 40
       0.16847415 -3.2433473e-21 0.36715803 3.0166194
0001c0 4e 63 7e 1d 77 18 2d 3f 16 2a e7 c0 ca 18 ad 3f
       3.366796e-21 0.67615455 -7.2238874 1.352319
0001d0 97 76 c6 3c 8b bb 39 3f 44 cf a8 3e af 76 65 bf
       0.02422647 0.7255179 0.3297063 -0.8963422
0001e0 e8 a8 e9 bf 7f 03 b3 3d 00 fc 06 40 2d 7a 91 3e
       -1.8254671 0.08740901 2.1091309 0.28413525
0001f0 25 10 00 3f ff 0b db 3f fb 13 a8 3f 78 8e 48 3e
       0.50024635 1.7113036 1.3131098 0.19585598
000200 22 f5 c9 3e 55 1e c9 be 06 b4 1f bf c4 3d 39 bf
       0.39444834 -0.39280954 -0.6238407 -0.7235987
000210 df fc 21 3f 27 55 91 3e f2 7a 51 3e d0 48 e5 3c
       0.63276476 0.2838528 0.20457056 0.027988821
000220 a5 44 07 40 95 21 cc be e9 c4 d8 bf 35 90 5d b8
       2.1135647 -0.3986937 -1.6935092 -5.282481e-05
000230 e7 39 b0 3f 9a 1e 50 c0 ae ba b2 3f 0a d7 4e 3f
       1.376767 -3.2518678 1.396322 0.80796874
000240 a8 fb 9e 3d 0c b1 9d 3c 02 6e 20 bd c5 bf e8 3e
       0.07762843 0.019249462 -0.03916741 0.4545881
000250 01 ed 8c be 1a 25 c6 3f d6 82 ad 3c e6 34 26 be
       -0.2752457 1.5480072 0.021180551 -0.16231117
000260 c7 ef 63 40 ee 1e 7e 3f 89 eb 1b be ce 69 05 be
       3.5615098 0.99265945 -0.15226568 -0.13028643
000270 65 fa b6 3f e1 7c 62 1d cd 20 d4 bf 9f 79 e4 be
       1.4295164 2.9975412e-21 -1.657251 -0.4462404
000280 6d 72 e2 1c ad 50 2e 3c d7 cf f4 be c8 2e 83 3d
       1.4985004e-21 0.010639352 -0.4781482 0.06405407
000290 64 95 2d be cd b8 d2 3c ec ce a6 3e 18 ab 77 bf
       -0.16951519 0.025722886 0.32579744 -0.96745443
0002a0 18 5d 25 bf 3d 25 b3 be bb 73 00 bf c3 b7 fd bd
       -0.64595175 -0.34989348 -0.5017659 -0.123885654
0002b0 16 39 e6 be 9d 9b 3c be 70 7a 30 bd 51 cc f3 be
       -0.44965428 -0.18418737 -0.043085515 -0.4761682
0002c0 57 81 2c c0 d5 8d 1b 40 7b 6e 40 c0 40 f8 01 be
       -2.6953943 2.4305317 -3.0067432 -0.12692356
0002d0 87 e4 af 3e af dc 18 bc bb 71 32 3e 01 62 de c0
       0.3435404 -0.009329959 0.17426197 -6.9494634
0002e0 c9 ab 88 bb f5 42 6e 3e 89 56 ed 3c d0 f8 32 c0
       -0.004170869 0.2326773 0.028971927 -2.7964363
0002f0 ae 70 02 be 90 84 9b bd 35 07 62 bd 27 ad af 3e
       -0.12738296 -0.07593644 -0.055182654 0.34311792
000300 db ed 55 3c c0 07 26 be 97 a5 78 40 ef e5 d3 3f
       0.013057197 -0.16213894 3.8851068 1.6554545
000310 0d 5b 13 3e f7 9a 77 bf 09 39 aa bd 9e bc 21 be
       0.14390202 -0.9672083 -0.0831166 -0.15794608
000320 ae 39 1b 3e ce b8 30 be b6 ca e7 bd df e1 ce be
       0.15158722 -0.17257997 -0.11317961 -0.404067
000330 1d d7 77 c0 87 09 35 9c b0 80 05 bf 66 e3 42 3e
       -3.8725045 -5.990019e-22 -0.52149487 0.19032058
000340 c1 01 d3 9c bf 11 e4 3e 8c 4b 93 3e 4f 0e cf bb
       -1.3963262e-21 0.4454479 0.28768575 -0.0063188444
000350 74 95 4c 40 38 77 48 3e c8 4c 8d 3d e3 b8 5b be
       3.196622 0.19576728 0.068994105 -0.21457247
000360 f2 00 37 bf 30 23 c1 3f 4a a7 80 be d2 39 10 40
       -0.7148582 1.5088863 -0.2512763 2.253529
000370 e9 48 a9 be 45 0d 84 bd a4 44 a8 3b 2d 82 98 40
       -0.3306344 -0.064478435 0.0051351357 4.7658906
000380 9f b9 34 3e 19 1e 4b 3e 5b 59 11 bd b7 12 e0 bd
       0.17648934 0.198357 -0.035485607 -0.109410696
000390 62 8b 43 3f 0c ed 0e bf a8 68 06 bf e5 f4 59 bf
       0.76384556 -0.55830455 -0.5250344 -0.85139304
0003a0 2c e2 28 be c0 16 c5 c0 47 07 2b 3e 71 9d ff 3d
       -0.16492528 -6.159027 0.16701995 0.124812014
0003b0 16 41 f5 bc a9 8f 12 be 7f 4f b6 3b b7 72 16 3d
       -0.029938262 -0.14312615 0.005563676 0.036730494
0003c0 38 fb af be c1 6d 08 40 63 9a 48 3e 2b 6a c9 be
       -0.34371352 2.1316988 0.19590144 -0.39338812
0003d0 3d 3b 26 3e 7f 12 0f 40 4e 21 a0 3f 04 3d 15 3f
       0.16233535 2.235504 1.2510164 0.5829623
0003e0 d9 98 77 bf 2b 20 b6 3f eb 41 ab 3e 21 27 28 40
       -0.967176 1.4228567 0.3344873 2.6273882
0003f0 2c 6d 9b 3f 69 a9 49 9c a7 14 c7 c0 85 d3 77 bd
       1.2142692 -6.672428e-22 -6.221271 -0.060504455

predict/MobilenetV2/expanded_conv_1/expand/Conv2D;predict/MobilenetV2/expanded_conv_1/expand/Conv2D f4 [48, 1, 1, 8]
000000 d4 00 7d 3c 72 9b f5 bd 44 c4 3f 3d e9 af 2a bd
       0.015442092 -0.119925395 0.046818033 -0.041671667
000010 e9 40 db 3c 47 28 85 bc 30 68 40 bd 36 e9 ae 3c
       0.02676435 -0.016254557 -0.04697436 0.021351438
000020 00 5b 80 3d 6c 73 6e 3d bc 5f 9e bc 5e 48 ab bd
       0.06267357 0.058215544 -0.01933276 -0.08363412
000030 fb 72 18 3c b9 6e 30 bc cd 6f 8f bd b4 62 e5 3d
       0.009304757 -0.010768586 -0.07003746 0.11200467
000040 2b 18 9f 3c 8d 9a 83 3b f4 fe ed bc 11 6b a3 3d
       0.019420704 0.0040162266 -0.029052235 0.07979406
000050 b1 11 0a 3d 56 02 a5 3d 25 40 f8 3c 68 b5 71 3d
       0.033708278 0.08057086 0.030304024 0.059010893
000060 ec 66 42 3d eb 91 30 3d bc aa 44 bd 2c f4 98 3d
       0.047461435 0.04310791 -0.048014387 0.07468447
000070 a4 1c 63 bd 7e 78 8f bb cd 71 b3 bb 58 ec 07 3c
       -0.055447236 -0.0043783775 -0.0054762126 0.008296095
000080 e1 19 97 bc 12 20 5f bd ac c1 21 3d f9 8b a7 3b
       -0.018444957 -0.054473944 0.03949134 0.0051131216
000090 c2 65 42 3b 2f dc 85 3c ad 6e c5 bc 4a 99 8a bd
       0.0029662703 0.016340343 -0.024100626 -0.06767519
0000a0 49 07 4e 3c c4 35 74 3b b2 97 b2 bc 3f 33 db 3c
       0.012574979 0.0037263492 -0.02180085 0.026757834
0000b0 84 1e d8 3a 61 c0 a1 bc e5 7b cf 3c 21 0b a6 3d
       0.0016488587 -0.019745054 0.025327632 0.081075914
0000c0 97 a1 25 3d 76 42 57 bc 36 0d b9 bd c3 21 81 bd
       0.040437307 -0.013138404 -0.09035723 -0.06305268
0000d0 cd 90 9f 3d 18 5f 21 3c a0 7f 12 3d 17 b7 d3 bc
       0.077912904 0.009849332 0.035766244 -0.02584414
0000e0 69 0e 9a 3e 27 33 22 3d c4 57 4e 3d 70 a4 5b bd
       0.3008912 0.039599564 0.05037667 -0.053623617
0000f0 0f b7 8d 3d de e2 76 bc 62 e7 4f 3e e8 ee 10 be
       0.06919681 -0.015068738 0.2030311 -0.14153636
000100 92 f7 7a 3c 10 84 94 bd cc fd 17 3c b0 d9 9c 3d
       0.015317814 -0.072517514 0.0092768185 0.07658708
000110 e2 33 a7 3a 93 10 93 3c 57 30 11 bc 49 1a c0 bd
       0.0012756551 0.01795224 -0.008861623 -0.093800135
000120 95 49 01 3f b9 69 1c bf 21 7a 88 3d 03 7f 13 bc
       0.505029 -0.6109882 0.06663919 -0.00900245
000130 8d bb 7e bd b0 6d 84 3d 7d e7 14 bf 1f c8 d7 3e
       -0.06219058 0.06466234 -0.58165723 0.42144868
000140 48 3f 17 be d8 d8 2d bd d8 e0 0b be 6b 96 b3 3c
       -0.14770234 -0.042443126 -0.1365999 0.02192231
000150 bd 1e 4f bc 9b cf c2 3b 81 9a f3 bd 30 5f 7d 3d
       -0.012641606 0.0059451587 -0.11894704 0.061858356
000160 6d b7 a8 bd 37 2c 29 be 2b c4 03 bd 01 91 cd be
       -0.08238111 -0.16520773 -0.032169502 -0.40149692
000170 ec b3 f9 be 39 c0 04 be ed d2 38 3e 81 e8 80 bd
       -0.48770082 -0.12963952 0.18049212 -0.062943466
000180 a6 ed b8 3b b3 9d 22 3b 18 44 66 bc a2 15 c8 3c
       0.0056435643 0.0024813234 -0.014054321 0.024424378
000190 ac dc dd bc 3c 28 06 bc 96 79 ac 3c cf 5b 3c 3d
       -0.027082764 -0.008188304 0.02105407 0.045985993
0001a0 ca f1 75 9c 89 51 60 9e e8 e1 94 9e 01 fe b0 9e
       -8.1376205e-22 -1.1875322e-20 -1.5763542e-20 -1.8739778e-20
0001b0 58 a2 c9 1e 14 32 aa 9e 24 4f a3 1e 6e 27 ed 1d
       2.1348847e-20 -1.8020162e-20 1.7291028e-20 6.2774147e-21
0001c0 b1 47 2a bc d4 21 80 bd a7 ac 38 bc 88 85 a4 3c
       -0.010393069 -0.06256452 -0.011271632 0.020083204
0001d0 d8 9e a3 3d d2 79 74 3e 58 f5 af 3d 45 74 9e 3d
       0.079892814 0.23874596 0.085917175 0.077370204
0001e0 93 9d 5f 3c ef a1 28 3a 77 b1 b5 3b 63 51 2a bd
       0.013648408 0.00064328214 0.005544837 -0.041581523
0001f0 1c 92 b1 3c 4d 13 50 3c 4c 80 95 bc d3 5f c6 3c
       0.021676116 0.012699914 -0.018249653 0.024215614
000200 c3 11 e6 9c 3f 8d 6b 9e 54 aa 3b 9e 06 6b f9 9c
       -1.5224715e-21 -1.24700054e-20 -9.934921e-21 -1.6505103e-21
000210 69 69 94 1e 3f fe eb 9e 81 f7 6b 9e b6 f5 88 9e
       1.5713706e-20 -2.4986747e-20 -1.2491979e-20 -1.4501184e-20
000220 60 14 44 3e f9 14 9c 3e 99 88 cd 3f 06 00 8d 3e
       0.19148397 0.3048475 1.6057311 0.2753908
000230 23 e5 af be 09 e7 f3 bd 8a 6f bb 3e f5 26 c1 3e
       -0.34354505 -0.11909301 0.36608535 0.37725034
000240 ad 57 93 3d 34 4c d3 bd 39 0f a7 3c 57 8b dc 3c
       0.07194457 -0.10317269 0.020393 0.026921911
000250 67 78 86 bb f2 82 87 3c 6c 80 c4 bd 06 0f 1b 3b
       -0.0041037085 0.016541932 -0.09594807 0.0023660078
000260 93 ab 99 bd da 03 f4 bb d4 3c 89 3c a1 bd 35 3d
       -0.07503428 -0.007446748 0.016752638 0.044370297
000270 00 33 0a bd 48 56 0c bd 82 82 6e bd 65 cd 28 3d
       -0.033740044 -0.03426197 -0.05822993 0.041211504
000280 8c 63 9d 3c 5b 10 93 3c ea e8 bf bc 3c ed 82 3d
       0.019212507 0.017952135 -0.023426492 0.06392905
000290 0f 37 4c bc cd c3 92 bd 9f a6 3e bb 48 a2 0c 3d
       -0.012464299 -0.07166252 -0.0029091013 0.03433445
0002a0 e8 f1 fd 3e 5b a9 42 3e 43 75 8f 3f ec ca a2 3d
       0.49598622 0.19009916 1.120766 0.079488605
0002b0 3e c9 00 be 84 f6 bc bd df 64 17 3f 5b da cb 3d
       -0.12576768 -0.092267066 0.5913829 0.099537574
0002c0 63 e7 42 bd be 3f 28 bc d6 24 9f bd aa 19 eb 3a
       -0.04758395 -0.010269104 -0.07770698 0.0017936726
0002d0 d2 36 42 3b 3c 8c cf 3b 7e 84 7b bd 6f 54 2b 3b
       0.0029634726 0.006333856 -0.06140565 0.0026142856
0002e0 61 cf 9d be 80 2e c6 3e 5e 71 5f bd 02 ed 81 bd
       -0.3082228 0.38707352 -0.054551475 -0.06344034
0002f0 7e cb c5 3c 39 af 09 bd 36 e9 c6 3e f1 eb 70 be
       0.024144884 -0.03361437 0.388498 -0.23527505
000300 5d 6a 54 3c ed 9b ef bd 39 0e e2 bd a7 b3 3c 3e
       0.012964812 -0.11699662 -0.11037869 0.18427907
000310 b3 ca a5 bc 65 97 05 be b0 b8 59 3e 7b 80 8d 3e
       -0.020238256 -0.13046034 0.21261859 0.27637085
000320 3d 02 83 3c 42 b7 6a 3d 4e 9b 38 3d a9 bb 21 3d
       0.015992278 0.057303675 0.045069985 0.039485607
000330 f9 f1 26 3e 3b 4d 23 3e db 51 c7 bd db 7c 87 bd
       0.16303243 0.1594743 -0.097324096 -0.06615611
000340 fe 99 b7 be f7 70 03 be 4b 7e 0a bf d1 3f 36 bc
       -0.35859674 -0.12836061 -0.5409896 -0.011123613
000350 fc b5 e6 3c 3b 2c 7c 3d ef cd c8 be 59 fe d9 b9
       0.028162949 0.06156562 -0.39219615 -0.0004157897
000360 4b 51 84 3b 95 91 e0 bd 60 fc 04 be 5e e5 fa 3c
       0.004038011 -0.109652676 -0.12986898 0.030626949
000370 cf de 35 be 53 51 09 3f d9 18 8e 3e ff ad 52 3e
       -0.17760776 0.53639716 0.27753332 0.20574187
000380 b8 3c 8f 3a 21 6a 27 bc 78 fa 38 bc f4 52 b7 3c
       0.001092813 -0.010218174 -0.011290185 0.022378422
000390 e8 29 58 3c 7a 5d 92 3d 58 5b ed 3c c5 b8 09 3d
       0.013193585 0.071467355 0.02897422 0.033623476
0003a0 ca eb 8f 3e ee 5b bd 3d d5 a8 cd 3e 2a 46 bf 3b
       0.2810958 0.0924605 0.4016787 0.0058372216
0003b0 40 5d 6a bd 02 db 3b bd 5c 6c 8b 3e 9f 54 9b bc
       -0.057217836 -0.04586316 0.2723111 -0.018961249
0003c0 06 58 4b be f8 d3 a0 3e 38 3c 6f bd 6a 84 89 bd
       -0.19857797 0.3141172 -0.05840704 -0.06714709
0003d0 47 b7 c1 3c 0e d3 5e bc 7f f4 7d 3e 1b f4 f9 bd
       0.023646964 -0.013600124 0.24800299 -0.122047625
0003e0 67 d5 6f bc b1 6b 05 bd e6 41 e2 bb 70 1f 94 3a
       -0.014638281 -0.032573406 -0.0069048284 0.0011300873
0003f0 0e 64 31 3c 4a 08 c7 bc 40 81 30 3d d3 67 18 3d
       0.010827078 -0.024295945 0.043092012 0.03720839

predict/MobilenetV2/expanded_conv/project/Conv2D;predict/MobilenetV2/expanded_conv/project/Conv2D f4 [8, 1, 1, 16]
000000 25 2f 67 9e 45 74 ed bf cc b1 24 3e 4b 2e 69 bd
       -1.22387874e-20 -1.8551108 0.16083449 -0.056928914
000010 47 cb 28 41 00 d4 ff 3c 8e 6d b9 bd 09 38 85 3d
       10.549628 0.03122902 -0.09054099 0.065048285
000020 9d 60 be bc 40 90 29 c1 f6 f7 f6 c0 89 c2 b7 be
       -0.023239428 -10.597717 -7.7177687 -0.35890606
000030 d8 86 50 1e ce 5e 24 41 91 0e 4f be bd d0 d1 1e
       1.1039313e-20 10.273146 -0.202204 2.2215068e-20
000040 77 7d 37 1e 45 fe 20 c0 61 d6 12 bd 70 74 e9 40
       9.713885e-21 -2.5155194 -0.03584898 7.2954636
000050 1b be c6 40 1b a3 97 3f 78 99 f8 3f dd a2 11 3f
       6.210706 1.1846651 1.9421835 0.56889135
000060 3e 25 9b 3c 15 4d ed be d3 6e 2d 41 ce 63 6b c0
       0.018938657 -0.4634787 10.839557 -3.6779666
000070 82 cb c3 1e e7 1e 21 40 08 3c 85 bf 5e e9 20 a0
       2.0730597e-20 2.5175111 -1.0408945 -1.3629742e-19
000080 6b e4 84 1d e7 ad 76 3d b5 e6 06 be 27 75 97 bf
       3.5176288e-21 0.06022444 -0.13173945 -1.1832627
000090 1d 9a be c0 c7 0b c4 3e e7 ae 87 3f 72 e1 4b 3e
       -5.9563127 0.38290235 1.0600251 0.1991022
0000a0 35 86 d6 3c c8 38 91 3e 01 1c e4 bf c0 4b 0b 3e
       0.026187042 0.28363633 -1.7821046 0.13603115
0000b0 e3 c3 2f 1e 9a 66 4f 41 01 13 52 bf d7 6c 8e 9d
       9.304931e-21 12.962549 -0.8206025 -3.7699625e-21
0000c0 b9 83 23 9e db 8b 07 bf 1d 79 72 bf ed f4 c0 c0
       -8.656388e-21 -0.5294778 -0.94716054 -6.029898
0000d0 43 62 75 40 9e 75 92 3f 14 91 53 40 a9 56 4a 3f
       3.8341224 1.1442144 3.3057299 0.7903848
0000e0 d9 0a 94 bc 2e e7 39 40 45 c5 31 bd aa 5e ed 3f
       -0.018071579 2.904735 -0.04340102 1.8544514
0000f0 99 d2 f5 9d 53 79 3d bd d9 04 67 3f e3 17 f2 9e
       -6.5068713e-21 -0.046258282 0.9024177 -2.5632626e-20
000100 d4 0b 3f 9c 3d b2 2a 40 cd fe b5 bf c4 34 ed 3f
       -6.3211886e-22 2.6671288 -1.4218384 1.8531728
000110 24 09 3e c0 36 51 d6 3f 67 4b da 40 da 6c 08 3f
       -2.969308 1.6743534 6.8217044 0.53291094
000120 f4 ee c7 3a 43 17 50 c0 e3 00 6f 3f 98 fc fc be
       0.0015253709 -3.2514198 0.9336073 -0.49411464
000130 6e 9f 86 9e 29 e0 ad be 18 70 57 3f db 10 08 1f
       -1.425374e-20 -0.33960083 0.84155416 2.8813063e-20
000140 aa fc fe 9d d0 17 c8 bf ed 23 8c bf d7 8f a1 bc
       -6.749449e-21 -1.5632267 -1.0948464 -0.019721908
000150 9e 0a 0c c0 84 26 0f c0 22 e9 95 bf 6d bc c9 3f
       -2.188148 -2.2367258 -1.1711771 1.5760628
000160 8a 09 03 bc 4b e8 65 3f 54 ea dc be e1 af 87 c0
       -0.00799788 0.89807576 -0.43147528 -4.2402196
000170 71 d5 cd 9e 02 10 f3 be 65 71 42 41 d4 9f 0d a0
       -2.1793497e-20 -0.4747315 12.152684 -1.1996047e-19
000180 44 3c 16 9e 95 bb 86 3f af 4e 32 be bd 9f 99 3d
       -7.9533965e-21 1.0525995 -0.17412828 0.07501171
000190 90 18 3b 40 db d6 a2 bf 0f b7 b0 bf 9b d3 e7 be
       2.9233742 -1.2721819 -1.3805865 -0.4527863
0001a0 45 df e4 3c 28 6b c6 c0 50 da d3 40 b9 42 64 40
       0.027938494 -6.2005806 6.6203995 3.5665724
0001b0 70 d6 bd 1d a4 a7 ec 40 c8 6c 63 40 a3 a1 18 1f
       5.0249607e-21 7.395464 3.5535145 3.2320955e-20
0001c0 7e da 9d 1d 5b 43 13 3f ea 4b 28 bf f5 ca aa 40
       4.178347e-21 0.5752465 -0.65740836 5.337275
0001d0 d0 1b 98 3e f5 1c e9 bd 5a 66 38 3f 42 12 c5 3e
       0.2970872 -0.11382476 0.72031176 0.38490492
0001e0 e8 0f 3e 3a 26 a9 36 40 67 cb 0c c0 f6 b5 4b 40
       0.0007250295 2.854074 -2.1999147 3.182981
0001f0 9b 70 66 1d 40 76 a3 be 99 6a 04 40 7e be 0c 9f
       3.0498462e-21 -0.31926155 2.0690062 -2.9803725e-20
