tensorflow_examples/lite/model_maker/core/task/testdata/dummy_sp_text_embedder.tflite (tflite, 380792 bytes, 2 tensors)

Const u1 [376148]
36 0 0 0 0 0 30 0
40 0 0 0 36 0 32 0
28 0 24 0 0 0 20 0
16 0 15 0 14 0 13 0
8 0 4 0 30 0 0 0
36 0 0 0 4 236 0 0
0 1 1 1 24 160 3 0
12 160 3 0 188 58 196 193
0 0 0 0 2 0 0 0
1 0 0 0 222 235 0 0
32 0 32 204 129 0 32 204
131 0 32 204 132 0 32 204
133 0 32 204 134 0 32 204
135 0 32 204 136 0 32 204
136 204 128 0 32 204 136 204
129 0 32 204 136 205 130 0
32 204 138 0 32 204 139 0
32 204 147 0 32 204 147 204
128 0 32 204 147 204 129 0
32 204 147 205 130 0 32 204
148 0 32 204 148 204 128 0
32 204 148 204 129 0 32 204
148 205 130 0 32 204 167 0
32 204 168 0 32 204 179 0
32 205 130 0 32 205 133 0
32 217 139 0 32 217 140 0
32 217 140 217 145 0 32 217
141 0 32 217 141 217 145 0
32 217 142 0 32 217 142 217
145 0 32 217 143 0 32 217
143 217 145 0 32 217 144 0
32 217 144 217 145 0 32 217
00000000: 2400 0000 0000 1e00 2800 0000 2400 2000
00000010: 1c00 1800 0000 1400 1000 0f00 0e00 0d00
00000020: 0800 0400 1e00 0000 2400 0000 04ec 0000
00000030: 0001 0101 18a0 0300 0ca0 0300 bc3a c4c1
00000040: 0000 0000 0200 0000 0100 0000 deeb 0000
00000050: 2000 20cc 8100 20cc 8300 20cc 8400 20cc
00000060: 8500 20cc 8600 20cc 8700 20cc 8800 20cc
00000070: 88cc 8000 20cc 88cc 8100 20cc 88cd 8200
00000080: 20cc 8a00 20cc 8b00 20cc 9300 20cc 93cc
00000090: 8000 20cc 93cc 8100 20cc 93cd 8200 20cc
000000a0: 9400 20cc 94cc 8000 20cc 94cc 8100 20cc
000000b0: 94cd 8200 20cc a700 20cc a800 20cc b300
000000c0: 20cd 8200 20cd 8500 20d9 8b00 20d9 8c00
000000d0: 20d9 8cd9 9100 20d9 8d00 20d9 8dd9 9100
000000e0: 20d9 8e00 20d9 8ed9 9100 20d9 8f00 20d9
000000f0: 8fd9 9100 20d9 9000 20d9 90d9 9100 20d9

dense/MatMul1 f4 [8, 3]
0.68566924 -0.11195916 0.115947664 -0.010234714 -0.497966 0.6840114 0.46568173 -0.23521942
-0.35348997 -0.59153765 0.5460369 -0.30972645 -0.36452955 -0.06300175 0.18365401 0.18673366
0.5323605 0.029289603 -0.085960746 0.31819326 0.35958964 -0.012987435 0.1508205 0.7095775
00000000: 0588 2f3f d84a e5bd f875 ed3d 80af 27bc
00000010: 66f5 febe 5f1b 2f3f d66d ee3e 5cdd 70be
00000020: a3fc b4be 036f 17bf 13c9 0b3f 7794 9ebe
00000030: 9ea3 babe 1007 81bd cc0f 3c3e 1c37 3f3e
00000040: c748 083f c0f0 ef3c 300c b0bd 3aea a23e
00000050: 221c b83e 40c9 54bc b070 1a3e dfa6 353f
